checkpoint_env_solved_critic.pth (torch, 194623 bytes, 7 tensors)

obs_net.fcs1.weight f4 [256, 24]
000000 71 d8 87 bd 51 99 8f 3e be 21 06 bd bd 21 d7 3d
       -0.0663308 0.2804666 -0.032747023 0.10504482
000010 a7 45 1b be b3 b9 21 3f 93 c7 23 3d 49 a9 d2 3d
       -0.15163289 0.6317398 0.03998525 0.10286195
000020 9a 90 97 3d 96 42 60 3e 99 86 7c 3c 2e a2 ef 3d
       0.074006274 0.219004 0.01541295 0.11700855
000030 5e 06 c3 3c 7b fc eb 3e 2f 05 19 bc 8f 53 29 3e
       0.023806747 0.46091065 -0.009339615 0.16535781
000040 e6 98 ad 3d 87 f1 5d 3e 8c 2a 50 bd 2d 97 27 3e
       0.08476429 0.21674167 -0.050821826 0.16366263
000050 e2 ad aa 3e e8 a9 bb bc db 6d 78 3d 2d d3 5f 3e
       0.33335787 -0.022908166 0.06065164 0.21857901
000060 38 34 23 3d 6f 92 7f bd 64 46 74 bd fd 12 fa 3d
       0.03984472 -0.06239551 -0.059637442 0.12210653
000070 2d 82 b9 3d 62 a0 10 bf 01 b8 bf bc 12 93 15 3e
       0.09058032 -0.56494725 -0.02340317 0.14606884
000080 67 2c 2d 3d 3e 68 3b bd ca 44 79 bc 70 73 26 3e
       0.042278673 -0.04575371 -0.0152141545 0.16254973
000090 49 67 cb 3c 74 05 f8 be 4f 86 0b bc 06 6f 19 3e
       0.024829524 -0.4844166 -0.008515908 0.14983758
0000a0 5f b9 fb 3d 09 76 83 bb 8a 7b 17 bd c9 62 07 3d
       0.12291216 -0.0040118736 -0.03698305 0.033053193
0000b0 3c 41 08 3c 4e 7d a1 3e ff b9 dc bc 2d ab 77 3d
       0.008316334 0.31540912 -0.026944159 0.06046598
0000c0 99 e0 4a 3d 28 30 8e bb 21 09 41 bd bb f3 94 bd
       0.0495306 -0.0043392368 -0.047127847 -0.072730504
0000d0 48 2e dd be 6d bb 88 be 51 85 23 3d 18 d6 14 be
       -0.43199372 -0.26705495 0.039922062 -0.14534795
0000e0 d0 78 1d 3d 71 77 6b 3d cf 1d 38 bc 5f db e2 bc
       0.038445294 0.057486955 -0.011237576 -0.027692495
0000f0 92 2b 0b be 32 b5 1e 3c a3 a0 b2 b9 58 3a 0e 3d
       -0.1359084 0.009686755 -0.0003407049 0.03472361
000100 e2 5e da bc ed de a3 3d f3 2a a1 3c 92 18 1d be
       -0.026656572 0.08001504 0.0196738 -0.15341404
000110 b7 68 5d 3e 59 94 b4 3e b1 af d5 bc ef ba cf bd
       0.21621977 0.3526943 -0.026084753 -0.10143077
000120 bc af b1 3d d3 47 cb 3e 58 a3 45 bd 95 ef 15 be
       0.08676097 0.39703235 -0.04825148 -0.14642175
000130 a4 87 eb bd cc f2 aa bf b8 5b 48 bd 14 19 31 bd
       -0.11500481 -1.3355346 -0.048915595 -0.043236807
000140 e0 d1 f3 bb 1c dc d9 3e 12 ae d4 bd 63 eb a7 bb
       -0.0074407905 0.42550743 -0.10384764 -0.005124496
000150 c4 52 15 bb 74 eb c8 be 62 6e 0c bd 8e fa 1d 3d
       -0.0022784928 -0.39242136 -0.034284957 0.038569026
000160 d9 28 2b 3e 6f 2a ca 3e c3 bd 95 bb ac 99 34 3d
       0.16714801 0.394855 -0.0045697405 0.044091865
000170 5c 1f ad 3e c7 7a a8 be 0c 7a 42 bc ba 60 18 3d
       0.33812988 -0.32906172 -0.011869919 0.03720162
000180 e2 b2 13 3e b2 76 b1 be 86 18 fd 3c 72 6b c1 3c
       0.14423707 -0.3466087 0.030895483 0.023610804
000190 7c ca 81 3d 64 d5 a7 bc 6f 9e ae bb f3 a1 61 3d
       0.06337449 -0.020487495 -0.0053289453 0.055086087
0001a0 2f 18 21 3e 81 cd aa be 62 93 98 3c 7d fd ae bd
       0.15731882 -0.33359912 0.018624965 -0.08544443
0001b0 ec db 3a bd b1 e0 12 bf 2a 36 8e bd 2c ba 12 bd
       -0.04561989 -0.573741 -0.06943925 -0.03582208
0001c0 19 90 47 3e ad 51 ad be 7d 52 8e ba 91 84 98 3d
       0.19488563 -0.33851376 -0.0010858324 0.0744716
0001d0 49 c4 98 be 46 3c 9c be b8 4b 1f 3c a1 42 2f 3d
       -0.29837254 -0.30514735 0.009722643 0.04278815
0001e0 a2 88 2b 3d c7 01 d2 3d dd 5f f7 bb 82 31 49 bd
       0.04187835 0.10254245 -0.0075492696 -0.04911948
0001f0 72 3d 96 3b 37 1e 7a bd a1 23 8b 3d 9f 5a 2c bc
       0.0045849616 -0.06106397 0.06793905 -0.010519653
000200 a7 d5 5a 3d d1 55 2d 3e 18 a0 01 3d 47 63 64 bc
       0.05342641 0.16927268 0.031646818 -0.013939685
000210 d5 6f a4 bd d3 41 02 be 66 42 52 bd 49 dc 78 3d
       -0.08029143 -0.12720422 -0.051332854 0.060756955
000220 48 84 32 3e 08 84 e9 3d d9 59 53 bd d3 9a a4 3e
       0.17433274 0.11402136 -0.051599357 0.32149372
000230 68 9c c7 be 5c 35 90 3e af 69 28 3d 1d 1f ad 3e
       -0.38986516 0.2816571 0.041116413 0.338128
000240 33 ae 85 bd 08 28 d6 bd 9e 25 d1 3c 05 cc b1 bd
       -0.065273665 -0.10456854 0.025530633 -0.08681492
000250 61 e5 5a bd aa 6b 1e be b0 c3 ca 3c d1 5d ed bc
       -0.05344141 -0.15470758 0.024751514 -0.0289754
000260 29 36 a0 3d 85 ba 08 be 58 6a 27 3c d7 80 4b 3d
       0.0782283 -0.13352402 0.010218225 0.049683418
000270 29 4b a3 bd d9 fc 19 be 49 21 91 3c e5 d6 9b bc
       -0.0797332 -0.1503786 0.017716067 -0.019023368
000280 9e 3d f4 3d ec 19 d9 bd ff 21 a1 bc 65 0b 82 bd
       0.11925815 -0.10600647 -0.01966953 -0.063498296
000290 0d a2 7f 3d dd 47 b0 3e e5 e6 7b 3c 55 35 1f be
       0.062410403 0.34429827 0.015374874 -0.15547688
0002a0 e2 67 54 3d 2e 07 e6 3d 8a 88 97 bc f5 ad 3e 3c
       0.051856883 0.11231838 -0.018497724 0.011638154
0002b0 70 5f 86 bd 46 e2 a6 bd d2 2e e4 bb cb eb 70 bb
       -0.06561172 -0.08148627 -0.006963589 -0.0036761637
0002c0 eb 81 65 3d 7e 23 17 3e 3c ee b3 ba 65 06 c5 3b
       0.056032103 0.14759633 -0.0013727616 0.006012725
0002d0 6c f4 09 3e 5b 6e fa bd ac b5 e7 bc f9 4c a1 3d
       0.13472146 -0.1222808 -0.02828487 0.078760095
0002e0 ed 0c 5d 3d d1 2a f8 3d 4f e4 7a 3d d6 39 d0 3c
       0.053967405 0.121175416 0.06125289 0.025418203
0002f0 29 0e ac 3d cb 5d f0 3d 07 e2 43 bd 1e a4 ed 3c
       0.08401138 0.117366396 -0.04782298 0.029008921
000300 eb 58 1e bd 94 54 64 bd 84 ee 48 bd 52 a1 a7 3d
       -0.038659018 -0.055744722 -0.04905559 0.08185066
000310 d1 b0 db bd 47 2f 8e bd 4c eb 4c 3d 8d 46 82 3b
       -0.107270844 -0.06942611 0.050029084 0.0039756955
000320 99 0e c9 bc ed 58 b2 bc 70 75 11 3d 9b a2 35 bc
       -0.024543094 -0.021770919 0.035512388 -0.011086131
000330 24 cb d7 ba 07 a3 4a 3d bd d1 8d bc 8a 1c 6d bb
       -0.0016463739 0.04947188 -0.017311925 -0.003618034
000340 f5 8d 5c bd ee 8f bb bc a4 89 e7 bc 40 fa 29 be
       -0.05384632 -0.02289578 -0.028263874 -0.16599369
000350 74 6b 58 3e bd e7 fa 3e 33 c3 9b 3b 17 ba 0f be
       0.2113474 0.49004927 0.004753494 -0.14035831
000360 c4 96 da 3e fa 09 99 3e 3d b6 6a bc 06 5c 93 3d
       0.4269315 0.29890424 -0.014325676 0.071952865
000370 f3 4a ae 3e 23 3e b8 be 59 09 de bd 42 48 eb 3d
       0.34041557 -0.35984907 -0.10841627 0.114883915
000380 5e 34 ac 3e 86 8f 75 3e 6f 46 84 bc 6a 31 c4 3e
       0.33633703 0.23980531 -0.016146867 0.3831895
000390 6d 79 92 3e 05 ce 38 be f3 d9 4c bd 06 af dd 3e
       0.28608266 -0.1804734 -0.05001254 0.43297595
0003a0 32 05 8f 3e e8 47 8d 3e b4 f1 76 3d 4a 79 c2 3e
       0.2793365 0.27593923 0.0602891 0.3798316
0003b0 85 fa 11 3c dc 70 83 3d ed ca 19 3c 9a 43 f1 3e
       0.008909826 0.064180106 0.00938676 0.47121888
0003c0 54 fe 21 3e a5 84 e5 bc 89 2d d4 3c 0d 0f 0d bd
       0.15819675 -0.028017351 0.02590062 -0.03443818
0003d0 df f6 72 3d fe 6b 5b bf 1f 2b 76 bc f5 95 0c bd
       0.059317466 -0.8571166 -0.015024929 -0.034322698
0003e0 ed f6 8f 3e df 9b b8 bb 62 59 f7 bc 3d 71 7c 3d
       0.28118077 -0.0056338157 -0.030193988 0.06163143
0003f0 1b ad 31 3d fd d8 9a be 26 05 2a 3c 9f 34 f0 3d
       0.043377977 -0.30243674 0.010377204 0.11728787

obs_net.fcs1.bias f4 [256]
000000 4f 7b 08 3d 56 d3 0e 3e 69 0e 06 3e f3 fd 00 bf
       0.03332072 0.13947806 0.13091435 -0.50387496
000010 dd 2b 81 3d 38 1a 2e be 86 5b 0c 3e 93 fc 2f bd
       0.063071944 -0.17002189 0.13706788 -0.042965483
000020 71 ba 5a 3e e0 70 90 be 15 4d 82 bd 25 96 9a be
       0.21360184 -0.28211117 -0.063623585 -0.30192676
000030 59 75 19 be f2 88 15 3d ee aa c7 be 05 5e 37 3e
       -0.14986171 0.036507554 -0.38997597 0.1790696
000040 41 ea 03 be 44 ec 86 bc f5 84 0d be 75 db 8c be
       -0.1288233 -0.016470082 -0.1382025 -0.27511182
000050 da b7 20 be a4 1a 00 3c 15 08 a5 be f1 fb b5 be
       -0.15695134 0.007818852 -0.3223273 -0.3554378
000060 c9 2d 5f be 59 fc 7f be b9 d2 01 3e 59 7d 6a be
       -0.2179481 -0.24998607 0.1267804 -0.22899379
000070 d4 ff 27 be ed 35 d0 be d9 24 c8 3d 2a 84 3a be
       -0.16406184 -0.40666142 0.09772653 -0.18214479
000080 89 df 34 3e b7 e6 85 be ba a0 fe bd 6d fe 8f 3e
       0.17663397 -0.26152584 -0.12433 0.281238
000090 ed 75 8e be a7 c9 d9 be b8 32 12 bd a1 66 41 be
       -0.27824345 -0.4253666 -0.0356929 -0.18886806
0000a0 82 ea a3 be 0a 54 c5 3e 05 28 c6 3d c5 53 a8 be
       -0.32014853 0.3854068 0.09675602 -0.3287641
0000b0 17 22 fa bd 8e 92 59 be ee 39 b7 be 4c 58 95 bd
       -0.12213533 -0.21247312 -0.35786384 -0.07292232
0000c0 c0 b6 99 be d3 b4 12 be d0 e1 24 3e 4a 2d a7 bd
       -0.3002224 -0.14326791 0.16101766 -0.08162935
0000d0 73 c2 ad be 4e 61 29 3e 16 10 52 be 85 bb ee 3d
       -0.33937415 0.16541025 -0.20513949 0.1165686
0000e0 54 6d 40 be 27 7b 7c be b0 3b 8c 3e 47 68 13 bd
       -0.18791705 -0.24656354 0.27389288 -0.03598812
0000f0 ae c7 06 be a3 16 fa 3d 5b cf 51 3e c0 f5 6f be
       -0.1316211 0.12211349 0.20489256 -0.2343359
000100 0c 5b 8c be 3b 5d 46 be a5 72 5f be 28 da 1b bd
       -0.27413213 -0.19371502 -0.21821077 -0.038049847
000110 b7 1a 88 be 04 0b ec 3d bc 5c 10 be 54 4a 8c 3d
       -0.26582882 0.115255386 -0.14097875 0.068501145
000120 51 4a 01 3d 48 58 ee bd 10 0d 73 3e 98 7f b0 bd
       0.031565014 -0.11637932 0.23735452 -0.086180866
000130 e2 a1 74 3a 58 30 ae be 7e 39 14 be fa db 22 be
       0.0009331984 -0.34021258 -0.14475057 -0.15904227
000140 9a f6 a8 be 9d d7 75 be 26 ea 7a be 5d c0 39 3e
       -0.33000642 -0.24008031 -0.24503383 0.18139787
000150 7a 50 63 bd 9e fc b7 bc bb c7 af 3b 9e ce 2f 3e
       -0.05549667 -0.022459324 0.005364386 0.17168662
000160 aa 70 76 3e 74 cd 9d bd 90 f4 eb 3d aa 08 9d be
       0.24066415 -0.07705203 0.11521256 -0.30670673
000170 5c 75 31 be aa 4d c2 be 3f 73 97 be 53 95 2e bd
       -0.17329925 -0.37949878 -0.29580113 -0.042622875
000180 6e 19 19 be 74 47 a5 be 4c d8 88 3c 54 6d 0f be
       -0.14951107 -0.32281077 0.0167047 -0.14006549
000190 5c e0 d9 bd 61 f6 73 be d2 3f db bd 9d a2 26 be
       -0.10638496 -0.23824455 -0.10705532 -0.1627297
0001a0 a4 f4 7e be a4 f2 d7 be 86 3d 89 be bf 2f 11 bd
       -0.2489801 -0.42177308 -0.2680475 -0.035445925
0001b0 ec 5a d3 be 34 a6 48 be e0 9d e0 be ea 66 30 bd
       -0.41280305 -0.19594651 -0.4387045 -0.043066896
0001c0 9d 02 20 3d a7 7c 6a 3d e8 2a 94 be fe 54 8b be
       0.039064992 0.057247784 -0.28938985 -0.2721328
0001d0 dd fd a4 be 85 44 a5 be e0 7c 49 3e 6b 18 af be
       -0.32224932 -0.3227884 0.19676542 -0.34198317
0001e0 fd 49 74 be ec 66 80 3d ff ee ea bd 76 cb 3e be
       -0.2385635 0.06269631 -0.11471366 -0.18632302
0001f0 e5 7c 73 bd 1f 3e 5b 3e d5 62 e2 bd 4e a9 2f be
       -0.05944528 0.21410416 -0.11054007 -0.17154428
000200 db ae 81 3d 47 4b 13 3e 12 65 ab be d3 c7 48 3e
       0.06332179 0.14384185 -0.33475548 0.19607477
000210 59 fe 87 be 18 94 c1 be 20 88 1e be 50 4a 0b 3c
       -0.2656124 -0.378083 -0.15481615 0.008501604
000220 dc a6 6c be c1 5a 8a 3d 34 28 e3 be ed d1 93 be
       -0.23110527 0.06755591 -0.4436661 -0.28871098
000230 95 d6 7c be 54 79 66 be e7 a8 30 be 2a 06 1a be
       -0.24691232 -0.2250722 -0.17251931 -0.15041414
000240 92 e4 e3 3c e0 25 df be e7 bc 2f 3e 37 1b 7a 3d
       0.027818952 -0.43583584 0.17161904 0.06106111
000250 a4 3b 85 be 13 b3 1a bd 09 a2 e2 be 71 cd 5d be
       -0.26022065 -0.037768435 -0.44264248 -0.21660401
000260 2b df ed be 94 3d 8a 3e 4c cd 58 be 6e 55 11 bf
       -0.46459326 0.27000105 -0.21172065 -0.5677098
000270 0c 0d 04 3e 0d f3 95 be 69 5c 81 3b c8 d9 a4 bd
       0.12895602 -0.29286996 0.0039477837 -0.08049351
000280 34 63 8c be 24 e7 80 be fa f1 0c bc eb b8 da be
       -0.27419436 -0.25176346 -0.008602614 -0.42719206
000290 48 e3 8f bd ee 89 0b bd 58 13 25 be d7 ff 4c be
       -0.07025772 -0.034067087 -0.1612066 -0.2001947
0002a0 e3 45 4d be 5b fc c5 be 92 7c 83 be 0e 65 a6 bb
       -0.20046191 -0.38669094 -0.25680977 -0.0050779646
0002b0 3d 76 41 3e 10 50 97 be 45 ab 28 bd 2b 51 a9 be
       0.1889276 -0.2955327 -0.04117896 -0.3306974
0002c0 10 d4 3e bd ad 45 f4 3e 5a 69 b0 3d ac dd d1 bd
       -0.046588957 0.47709408 0.08613844 -0.10247359
0002d0 a0 05 d0 bc 25 3d 34 be 93 6f 02 bf fe 1e b5 3d
       -0.025393307 -0.1760145 -0.509515 0.08843802
0002e0 fb 18 ca be 77 11 2a bd 1a c0 50 bc 99 a1 d0 be
       -0.39472184 -0.041520562 -0.012741113 -0.4074829
0002f0 e0 39 14 be ed ba d2 be b7 48 58 be c4 58 3a be
       -0.14475203 -0.41158238 -0.21121489 -0.18197924
000300 23 19 9d be 8a 2c 70 be 54 1f 34 3c 16 38 99 be
       -0.3068324 -0.2345449 0.010993797 -0.29925603
000310 11 e5 36 be c4 27 2a be ff 1b a1 3d ac b1 6f be
       -0.1786082 -0.16616732 0.07866668 -0.2340762
000320 c2 17 e1 3d 12 15 40 3d 4c 86 54 bc cc f6 e2 bc
       0.109908596 0.046895094 -0.012971472 -0.027705573
000330 d5 e3 26 3e c4 79 17 be 74 ca 2d 3c f6 bb 15 be
       0.16297849 -0.14792544 0.010607351 -0.14622483
000340 69 30 ba be 76 68 f0 3d 0c e7 4e be 2a 60 3b be
       -0.3636506 0.11738674 -0.20205325 -0.18298402
000350 1d 3e a4 3d 4c 67 2f 3e e0 a5 1a 3e 4c 14 e1 be
       0.0801966 0.17129248 0.15102339 -0.43960798
000360 e3 9e cd bd 06 48 6c be 0f 8f 48 bd 04 f7 ad bd
       -0.10040071 -0.2307435 -0.048964556 -0.0849438
000370 5a 0b a1 3d e9 00 33 be 75 97 5c 3e 97 fb d5 be
       0.07863493 -0.17480816 0.21542151 -0.4179351
000380 4a 2a 8b 3d f2 82 90 be e6 da 8b be 92 4f 3f 3e
       0.067951754 -0.28224903 -0.27315444 0.18682697
000390 1a 8a 31 be a0 d6 7e bd 08 e4 f8 3d a7 a0 d0 bd
       -0.17337838 -0.0622164 0.121528685 -0.10186892
0003a0 1d 46 61 3d 2c b9 90 be 05 58 f2 3d d6 4c ae be
       0.054998506 -0.28266275 0.11833195 -0.34042996
0003b0 a7 2f 97 3e 36 e1 51 be 97 b8 08 bf 18 cf 5b be
       0.29528543 -0.20496067 -0.5340666 -0.21465719
0003c0 b5 84 b1 bc 54 39 9e be 0e 48 44 be 53 31 94 be
       -0.021669725 -0.30903113 -0.19168112 -0.2894388
0003d0 81 82 53 bd 9e ee dd be 5a 96 85 be f8 72 d6 be
       -0.05163813 -0.43346113 -0.26091272 -0.4188459
0003e0 2b 14 6f 3d 31 5e 9c be f8 ee bb be c1 56 d8 be
       0.058368843 -0.30540612 -0.36705756 -0.42253688
0003f0 a0 ca 92 bd ff e7 1f be ac ec d4 bd 4a f3 9b be
       -0.07167554 -0.15615843 -0.10396704 -0.30459052

out_net.fc2.weight f4 [128, 258]
000000 44 d3 40 be 76 7a 35 bc 1d 40 a3 be 30 85 b0 bd
       -0.18830591 -0.01107656 -0.31884852 -0.086191535
000010 8d ba 32 3e 34 13 23 3e a5 1c 8b 3d 13 cd 28 bc
       0.17453976 0.15925294 0.06792573 -0.0103028
000020 76 b2 cd bd 79 3a 9e bd bc 0e 89 3c 6c 09 ac 3c
       -0.10043804 -0.077259965 0.016730659 0.021000586
000030 de a3 0e be e9 a2 2d be f2 fc b0 bc 6b bd e0 bd
       -0.13929698 -0.16956677 -0.021604989 -0.109736286
000040 7f c3 cb bd 61 a8 74 bd b2 f9 ff bc 97 07 08 be
       -0.09949397 -0.05973089 -0.031246994 -0.13284145
000050 22 36 4a 3d 66 d6 85 3c c7 7d 6a bb 30 d8 cc be
       0.04936803 0.016337585 -0.0035780536 -0.40008688
000060 1f 35 36 3c b2 52 b7 3b b9 77 78 be 00 7c 00 bd
       0.0111210635 0.005594575 -0.2426442 -0.031368256
000070 e0 ce 95 be 72 18 69 bd 9a 3a 10 be 44 2c 78 3d
       -0.29259396 -0.05690808 -0.14084855 0.06058909
000080 9a 93 af be b0 0d 8f bd 08 41 1a bd d2 80 0e bd
       -0.342923 -0.069850326 -0.037659675 -0.03479082
000090 25 1a d7 3c 7c d0 53 be 35 a2 5a bd 94 8b 6b bd
       0.026257584 -0.20684999 -0.05337735 -0.05750616
0000a0 52 b8 bc be e5 ed 2d 3e 4f af 89 be 47 a6 ca bd
       -0.36859375 0.16985281 -0.26891562 -0.09894996
0000b0 8b 48 4b bc 8f 59 b6 bd 65 94 24 be 02 14 33 3c
       -0.012407432 -0.08903801 -0.16072233 0.010930063
0000c0 e5 e5 27 be 07 01 19 3b 8c 08 14 3e d1 96 60 be
       -0.16396292 0.002334656 0.14456385 -0.21932532
0000d0 cf 08 91 be 40 57 9f 3c 60 6a 2f be 08 65 5a 3e
       -0.28327033 0.019450784 -0.17130423 0.21327603
0000e0 ba 42 d6 3d 0f f7 11 bd 3b 44 26 be 53 82 58 be
       0.10461946 -0.035636004 -0.16236965 -0.21143465
0000f0 b1 c5 82 bc 34 d0 f5 bd 48 6a c4 bd de fb c5 bd
       -0.015963407 -0.12002602 -0.09590584 -0.096671805
000100 89 81 42 be 47 bf cd 3b a7 80 f4 bd 7d 5f 58 3c
       -0.18994726 0.0062789056 -0.11938601 0.01320636
000110 d7 e5 6b bc 7e e2 84 3d 05 21 a6 3d a5 0b 78 bd
       -0.01439806 0.064885125 0.08111767 -0.06055798
000120 ed fa 19 3d 7c 3e d6 3d 3d d1 ff bd 39 c0 9e bd
       0.037592817 0.10461137 -0.12491081 -0.07751507
000130 31 74 aa be 94 cd 02 bd e2 79 37 bd 34 c9 55 be
       -0.33291772 -0.031934336 -0.04479397 -0.20877534
000140 39 e8 d5 bd e7 49 18 3c 72 12 df be 56 74 46 3c
       -0.104446836 0.009294963 -0.4356876 0.012112698
000150 c7 27 d1 bd 73 ca b6 bd 6f 77 23 bc c8 b7 1a be
       -0.10212665 -0.08925333 -0.009977206 -0.1510917
000160 d4 0b 95 bc e9 fd 8e 3e 57 2f 00 3d e9 59 a6 b9
       -0.018194117 0.27928093 0.031295147 -0.00031728976
000170 c8 a8 3c be aa db c4 bd 6e 32 f2 bd 16 07 f7 bc
       -0.1842376 -0.0961221 -0.11826025 -0.030154746
000180 41 40 57 bd 3f e3 d2 bd e5 99 2c be 30 a8 e3 bd
       -0.05255151 -0.1029725 -0.16855581 -0.111160636
000190 aa fb aa bd 26 82 05 be 72 b9 88 be b6 5e 81 bd
       -0.08348782 -0.13037929 -0.26703984 -0.06316893
0001a0 fd 36 80 bd 89 7f 19 bb 17 9e 49 3d 49 34 c7 3a
       -0.06260488 -0.0023421964 0.04922303 0.0015198077
0001b0 37 64 0d be 11 6e 0b bd 84 7e dd 3c 74 1b ce bc
       -0.1380776 -0.034040514 0.027037866 -0.025159575
0001c0 6d ec e5 bd 0f 9a 10 be fb ac a6 be 81 7a aa bd
       -0.11226735 -0.14121269 -0.3255385 -0.08324147
0001d0 43 7c 27 be 03 94 e2 bd 8a 97 fb bb a1 14 82 3c
       -0.16355996 -0.11063387 -0.007677977 0.015878977
0001e0 a2 22 fd bd 98 2a 8a be 9c 2e 10 be c0 75 54 bc
       -0.12360121 -0.2698562 -0.1408028 -0.012967527
0001f0 44 6c 22 be 34 79 b9 bd 28 49 6f be a5 ef 0b be
       -0.15861613 -0.09056321 -0.2336775 -0.13665636
000200 2c 4c 51 be 2e c1 8b be 32 d6 e0 bd 64 96 9e bd
       -0.20439214 -0.27295822 -0.109783545 -0.077435285
000210 51 3e 09 3d a3 b6 02 be bf fe 22 3d e9 f1 70 bc
       0.033506695 -0.12764983 0.039793726 -0.014706113
000220 eb ef df bd 24 47 5b bc 41 d5 62 3d 64 f7 95 bd
       -0.109344326 -0.01338366 0.055379156 -0.07322577
000230 f2 b6 d5 bd 51 22 e3 bd bc 1a 28 bd ed 25 df bd
       -0.10435285 -0.1109053 -0.04104112 -0.10895906
000240 70 2f ae 3d 6e 28 df bd 9a 2b 3c 3d d3 8a f9 be
       0.08505142 -0.10896383 0.04594002 -0.48738727
000250 df 9d 38 3c 46 12 a0 ba 87 0d 8e be 11 08 f6 be
       0.011268108 -0.0012212477 -0.27744696 -0.4805303
000260 8b ac c2 3c 53 8f 22 bd 16 15 b9 3a 48 06 3d 3d
       0.023763916 -0.039687466 0.0014120664 0.04614857
000270 ba bc 01 3d 6e e4 ac bd 04 3f b6 bd c1 5c 50 bd
       0.031674124 -0.08442007 -0.08898738 -0.050869707
000280 d0 92 e3 bc d2 a5 83 3d 1a 45 00 be da b9 dd ba
       -0.027779967 0.06428112 -0.1252636 -0.001691635
000290 6b 00 25 be 5a 65 a0 bc 9d 68 a0 bd 0e 46 ef bd
       -0.1611344 -0.019579578 -0.078324534 -0.11683284
0002a0 ea c2 c7 bd b2 50 b3 bd cc cb c7 bd a8 a3 09 bd
       -0.09753974 -0.08755626 -0.09755668 -0.03360334
0002b0 ba 5e 6f 3c 94 f6 da be 55 5d 4d bd 57 74 43 bd
       0.014609987 -0.4276625 -0.050137836 -0.047718372
0002c0 38 cd 89 be df 78 86 3e ed 01 de 3c 13 b4 38 bd
       -0.26914382 0.26264092 0.027100528 -0.045093607
0002d0 d7 17 eb bc 3f 71 66 bd 44 96 d0 bd fe 17 33 3d
       -0.028697891 -0.056260344 -0.10184911 0.043724053
0002e0 4f 79 c3 bd 2a 33 45 be 82 72 de 3b 56 4f 1d be
       -0.09544622 -0.19257799 0.0067885527 -0.15362296
0002f0 2d 3c c1 bc 3b c5 09 be 64 aa fc bd 5a a7 42 bd
       -0.023588264 -0.13454144 -0.12337187 -0.04752288
000300 00 39 f2 3c 1c 79 5b 3c 21 ea 18 3d a9 cf 29 3d
       0.029568195 0.013395574 0.037332658 0.041457806
000310 86 85 0b be bc 7f 30 be 00 45 44 be 78 14 51 be
       -0.13625154 -0.17236227 -0.19166946 -0.20417964
000320 67 fd 52 bd e7 60 1b be b7 75 dd bb 0b af 32 3c
       -0.051511195 -0.15173684 -0.0067584175 0.010905991
000330 6b 3c f5 bd 0c 4d 26 3c fc 11 c1 bc 47 50 18 3d
       -0.119744144 0.010150205 -0.023568146 0.037185933
000340 67 3c 96 3c ad 14 db bd 61 b5 67 be 09 e8 b7 bd
       0.018339349 -0.10697303 -0.22627784 -0.08979804
000350 88 0a 40 3c c7 c8 f2 bc 28 ba 75 3b 78 82 f8 bd
       0.011721261 -0.029636754 0.003749499 -0.1213426
000360 2e 34 c3 bc c3 3f 03 be bf 04 ee 3e 75 5f 06 3e
       -0.023828592 -0.12817292 0.46487996 0.13122351
000370 dd a9 34 bd 1a ab f0 bd cb 9e 02 bd 8c a6 ee bd
       -0.044107307 -0.11751385 -0.031889718 -0.1165286
000380 e7 e6 54 bd 4f bf c2 3c 43 78 0e bd 15 45 25 3b
       -0.051978018 0.023772864 -0.03478266 0.0025218178
000390 9b 3a 20 be 85 b3 76 be 8f 23 c9 bd 37 6a f5 bd
       -0.15647356 -0.24091919 -0.098212354 -0.119831495
0003a0 d2 80 0a be a5 a2 29 3d 00 62 94 3d 8a a8 a1 3b
       -0.13525704 0.041414876 0.072452545 0.0049334215
0003b0 e7 e4 f3 bc f8 88 06 3b a7 75 d3 bc 08 a5 96 bc
       -0.029772235 0.0020528417 -0.025812937 -0.01838924
0003c0 c2 c2 56 bd 90 44 6c 3d 9a 96 cc bd 44 94 63 bd
       -0.05243183 0.057682574 -0.099896625 -0.05556132
0003d0 d3 4a e8 bb 75 b9 ad bd 1c 47 1d bc b6 40 70 3d
       -0.007088998 -0.08482639 -0.009599473 0.058655463
0003e0 67 ab 46 be 4e bb 95 bd 7f 72 a8 bd 3a c8 09 be
       -0.19401322 -0.07311116 -0.082249634 -0.13455287
0003f0 50 d9 b1 be 7e ff 8f 3d 78 37 e7 ba 0c c4 87 3b
       -0.3473611 0.07031153 -0.0017640432 0.0041432437

out_net.fc2.bias f4 [128]
000000 bc 2d 09 3d 66 84 3b 3e 2e 59 29 be ec fa 87 bd
       0.03349088 0.18312225 -0.16537926 -0.066396564
000010 39 c7 38 be c1 f8 19 3d 73 0d 61 3e 1c 7c 9d 3e
       -0.18044747 0.037590746 0.21977787 0.3075875
000020 32 c1 f2 3d d9 8f 1b 3e 12 53 03 bb b4 b2 49 3e
       0.11853255 0.15191592 -0.0020038527 0.19697076
000030 1b 2b 6d 3d 56 8d 57 3d 12 b1 13 3e bb c1 a6 3d
       0.057902437 0.052625023 0.14423016 0.0814242
000040 1e 6c f0 3d 82 b7 10 3d 39 af ed bd 9e 2b c2 ba
       0.11739372 0.035331257 -0.11605687 -0.0014814024
000050 4a 06 9c be 69 39 20 be 88 7e 1f 3e b7 b9 a9 be
       -0.30473548 -0.156469 0.15575612 -0.33149502
000060 c3 c9 17 be 30 2b e4 bd 80 37 2a 3d 2f f7 0e 3e
       -0.1482306 -0.1114105 0.041556835 0.1396148
000070 73 58 a3 3d de 70 c6 bd 74 60 65 bd 14 b8 93 3d
       0.07975855 -0.096894965 -0.056000188 0.072128445
000080 71 af 95 bd 95 13 05 3e ec f6 05 bb 98 57 a8 be
       -0.073088534 0.12995751 -0.0020441366 -0.3287933
000090 12 ea 0b bd 6a ef c0 3d 4e e1 e3 3c 0e 35 24 bd
       -0.034158774 0.094206646 0.027817395 -0.04008966
0000a0 b8 ee 3e bc 53 d9 e7 bd d9 18 4c be 18 9b 39 bd
       -0.011653595 -0.11320748 -0.19931354 -0.045313925
0000b0 ee df eb bd e0 e3 f8 3d 50 2d 43 3e 43 be 04 3d
       -0.115173206 0.12152839 0.19060254 0.03240801
0000c0 53 1c 5e 3d 5b 11 9e bd 5a ba 86 3e 92 32 24 bd
       0.05422623 -0.07718154 0.2631405 -0.04008729
0000d0 f0 2d 0b bd 32 21 de 3c 2d ce 54 3e 2e 2e 11 3e
       -0.033979356 0.027115438 0.20781775 0.14177772
0000e0 20 1a 42 bd 78 70 ad 3a 9a d0 d5 3d b6 a5 97 bd
       -0.047388196 0.0013232371 0.10440178 -0.07404654
0000f0 25 b1 16 3d db bb 7b be 53 4a 7a 3e 77 01 42 bb
       0.036790032 -0.2458338 0.24442415 -0.0029602924
000100 89 2e d4 3e 42 9b ba 3d d8 81 82 3d 1e 24 61 be
       0.41441754 0.09111644 0.06372422 -0.21986434
000110 12 c0 e9 bc 0c 8b 40 bd 3a 3f 6a 3d 18 10 cc bb
       -0.02853397 -0.047007605 0.057189204 -0.0062275045
000120 79 b5 d5 bd ce 4d 01 be e2 80 80 3e c6 ac b3 bd
       -0.10435004 -0.12627336 0.2509833 -0.08773188
000130 32 b4 57 3d bb 80 f9 bc 2e bf cd bd 2d 36 02 3d
       0.052662082 -0.030456891 -0.1004623 0.031789947
000140 c3 36 8a bc e4 82 24 3c b2 ea 8c be bb 6e 4d 3d
       -0.016871816 0.010040972 -0.27522808 0.05015443
000150 c1 0c 1b 3d 53 6c 3a 3e 15 14 b2 3d 4f bc 97 bc
       0.03785396 0.18205385 0.086952366 -0.01852241
000160 97 ce e1 3d f8 04 10 be 95 67 c0 3c 0f 57 45 be
       0.11025732 -0.14064395 0.023486892 -0.19271491
000170 20 ad 11 be 97 bf a7 3c 8e b7 20 be 8b 6d 2d bd
       -0.14226198 0.0204771 -0.1569502 -0.042340796
000180 12 17 1a be fa 19 03 3e 0f 65 ab be 6a cb 25 be
       -0.15047863 0.12802878 -0.3347554 -0.16190878
000190 1e 6a 07 bd d0 a0 cb bc 8b f5 2c be cf 32 43 3e
       -0.033060186 -0.024856955 -0.16890542 0.1906235
0001a0 de c0 0c 3e 0f 90 d8 3d 32 92 ce bd 5a a1 22 be
       0.13745448 0.10574352 -0.10086478 -0.15881863
0001b0 c1 97 09 bd aa e0 b6 be ad 2e 00 3e 19 d1 8a bd
       -0.03359199 -0.3571828 0.12517805 -0.067781635
0001c0 15 0a 7f 3c 8e 0c 85 3c 9a 0d e3 3d 0d d9 93 bc
       0.015566369 0.016241338 0.11086579 -0.018047834
0001d0 b0 15 f1 bc 4a 77 6f 3e b3 e1 d9 bd 9d f0 ae 3d
       -0.029429287 0.23385349 -0.10638752 0.08541987
0001e0 00 61 ae bb d5 f7 03 3e e2 7f f1 bd c7 a7 76 3e
       -0.005321622 0.12887509 -0.1179197 0.2408744
0001f0 e8 15 db bd 3d 01 41 be b1 de bf bc 63 62 6a 3d
       -0.10697538 -0.18848129 -0.023421617 0.057222735

out_net.fc3.weight f4 [64, 128]
000000 9d ff 96 bb 8d 48 1f 3d 3c a0 61 bd d1 85 0e be
       -0.004608108 0.03888755 -0.055084452 -0.13918234
000010 9d 45 06 3d 51 2c 2b be 7c 9b 0f 3d fe 3d af bd
       0.032781232 -0.16716124 0.03506039 -0.08556746
000020 69 62 be bc ac 32 f9 bc 1c de 1d bd 1e 7b 53 be
       -0.023240285 -0.03041967 -0.038541898 -0.20652434
000030 e8 20 48 3d 60 4f 43 be fd ae de bd 29 42 f8 bd
       0.048859507 -0.19073248 -0.1087322 -0.12121994
000040 90 36 52 bd 7c 9f fa 3b 10 e0 1c be 47 9d 88 bd
       -0.051321566 0.0076484066 -0.15319848 -0.06670623
000050 87 71 1c 3e bd b8 0a 3d d3 17 85 bc cc ab 89 bd
       0.15277682 0.033867586 -0.016246712 -0.06722221
000060 f9 1e 07 be 03 fd 02 3e 1d e2 be bd cc e2 1c 3d
       -0.13195409 0.12791829 -0.093204714 0.038302228
000070 31 a3 df bc 2d 62 59 3c f0 67 03 be e8 00 e5 bd
       -0.027299495 0.013268036 -0.12832618 -0.111818135
000080 82 7a 9b 3d bf 69 f9 bd 48 ce 60 be 57 70 e8 bd
       0.07591726 -0.121783726 -0.2195369 -0.11349552
000090 8c 23 dd bc 3b 88 03 bc b8 d7 09 be f3 41 59 bd
       -0.02699449 -0.008028085 -0.13461196 -0.05304141
0000a0 95 66 16 bd 2b 2b 20 be 18 6a c0 bc e3 8c 17 3d
       -0.036718924 -0.15641467 -0.02348809 0.036999594
0000b0 97 6d e7 bd 8b d8 d8 bd 82 1d 17 bd cb 16 08 be
       -0.113001995 -0.10588177 -0.036893375 -0.13289945
0000c0 f5 c6 bb bd cb 1c 58 bc fd e7 1f be c0 8c b2 3d
       -0.091688074 -0.0131904585 -0.1561584 0.08718252
0000d0 bc 19 da 3b 2f 62 04 be 8a 89 e4 bb 46 ca 84 3d
       0.0066559 -0.12928079 -0.0069744037 0.06483893
0000e0 1c 32 b1 bd bd 61 b6 3d dd e1 14 3e ab 32 a5 bd
       -0.08652136 0.08905361 0.14539285 -0.08066305
0000f0 dc 63 1c be 64 c1 10 be 60 d8 9d 3c 14 f6 22 be
       -0.15272468 -0.14136273 0.019268215 -0.15914184
000100 af 46 f5 bd 5f cc 33 bc d6 a6 88 3d 2f 9d c8 bd
       -0.119763725 -0.010974019 0.066724464 -0.097956054
000110 dd 06 b9 bc 7f 8d ed 3d 9c 31 29 be c7 83 ec bd
       -0.02258628 0.11599254 -0.1652283 -0.11548572
000120 40 aa c8 bb 74 e8 3f 3d 0e 30 d2 bd 7d 13 10 bd
       -0.006123811 0.046852544 -0.10263072 -0.035174835
000130 11 e5 df 3c 10 95 2f bc 77 21 fd bd 0a 2d 20 be
       0.027330907 -0.010716692 -0.123598985 -0.15642181
000140 14 96 8f bc 1a b8 4f 3c 01 71 8e bd c6 c9 96 bd
       -0.017527618 0.012678171 -0.069551475 -0.07362704
000150 c9 a9 f3 3c dd 42 ae bd fa f0 53 bb fc 68 26 be
       0.029744046 -0.08508847 -0.0032339678 -0.16250986
000160 3b 59 c8 3d dc e3 27 3c 71 08 01 be 8c 97 68 bc
       0.09782644 0.010247197 -0.12600876 -0.014196288
000170 e1 6d 03 be c1 80 91 bc cc 83 d9 bd 15 6a d7 bd
       -0.12834884 -0.01776159 -0.106208414 -0.105182804
000180 95 b0 c1 3d 85 53 68 bd 28 c2 06 be 11 3e a4 3c
       0.094575085 -0.056720275 -0.13160002 0.020049127
000190 29 a3 4f be 45 a5 17 be 6f b7 b8 bd 38 1b 89 bd
       -0.20277084 -0.14809139 -0.09019362 -0.06694645
0001a0 69 55 ee bd 18 7e 3f bd cd 83 4d 3c 52 a6 06 3d
       -0.116373844 -0.04675111 0.012543631 0.03287346
0001b0 cf 4f 88 3d 0c 72 a7 3d a7 ad 1b be 3e 8f 24 bd
       0.06655847 0.081760496 -0.15202962 -0.04017567
0001c0 3d f8 96 3d 1e 71 32 be fc a4 9d bd 5a 33 25 be
       0.073715664 -0.17425963 -0.07697484 -0.1613287
0001d0 95 a1 d7 bc b0 1a 0e be 39 a9 2f 3d 53 a7 6d be
       -0.026322166 -0.13877368 0.042885993 -0.2320836
0001e0 32 41 fa bd 23 4c 9b bd d7 ee 0f be 55 c2 19 be
       -0.12219466 -0.07582881 -0.14055954 -0.15015538
0001f0 b5 9b 27 bc 0f be b8 3d 1f 8e 86 bd de 72 9a ba
       -0.010229995 0.09020626 -0.06570076 -0.0011783501
000200 aa 19 89 bd db b2 bc ba f3 55 8f 3b 32 af 0f 3e
       -0.06694348 -0.0014396565 0.0043742596 0.14031675
000210 ec 0e 2f be a5 a8 9f 3c a4 27 15 3d 20 f5 80 3d
       -0.17095536 0.019489596 0.036414757 0.06296754
000220 0e 68 c3 bd fd ad 19 3e 48 d8 e3 bd 35 94 00 be
       -0.09541331 0.15007778 -0.11125237 -0.12556536
000230 b7 1c f9 3a aa 1e a2 bd 39 38 fd 3b 85 9a 06 be
       0.001900575 -0.07916005 0.0077276495 -0.13144882
000240 28 fc a2 3d ba 85 28 bd 36 1d 5e bd fe d9 3b 3d
       0.07958251 -0.041143157 -0.054227076 0.04586219
000250 1d 29 7a bd 59 59 37 3d 28 ce 50 3d 8f b8 10 3d
       -0.061074365 0.044762943 0.050977856 0.03533226
000260 98 6c d4 bc 06 72 21 be 4a 93 72 be b6 e1 70 3d
       -0.025930688 -0.15766153 -0.23688999 0.058809005
000270 73 ff 1a 3c 89 55 88 bc 4b 4e 93 3d 93 59 0c bc
       0.009460318 -0.016642349 0.071926676 -0.008566278
000280 f9 a8 96 bd 78 71 05 3c 76 08 ad 3b ea c7 d3 bd
       -0.07356448 0.008144729 0.0052805496 -0.10340865
000290 b1 90 0c be a6 5a fc bc 88 1f 52 3d ad 7b b5 bd
       -0.1372707 -0.030804943 0.0512996 -0.0886148
0002a0 bb c8 b1 bd 43 83 c1 3d ab 11 0f be 0f 4c 21 be
       -0.086808644 0.09448864 -0.13971584 -0.1575167
0002b0 c6 20 63 bd 7e 30 74 3d 6d ef 4c bd 19 39 dd bd
       -0.055451177 0.05961656 -0.05003302 -0.10801906
0002c0 06 ba 1e bb 85 6b c9 3b dd 3b 73 3d 02 64 b2 bd
       -0.0024219765 0.0061468505 0.059383262 -0.08710481
0002d0 a0 4e f1 bb 72 52 65 3d 00 b4 6e bd f0 8e 24 3e
       -0.007364109 0.05598683 -0.05827713 0.16070151
0002e0 6d cb 91 bd dd 82 66 3b 67 b5 d9 bd be 5e 2d be
       -0.071188785 0.0035173215 -0.10630303 -0.16930673
0002f0 ce ca 9f bd 67 95 ae bd 09 bf 8c bd 4c 6f 72 be
       -0.07802354 -0.0852459 -0.068723746 -0.23675269
000300 be 6f bd bd 1c c3 96 bd 9f 4e 07 be c5 33 09 be
       -0.09249829 -0.07361433 -0.13213585 -0.13398655
000310 3f 7c 8f 3d bc b4 10 3d de 30 58 bd 4b 67 e3 3d
       0.0700612 0.03532861 -0.05278098 0.11103686
000320 73 62 d7 bd 7c a0 d8 3d ee 76 31 bd 29 b5 16 bd
       -0.105168246 0.10577485 -0.04332631 -0.03679386
000330 2c 1b 6a 3d 12 39 fa bd 60 cb c8 bc d4 c5 c8 bc
       0.05715482 -0.122179165 -0.02451104 -0.024508394
000340 01 bc 14 3b a6 c1 26 bb f9 8c 59 3d 5f 02 8d 3d
       0.0022695067 -0.0025445013 0.053112958 0.06885218
000350 1e 3e cd bc 92 19 bb bd d3 46 21 be e2 1c bb 3c
       -0.025054034 -0.091357365 -0.15749674 0.02284092
000360 1a b5 fc bd 32 09 25 bd df 33 5c bd 33 fd 31 bd
       -0.1233923 -0.040291972 -0.053760406 -0.04345436
000370 a6 66 9a bd 47 b4 8e 3a 8d c9 3f be da a6 92 3c
       -0.0753911 0.0010887467 -0.1872923 0.017901827
000380 d7 37 6b bd 89 42 bb bd 5f 69 10 bd 31 a3 41 3c
       -0.0574263 -0.0914355 -0.03525674 0.011818693
000390 11 29 ec bd 88 53 c1 3d bb 40 09 bd 36 98 1a 3d
       -0.1153127 0.094397604 -0.033508997 0.037742816
0003a0 6f 27 bb 3d 78 58 53 3d 12 1a 94 bc 69 60 b9 bd
       0.09138381 0.051598042 -0.018078838 -0.09051592
0003b0 5a d1 c8 bd d4 68 ff 3c 74 21 7d bd a8 c5 d5 bd
       -0.09805556 0.031177916 -0.06179948 -0.104380906
0003c0 87 f5 9e 3d 4f c9 93 3c 24 58 0f be 94 c6 5e bd
       0.077616744 0.018040327 -0.13998467 -0.054388598
0003d0 6f b4 f3 3d 18 1f 1d be cf 46 3f bb d7 82 52 be
       0.11899649 -0.15343893 -0.0029186492 -0.20557724
0003e0 ff 3c 00 bc ee 4b 9c 3d 71 3d 38 bc 38 10 83 bd
       -0.007827043 0.0763167 -0.0112451175 -0.06399578
0003f0 57 e6 55 bd 2a 0a 5e 3c 5f 6f 12 be 62 78 0d 3d
       -0.052221622 0.013552228 -0.14300297 0.034538634

out_net.fc3.bias f4 [64]
000000 7b a6 27 bd 63 b5 1f be c0 74 f7 bd 7e da 40 3b
       -0.040930253 -0.15596537 -0.12082815 0.0029427106
000010 96 a0 14 3d 12 c7 1a 3e af f8 37 be 28 8d 08 3e
       0.03628596 0.15115002 -0.17965959 0.13335097
000020 09 ce 8d 3e 0e 59 00 3e ac 72 c6 3e f2 6e 88 3c
       0.27696255 0.12533972 0.38759363 0.016654465
000030 08 68 08 3e 5e 8b 35 be 52 eb 13 3e 98 8c 33 3e
       0.13320935 -0.17728946 0.14445236 0.17534101
000040 7f eb 2f bc 44 7e 3e bc e7 26 33 be b5 ff 78 3e
       -0.010737299 -0.011626784 -0.17495309 0.24316294
000050 82 0c 24 be e9 da cf 3c 72 c8 a4 be c2 9d 42 3e
       -0.16020396 0.02537294 -0.32184178 0.19005492
000060 f9 49 19 bd b8 2a 35 bd 12 bf 10 3e 69 23 e2 be
       -0.03742406 -0.044230193 0.14135388 -0.4416764
000070 b6 b1 8b bd 08 a7 a5 3e 25 2d dc 3d b7 8f c5 3d
       -0.06821005 0.32353997 0.10750798 0.09646552
000080 32 7e 28 be 30 55 c5 bc 14 e5 c4 bc 1b 0e 29 bf
       -0.1645439 -0.024088472 -0.024035014 -0.6603715
000090 19 c2 be 3d 0b 96 9b 3e 48 7f ad 3e de 91 d4 3d
       0.09314365 0.3038791 0.3388617 0.103793845
0000a0 0d 76 1b 3e ca 03 be 3e eb 6d cd bd 53 86 2a be
       0.15181752 0.37112266 -0.10030731 -0.16652803
0000b0 63 81 b2 3e 64 53 ee bd 96 fa b5 3c 63 b7 08 be
       0.3486434 -0.11636999 0.022214215 -0.13351206
0000c0 f6 20 26 be 57 cf b9 bc 60 d2 21 be 94 5c 05 3e
       -0.16223511 -0.022681875 -0.15802908 0.13023597
0000d0 69 46 fc bd a7 bd 98 3e 9b 9d 5f 3e 2a 4b 40 3c
       -0.12318117 0.29832193 0.21837465 0.0117366705
0000e0 12 3a 89 3e df d6 cc bd 76 0d 5b 3d 82 3c ca bc
       0.26802117 -0.10001921 0.053479634 -0.024687055
0000f0 3e 20 30 be e0 33 de bd 96 b0 85 bd 6f 10 3b 3e
       -0.171998 -0.10849738 -0.06527822 0.18267988

out_net.fc4.weight f4 [1, 64]
000000 c0 e0 23 bb 59 f6 37 bc f0 46 9f 3c 74 27 3d 3d
       -0.0025005788 -0.011228167 0.019443005 0.046180204
000010 cc e8 a4 bd ff 25 6a bd 7d 37 a5 bb e0 41 06 3d
       -0.08052215 -0.057165142 -0.005042015 0.032777667
000020 34 94 66 bd 47 b0 43 3d e9 60 d8 3c 4d f1 8b bc
       -0.05629368 0.047775533 0.026413398 -0.017082835
000030 a4 39 cb bc cf 1b ea b8 ac e3 cd bc cf 39 54 bd
       -0.024807759 -0.00011163169 -0.025132976 -0.051812943
000040 ff b5 2e 3d c5 4b ec bc b6 86 e6 3a 7b 52 80 bc
       0.042654034 -0.028844723 0.0017587754 -0.01566433
000050 0f 36 21 bb 7f f5 4f bd ef cf b1 bc 32 25 c7 bc
       -0.0024598872 -0.050771233 -0.021705596 -0.024309728
000060 fe 74 8e 3d 71 4d 6f bc 5a 53 05 3d 66 ba eb 3c
       0.06955908 -0.014605866 0.032550193 0.028775405
000070 fc 7c 72 bd 1b 31 c5 bc 8a 27 aa 3d 18 cb 06 bd
       -0.059201226 -0.024071267 0.08308323 -0.03290853
000080 25 71 9e 3c a2 1d 0a 3c ac c9 ef bd 05 b6 01 3d
       0.01934106 0.008429917 -0.11708388 0.031667728
000090 c5 d6 28 bd a6 c2 6b 3d dd 82 c2 3c 0e 5a ef 3c
       -0.041220445 0.057558678 0.023744041 0.029217746
0000a0 46 45 e2 3c 9b 18 1b bc e2 df 55 bd 9e 1d fb 3b
       0.027620923 -0.009466316 -0.052215464 0.0076634428
0000b0 fe 9c 5e bd 38 cf 2c 3d de 1d 29 bd 6e d7 a4 bc
       -0.05434894 0.042189807 -0.04128825 -0.020122256
0000c0 f6 69 65 3d ae 40 cb bc f5 1e e9 3c 01 9b 6e bd
       0.056009255 -0.024811115 0.028457144 -0.058253292
0000d0 8a 93 9c 3c df b9 73 3d 87 02 cd bc cd b4 a2 bd
       0.01911332 0.059503432 -0.02502562 -0.07944641
0000e0 1c 93 e0 3c 6a e2 8a bd 26 c4 e1 bc 19 63 a5 3d
       0.027413897 -0.06781466 -0.027559351 0.08075542
0000f0 c0 d8 f7 3c 3b ca bf bc 8c 4a 6a 3d 63 aa 22 3d
       0.030254722 -0.02341186 0.0572 0.039713275
