checkpoint_critic.pth (torch, 194623 bytes, 7 tensors)

obs_net.fcs1.weight f4 [256, 24]
0	0xbd83e1b2	-0.06439532
1	0x3e8adb42	0.27120405
2	0xbcea021f	-0.028565465
3	0x3df08a8f	0.11745178
4	0xbe11348c	-0.14180201
5	0x3f1ce314	0.61283994
6	0x3d34e845	0.044166822
7	0x3dec121b	0.11526891
8	0x3d93356e	0.07187925
9	0x3e56e2b8	0.20984924
10	0x3c8564e7	0.016283466
11	0x3de05032	0.10952796
12	0x3c9d49e5	0.019200275
13	0x3ee3d75a	0.44500238
14	0xbc0ac217	-0.008469126
15	0x3e21aa95	0.15787728
16	0x3da884e5	0.082284726
17	0x3e54816e	0.20752499
18	0xbd49a130	-0.049225986
19	0x3e29a7bd	0.16567893
20	0x3ea0c5b5	0.31400838
21	0xbd08df1d	-0.033415902
22	0x3d7ef735	0.062247474
23	0x3e61e3bd	0.22059532
24	0x3d05e518	0.032689184
25	0xbd9100f9	-0.07080264
26	0xbd4953a3	-0.049152028
27	0x3e1a14de	0.15047023
28	0x3dc95a80	0.09831715
29	0xbf05a69b	-0.52207345
30	0xbc53a501	-0.012917758
31	0x3e329e70	0.17443252
32	0x3d07fff8	0.033203095
33	0xbd5aca2c	-0.053415462
34	0xbcb074ac	-0.021540008
35	0x3e64a20c	0.22327441
36	0x3d19a7e7	0.03751364
37	0xbef3d2d7	-0.47621796
38	0xbc732ad0	-0.01484175
39	0x3e579da2	0.21056226
40	0x3ddbbd19	0.10729427
41	0xbc8cd170	-0.017189711
42	0xbd193945	-0.037408132
43	0x3da1d507	0.0790196
44	0x3c86718b	0.016411563
45	0x3ea332fc	0.31874835
46	0xbce0353c	-0.027369134
47	0x3dd9f937	0.10643237
48	0x3d4f5661	0.050619487
49	0xbbc8e18d	-0.0061304034
50	0xbd47eaf3	-0.04880805
51	0xbd876916	-0.066118404
52	0xbed6dab5	-0.41963735
53	0xbe7a3a8c	-0.24436396
54	0x3d1ca37f	0.03824186
55	0xbe0e10de	-0.13873622
56	0x3d2b185e	0.041771285
57	0x3d6797cb	0.056541245
58	0xbc155342	-0.0091140885
59	0xbd2d11c5	-0.042253274
60	0xbe0a45ea	-0.13503233
61	0x3c3316a5	0.010930692
62	0x3ae9ac21	0.0017827788
63	0x3ca52c7b	0.020162812
64	0xbcae0e9a	-0.021247197
65	0x3da5b527	0.08091193
66	0x3cc6edba	0.024283279
67	0xbe0d686c	-0.13809365
68	0x3e51546d	0.20442362
69	0x3eb01141	0.34388164
70	0xbcafecea	-0.021475274
71	0xbdb05a7f	-0.08611011
72	0x3dc76dfe	0.09737776
73	0x3ec647ed	0.3872675
74	0xbd4e9d2c	-0.05044286
75	0xbe105668	-0.14095461
76	0xbde17ffd	-0.1101074
77	0xbfa26767	-1.2687806
78	0xbd51558c	-0.051106974
79	0xbd1ab49e	-0.037769906
80	0x3a10f862	0.0005530176
81	0x3ed4c188	0.41553903
82	0xbdcfd572	-0.10148133
83	0xbc9592f0	-0.018258542
84	0x3b6f9560	0.003655754
85	0xbeaf1bdb	-0.3420094
86	0xbd02bd17	-0.03191861
87	0x3cd05d28	0.025435045
88	0x3e2efae6	0.17087898
89	0x3ec4d653	0.38444766
90	0xbbd34975	-0.0064479657
91	0x3c7f9ee5	0.015601848
92	0x3eab2e7a	0.33433896
93	0xbe9876b4	-0.29778063
94	0xbc613fe1	-0.01374814
95	0x3c0ebb0b	0.008711587
96	0x3e1ebc75	0.15501578
97	0xbea11df2	-0.3146816
98	0x3cf2ea34	0.029652692
99	0x3d9bcdfc	0.07607648
100	0x3d8594c8	0.065225184
101	0xbcfd180c	-0.030895256
102	0xbbd75807	-0.006571773
103	0x3ddc4430	0.10755193
104	0x3e25a20b	0.16175096
105	0xbe9a7eb0	-0.3017478
106	0x3c76d335	0.015065004
107	0xbdf0c556	-0.11756389
108	0xbd297f7f	-0.041381355
109	0xbf10e2bc	-0.5659597
110	0xbd9580a5	-0.072999276
111	0xbd8b24fb	-0.06794163
112	0x3e49369f	0.19649743
113	0xbe9d1f99	-0.3068817
114	0xbb9868a2	-0.004651145
115	0x3d4a0471	0.049320642
116	0xbe94c58c	-0.29056966
117	0xbe9126ab	-0.28349814
118	0x3bc9c36c	0.0061573293
119	0x3c907bcf	0.017637162
120	0x3d2fe433	0.042942237
121	0x3dcba533	0.099436186
122	0xbbdb43c6	-0.006691429
123	0xbd3e126b	-0.046404283
124	0xba90bdc1	-0.0011042879
125	0xbda657f3	-0.08122244
126	0x3d8ce564	0.0687969
127	0xbbffbca7	-0.0078044715
128	0x3d55ba08	0.052179366
129	0x3e297a18	0.16550481
130	0x3cf8e8b4	0.030384399
131	0xbc8be058	-0.017074749
132	0xbdaeb6f2	-0.08530988
133	0xbe17f4dc	-0.148395
134	0xbd576e1e	-0.05259525
135	0x3d6c04d7	0.057621803
136	0x3e2e5960	0.17026281
137	0x3ddf28ea	0.108964756
138	0xbd51e471	-0.05124325
139	0x3e92e39a	0.2868927
140	0xbec8c3d8	-0.39211917
141	0x3e804bc5	0.25057808
142	0x3d29df17	0.04147252
143	0x3e9b67e4	0.303527
144	0xbd88634d	-0.06659565
145	0xbdd857ef	-0.10563647
146	0x3cce0254	0.025147595
147	0xbd68198e	-0.056664996
148	0xbd57976c	-0.05263464
149	0xbe028e85	-0.1274968
150	0x3cc7a068	0.02436848
151	0x3a99f45a	0.0011745796
152	0x3d92e503	0.07172587
153	0xbe0ad4b7	-0.13557707
154	0x3bb0d617	0.0053966152
155	0x3d1215d7	0.03566536
156	0xbda54a28	-0.08070785
157	0xbe036987	-0.12833224
158	0x3c534345	0.012894456
159	0xbd075668	-0.033041388
160	0x3dd5c0c4	0.10437158
161	0xbddf3e0a	-0.10900505
162	0xbcb7f252	-0.022454415
163	0xbca8a1f3	-0.020585036
164	0x3d61dea4	0.055143967
165	0x3eb4066d	0.35161152
166	0x3c4e4640	0.012589991
167	0xbde687bf	-0.1125636
168	0x3d4318ab	0.047630947
169	0x3dd735a6	0.105082795
170	0xbbdcfd2e	-0.0067440486
171	0xbb67fbb3	-0.0035397827
172	0xbd6bab24	-0.05753626
173	0xbd969bb9	-0.073539205
174	0x3b9cf61c	0.0047900807
175	0xbc9a73dd	-0.018854076
176	0x3d39cbc9	0.04536036
177	0x3e0ccb96	0.13749537
178	0xbc1e91f5	-0.009678354
179	0xbcb0510c	-0.021523021
180	0x3e0f1dcf	0.13976215
181	0xbdcbc3a5	-0.099494256
182	0xbd15dfd8	-0.036590427
183	0x3d51d0aa	0.05122439
184	0x3d21ac38	0.03947088
185	0x3ddf358a	0.10898884
186	0x3d4dec21	0.05027402
187	0xbcfa9ebf	-0.030593274
188	0x3dc4f0dd	0.096162535
189	0x3deb8a8b	0.11501034
190	0xbd70da35	-0.05880185
191	0xbcdd3479	-0.02700256
192	0xbd29a44b	-0.041416448
193	0xbd80c92f	-0.06288373
194	0xbd46dc0d	-0.0485497
195	0x3d8daa15	0.06917206
196	0xbdeb1f5e	-0.11480592
197	0xbd792836	-0.060829364
198	0x3d4efdc3	0.050534975
199	0xbc0e9629	-0.008702793
200	0xbcedc451	-0.029024275
201	0xbcf29498	-0.02961187
202	0x3d11a5cb	0.035558503
203	0x3ad9abe9	0.0016607019
204	0xbc5476ed	-0.012967807
205	0x3d23bb48	0.039973527
206	0xbc8d713b	-0.017265907
207	0x3c1590e4	0.009128783
208	0xbd63c474	-0.055607274
209	0xbd008e59	-0.031385753
210	0xbcedd83e	-0.029033776
211	0xbe0e7618	-0.13912237
212	0x3e451c12	0.19248989
213	0x3eece6bd	0.4626979
214	0x3b8288e1	0.0039836024
215	0xbde86bea	-0.11348708
216	0x3ed01fec	0.40649354
217	0x3e8a7ae1	0.27046874
218	0xbc39e62d	-0.011346382
219	0x3da72d57	0.08162945
220	0x3eac3377	0.33633015
221	0xbeb58ec6	-0.3546049
222	0xbdd7ef49	-0.10543687
223	0x3dff1992	0.12456049
224	0x3ea5e28b	0.323994
225	0x3e586347	0.21131621
226	0xbc850af4	-0.016240574
227	0x3ec2aaa8	0.38020825
228	0x3e8c1bef	0.27365062
229	0xbe297edb	-0.16552298
230	0xbd4d3c17	-0.050106134
231	0x3edc2844	0.4299947
232	0x3e879893	0.26483592
233	0x3e7d4f12	0.24737194
234	0x3d81ad0d	0.06331835
235	0x3ec20ab5	0.37898794
236	0x3b749f08	0.0037326235
237	0x3d77459e	0.060369126
238	0x3c4b6c4e	0.012415959
239	0x3ef0d505	0.4703752
240	0x3de7a0ee	0.11309992
241	0xbcc5bdb0	-0.024138302
242	0x3cf1c407	0.029512418
243	0xbd735ade	-0.05941283
244	0x3d6fbfe7	0.05853262
245	0xbf5c598c	-0.8607414
246	0xbc3afe69	-0.011413195
247	0xbd72e1c6	-0.059297346
248	0x3e8818f5	0.2658154
249	0xbb0b64c3	-0.0021269775
250	0xbd09ad9a	-0.033612825
251	0x3d0b5070	0.034012258
252	0x3d31bd4a	0.04339341
253	0xbe9d7f61	-0.30761245
254	0x3be402c5	0.006958338
255	0x3db7a431	0.08966864

obs_net.fcs1.bias f4 [256]
0	0x3d397485	0.045277137
1	0x3e1f5ec5	0.15563495
2	0x3e06c656	0.13161597
3	0xbefccfb0	-0.49377203
4	0x3d00576d	0.031333376
5	0xbe288949	-0.1645862
6	0x3e0c6b88	0.13712895
7	0xbd1742b8	-0.036928862
8	0x3e612bd1	0.21989371
9	0xbe8252ac	-0.254537
10	0xbd7ba884	-0.061440006
11	0xbe943cc1	-0.28952602
12	0xbe158db0	-0.1460483
13	0x3d1cff9b	0.038329702
14	0xbed35924	-0.41278946
15	0x3e411405	0.18855293
16	0xbe09321b	-0.1339802
17	0x3aa8d142	0.0012879747
18	0xbe123247	-0.14276992
19	0xbe8f63d9	-0.28005865
20	0xbe145efc	-0.14489359
21	0x3c9fba1c	0.019497924
22	0xbe97bfdf	-0.29638574
23	0xbeae9a24	-0.34101975
24	0xbe6481c1	-0.22315122
25	0xbe7bfd2c	-0.24608296
26	0x3e0b97ad	0.13632078
27	0xbe6923e8	-0.22767603
28	0xbe28b4ea	-0.16475263
29	0xbecbe60f	-0.39823958
30	0x3deb2750	0.11482108
31	0xbe2fa264	-0.17151791
32	0x3e30adb8	0.17253768
33	0xbe7bdc68	-0.24595797
34	0xbe110318	-0.14161336
35	0x3e8e3d74	0.2778126
36	0xbe8d5886	-0.276066
37	0xbecce217	-0.40016243
38	0xbcb80db9	-0.022467481
39	0xbe4166a1	-0.18886806
40	0xbea07e4a	-0.3134635
41	0x3ebc6cde	0.3680181
42	0x3ddc9f68	0.10772592
43	0xbe9aa171	-0.30201295
44	0xbde9af36	-0.11410372
45	0xbe557d52	-0.20848587
46	0xbebbabdd	-0.3665456
47	0xbd822e13	-0.06356444
48	0xbe93e980	-0.28889084
49	0xbe0ff04b	-0.14056508
50	0x3e1b9644	0.1519404
51	0xbd94bf1b	-0.07263013
52	0xbea61eb8	-0.32445312
53	0x3e2e0423	0.16993766
54	0xbe454c78	-0.19267452
55	0x3e030c8e	0.12797758
56	0xbe3831d1	-0.17987753
57	0xbe7a4d64	-0.24443585
58	0x3e8edb0d	0.27901497
59	0xbd248a7e	-0.04017114
60	0xbdf3c627	-0.11903029
61	0x3df2da15	0.11858002
62	0x3e4b3b76	0.19846901
63	0xbe648bae	-0.22318909
64	0xbe85ba8d	-0.2611889
65	0xbe3f64a4	-0.18690735
66	0xbe63bed6	-0.22240767
67	0xbcda1846	-0.026622903
68	0xbe87f558	-0.2655437
69	0x3de630a8	0.11239749
70	0xbe1a91e7	-0.1509472
71	0x3d8f727e	0.070042595
72	0x3d3d2185	0.046174545
73	0xbdcc9366	-0.099890515
74	0x3e695b9b	0.22788851
75	0xbdb23855	-0.08702151
76	0x3be383cd	0.006943202
77	0xbea5bb14	-0.32369292
78	0xbe11b55a	-0.14229336
79	0xbe19250c	-0.14955539
80	0xbe9bd83b	-0.30438408
81	0xbe59a5bc	-0.21254629
82	0xbe6dc1d6	-0.23218474
83	0x3e362ebe	0.17791268
84	0xbd5ee169	-0.054414187
85	0xbb5d0a21	-0.003372796
86	0x3c02a7e6	0.0079746
87	0x3e2a0624	0.16603905
88	0x3e6b368a	0.22970024
89	0xbda7d7df	-0.08195471
90	0x3dfaa068	0.12237626
91	0xbe9af5da	-0.30265695
92	0xbe1bbb60	-0.15208197
93	0xbeb9f606	-0.36320513
94	0xbe94dc6d	-0.29074422
95	0xbd5d653f	-0.054051634
96	0xbe149094	-0.14508277
97	0xbe9ef883	-0.31048974
98	0x3c8d232b	0.017228683
99	0xbe0f67c2	-0.14004424
100	0xbde3f2e2	-0.111303106
101	0xbe6803bd	-0.22657676
102	0xbdbc146f	-0.09183585
103	0xbe1ead42	-0.1549578
104	0xbe71457e	-0.23561665
105	0xbed63608	-0.41838098
106	0xbe889dd3	-0.2668291
107	0xbc927ad7	-0.01788084
108	0xbecdbf35	-0.40184942
109	0xbe3b9c52	-0.1832135
110	0xbed1691e	-0.4090051
111	0xbced8a67	-0.02899666
112	0x3d48c2b4	0.04901381
113	0x3d8a54b6	0.067544386
114	0xbe954d4b	-0.29160532
115	0xbe86105e	-0.26184362
116	0xbe9b50d5	-0.30335107
117	0xbea097d6	-0.31365842
118	0x3e3d8334	0.18507081
119	0xbeaacbad	-0.33358517
120	0xbe6ef9c9	-0.23337473
121	0x3d7f97b4	0.062400535
122	0xbdd694e6	-0.10477619
123	0xbe53fa84	-0.20701033
124	0xbd4cb6c7	-0.049978998
125	0x3e6bec76	0.23039421
126	0xbdd8b49e	-0.10581325
127	0xbe2857de	-0.16439769
128	0x3d547a68	0.05187455
129	0x3e112d77	0.141775
130	0xbea54388	-0.32278085
131	0x3e33b7cf	0.17550586
132	0xbe845b6d	-0.25851002
133	0xbeb10170	-0.3457141
134	0xbe195038	-0.14972007
135	0xbbe385f0	-0.006943457
136	0xbe677ea9	-0.22606911
137	0x3d81983d	0.06327865
138	0xbed980c7	-0.42481062
139	0xbe8784f5	-0.26468626
140	0xbe7551d3	-0.23956995
141	0xbe56c26d	-0.20972605
142	0xbe245645	-0.16048534
143	0xbe1c4778	-0.15261638
144	0x3cfc3000	0.030784607
145	0xbecae2d2	-0.39626175
146	0x3e2dd3bb	0.169753
147	0x3d68e0f2	0.05685515
148	0xbe7374f5	-0.23775084
149	0xbd298bfb	-0.04139326
150	0xbede5c8a	-0.43429977
151	0xbe5ef094	-0.21771461
152	0xbee429fb	-0.4456328
153	0x3e8e0fc5	0.27746406
154	0xbe4e1e9c	-0.20128864
155	0xbf0b797b	-0.5448224
156	0x3e097ad8	0.13425767
157	0xbe91227b	-0.2834662
158	0x3c0bb72f	0.008527561
159	0xbd671519	-0.056416605
160	0xbe856aea	-0.2605813
161	0xbe57a86c	-0.21060342
162	0xbc2c84f6	-0.010529747
163	0xbed03971	-0.40668824
164	0xbd6ba8b0	-0.05753392
165	0xbcd06156	-0.025437038
166	0xbe16c641	-0.14724065
167	0xbe47782f	-0.1947944
168	0xbe394fff	-0.18096922
169	0xbebececf	-0.37267157
170	0xbe717f6d	-0.23583765
171	0x3b912d4a	0.0044304477
172	0x3e3e7774	0.18600255
173	0xbe957370	-0.29189634
174	0xbd475f98	-0.04867515
175	0xbea26a70	-0.3172183
176	0xbd88cca7	-0.06679659
177	0x3ef06c22	0.469575
178	0x3da65ef1	0.081235774
179	0xbde547c7	-0.11195331
180	0xbce5396e	-0.027981486
181	0xbe2e2202	-0.1700516
182	0xbeff82e2	-0.49904543
183	0x3dbdda7c	0.09270188
184	0xbebfbdd0	-0.37449503
185	0xbce67631	-0.02813253
186	0x3c5f0f31	0.013614462
187	0xbeca2015	-0.39477602
188	0xbe08c0ae	-0.13354751
189	0xbec585d8	-0.38578677
190	0xbe440403	-0.19142155
191	0xbe402241	-0.18763067
192	0xbea370e4	-0.31922066
193	0xbe77edbc	-0.24211782
194	0x3c5ccafd	0.013476131
195	0xbe8e5e24	-0.278062
196	0xbe29f1c0	-0.16596127
197	0xbe104046	-0.14087018
198	0x3dda88e6	0.106706426
199	0xbe68d624	-0.22737938
200	0x3dca7e22	0.09887339
201	0x3d5e4bfa	0.054271676
202	0xbc8e3cfb	-0.017363062
203	0xbc76c85e	-0.01506242
204	0x3e239a38	0.15976799
205	0xbe1648ef	-0.1467626
206	0x3c82fc2f	0.015989391
207	0xbe012f93	-0.12615804
208	0xbeb29e42	-0.34886366
209	0x3ddcc77a	0.10780235
210	0xbe4152c3	-0.18879227
211	0xbe391794	-0.180754
212	0x3db14bca	0.08657034
213	0x3e2d0da7	0.16899739
214	0x3e2ff9b7	0.17185102
215	0xbed72c3a	-0.4202593
216	0xbdecdfc1	-0.11566115
217	0xbe6b61e3	-0.2298656
218	0xbd32b8c9	-0.043633256
219	0xbdadcec9	-0.08486707
220	0x3db6b8bc	0.08921954
221	0xbe260764	-0.16213757
222	0x3e620d8d	0.22075482
223	0xbed71d5f	-0.42014596
224	0x3d687f6d	0.056762148
225	0xbe94ee5b	-0.290881
226	0xbe8d5075	-0.27600446
227	0x3e34f0b7	0.1766995
228	0xbe253a09	-0.1613542
229	0xbd4e3d42	-0.05035139
230	0x3e0018fb	0.1250953
231	0xbdc9ae35	-0.098476805
232	0x3d569a8a	0.052393474
233	0xbe888857	-0.2666652
234	0x3ddb4b0e	0.10707675
235	0xbeac19f3	-0.33613548
236	0x3e93cf12	0.2886892
237	0xbe57df02	-0.21081164
238	0xbf065316	-0.5247053
239	0xbe57dc86	-0.21080217
240	0xbccc7ea7	-0.024962736
241	0xbe989b72	-0.29806095
242	0xbe3effd7	-0.18652283
243	0xbe918eaa	-0.28429157
244	0xbd657031	-0.056015197
245	0xbece23bc	-0.40261638
246	0xbe844aba	-0.25838262
247	0xbed39701	-0.41326144
248	0x3d233825	0.039848465
249	0xbe978c94	-0.2959944
250	0xbea77b9c	-0.32711494
251	0xbed9c786	-0.42535037
252	0xbda30fb9	-0.07961983
253	0xbe03fd86	-0.1288968
254	0xbd9fad74	-0.077967554
255	0xbe98b829	-0.29828003

out_net.fc2.weight f4 [128, 258]
0	0xbe558b07	-0.20853816
1	0xbc357a76	-0.01107656
2	0xbe91c5d9	-0.28471258
3	0xbdb08530	-0.086191535
4	0x3e348bc8	0.17631447
5	0x3e3fde1a	0.18737069
6	0x3d7e655e	0.06210839
7	0xbc28cd13	-0.0103028
8	0xbddd0d8b	-0.10793599
9	0xbd9e3a79	-0.077259965
10	0x3c890ebc	0.016730659
11	0x3ca62930	0.020283312
12	0xbdac7d24	-0.08422306
13	0xbe2eae81	-0.17058755
14	0xbcb0fcf2	-0.021604989
15	0xbd86f9ad	-0.065905906
16	0xbdcbc37f	-0.09949397
17	0xbda67227	-0.081272416
18	0xbcfff9b2	-0.031246994
19	0xbe0086d3	-0.12551431
20	0x3d4a3622	0.04936803
21	0x3c77017d	0.015076038
22	0xbb6a7dc7	-0.0035780536
23	0xbeadd49c	-0.3395127
24	0x3c36351f	0.0111210635
25	0x3bb752b2	0.005594575
26	0xbe7877b9	-0.2426442
27	0xbd007c00	-0.031368256
28	0xbe896ca6	-0.26840705
29	0xbd5231c9	-0.05131701
30	0xbe103a9a	-0.14084855
31	0x3d782c44	0.06058909
32	0xbea58c97	-0.32333824
33	0xbd8f0db0	-0.069850326
34	0xbd1a4108	-0.037659675
35	0xbd17e117	-0.037079897
36	0x3d012568	0.031529814
37	0xbe3eff62	-0.18652108
38	0xbd5aa235	-0.05337735
39	0xbd6b8b94	-0.05750616
40	0xbeb8870a	-0.36040527
41	0x3e22feb1	0.1591747
42	0xbe6b9875	-0.23007376
43	0xbda6569a	-0.08121987
44	0xbc4b488b	-0.012407432
45	0xbd8b0e61	-0.06789852
46	0xbe120593	-0.14259939
47	0x3c9ab737	0.018886192
48	0xbe0815b1	-0.13289525
49	0x3d444b98	0.047923654
50	0x3e0920e7	0.13391457
51	0xbe3e4d14	-0.1858409
52	0xbe73ca28	-0.23807585
53	0x3d01e517	0.031712618
54	0xbe14bf13	-0.14526014
55	0x3e4e47b0	0.20144534
56	0x3db5a199	0.08868713
57	0xbd11f70f	-0.035636004
58	0xbe0eafbf	-0.1393423
59	0xbe4e0fd0	-0.2012322
60	0x3c2071ee	0.009792788
61	0xbdbf7902	-0.09349252
62	0xbdc46a48	-0.09590584
63	0xbdc5fbde	-0.096671805
64	0xbe35f921	-0.17770816
65	0x3cdac415	0.026704827
66	0xbdff9b5b	-0.124808036
67	0x3c585f7d	0.01320636
68	0x3c1a4b33	0.009417343
69	0x3cff2bc8	0.031148806
70	0x3da62105	0.08111767
71	0xbd780ba5	-0.06055798
72	0x3db02571	0.086008914
73	0x3dd63e7c	0.10461137
74	0xbdf604fd	-0.1201267
75	0xbd861561	-0.065470465
76	0xbe9b4b49	-0.30330876
77	0xbd02cd94	-0.031934336
78	0xbd3779e2	-0.04479397
79	0xbe508e11	-0.20366694
80	0xbdd5e839	-0.104446836
81	0x3c1849e7	0.009294963
82	0xbec6e665	-0.38847652
83	0x3c467456	0.012112698
84	0xbdc8f761	-0.09812809
85	0xbdb6ca73	-0.08925333
86	0xbc23776f	-0.009977206
87	0xbe370b44	-0.17875391
88	0xbcdfd36e	-0.027322497
89	0x3e788ffa	0.24273673
90	0x3d002f57	0.031295147
91	0xb9a659e9	-0.00031728976
92	0xbe2f6c55	-0.17131169
93	0xbdc4dbaa	-0.0961221
94	0xbdce5b21	-0.10075975
95	0xbd388502	-0.04504872
96	0xbd396166	-0.045258902
97	0xbdd2e33f	-0.1029725
98	0xbe2c8d25	-0.16850717
99	0xbdc04fa1	-0.09390188
100	0xbd7492c0	-0.059710264
101	0xbdb7312c	-0.08944926
102	0xbe836828	-0.25665402
103	0xbd4655da	-0.04842172
104	0xbd2a6174	-0.041596845
105	0xbb197f89	-0.0023421964
106	0x3d499e17	0.04922303
107	0x3ac73449	0.0015198077
108	0xbe0d6437	-0.1380776
109	0xbcb52372	-0.022111628
110	0x3cdd7e84	0.027037866
111	0xbbd65b11	-0.0065416177
112	0xbde5ec6d	-0.11226735
113	0xbe109a0f	-0.14121269
114	0xbe988177	-0.29786274
115	0xbdaa7a81	-0.08324147
116	0xbe277c43	-0.16355996
117	0xbdfef7ea	-0.124496296
118	0xbc855029	-0.016273575
119	0x3c8214a1	0.015878977
120	0xbdfd22a2	-0.12360121
121	0xbe72ca31	-0.23709942
122	0xbe0f3910	-0.13986611
123	0xbc5475c0	-0.012967527
124	0xbe1a97ac	-0.1509692
125	0xbdb78b96	-0.08962171
126	0xbe34ed69	-0.1766869
127	0xbe50ada6	-0.20378742
128	0xbe4a6e0e	-0.19768545
129	0xbe7d9fcf	-0.24767993
130	0xbde0d632	-0.109783545
131	0x3baaaf55	0.0052088895
132	0x3d093e51	0.033506695
133	0xbdf0da02	-0.11760332
134	0x3d3f95a8	0.046773583
135	0xbca692ff	-0.020333765
136	0xbdfab495	-0.122414745
137	0xbc5b4724	-0.01338366
138	0x3d62d541	0.055379156
139	0xbd95f764	-0.07322577
140	0xbdd5b6f2	-0.10435285
141	0xbde32251	-0.1109053
142	0x3cd3dd69	0.025862413
143	0xbddf25ed	-0.10895906
144	0x3dae2f70	0.08505142
145	0xbddf286e	-0.10896383
146	0x3d42cd74	0.047559217
147	0xbecb3869	-0.39691475
148	0x3c389ddf	0.011268108
149	0xbaa01246	-0.0012212477
150	0xbe6d4ad5	-0.23173077
151	0xbedaf288	-0.42763162
152	0x3cc2ac8b	0.023763916
153	0xbd16c595	-0.036809523
154	0x3ab91516	0.0014120664
155	0x3d3d0648	0.04614857
156	0x3d01bcba	0.031674124
157	0xbd42d610	-0.047567427
158	0xbd9d9047	-0.07693534
159	0xbd505cc1	-0.050869707
160	0xbce392d0	-0.027779967
161	0x3d83a5d2	0.06428112
162	0xbe00451a	-0.1252636
163	0xbaddb9da	-0.001691635
164	0xbe225865	-0.15854032
165	0xbca0655a	-0.019579578
166	0xbda0689d	-0.078324534
167	0xbdef460e	-0.11683284
168	0xbdc7c2ea	-0.09753974
169	0xbdacc453	-0.084358834
170	0xbdd4775e	-0.1037433
171	0xbd09a3a8	-0.03360334
172	0x3cd61dfa	0.02613734
173	0xbed8655f	-0.4226484
174	0xbd3dcd57	-0.046338405
175	0xbd437457	-0.047718372
176	0xbe7e5fa6	-0.24841174
177	0x3e8bc1fd	0.2729644
178	0x3cde01ed	0.027100528
179	0xbc5084d0	-0.0127269775
180	0xbc362cef	-0.011119111
181	0xbd66713f	-0.056260344
182	0xbdd09644	-0.10184911
183	0x3d3317fe	0.043724053
184	0xbdc3794f	-0.09544622
185	0xbe02230c	-0.12708682
186	0xbc76aaa1	-0.01505533
187	0xbe1d4f56	-0.15362296
188	0xbcc13c2d	-0.023588264
189	0xbe09c53b	-0.13454144
190	0xbdcbd41f	-0.09952568
191	0xbcb3e47e	-0.02195954
192	0x3cf23900	0.029568195
193	0xba767776	-0.00094019563
194	0x3d18ea21	0.037332658
195	0x3d29cfa9	0.041457806
196	0xbe0b8586	-0.13625154
197	0xbe307fbc	-0.17236227
198	0xbe0fadaa	-0.14031091
199	0xbe511478	-0.20417964
200	0xbd389a8f	-0.045069274
201	0xbe2ab7a1	-0.16671611
202	0x3dc0b75f	0.09409975
203	0x3c32af0b	0.010905991
204	0xbe260f11	-0.16216685
205	0x3d46a8bc	0.04850076
206	0x3cbe81ee	0.023255315
207	0x3d185047	0.037185933
208	0x3c963c67	0.018339349
209	0xbddb14ad	-0.10697303
210	0xbe697d60	-0.22801733
211	0xbdb7e809	-0.08979804
212	0x3c451549	0.012029001
213	0xbce777b1	-0.028255315
214	0x3b75ba28	0.003749499
215	0xbdf88278	-0.1213426
216	0xbcc3342e	-0.023828592
217	0xbe0c5460	-0.13704062
218	0x3edfdb6f	0.43722102
219	0x3dce239c	0.10065386
220	0xbd34a9dd	-0.044107307
221	0xbdc07e60	-0.09399104
222	0xbd0858a4	-0.03328766
223	0xbdeea68c	-0.1165286
224	0xbd730490	-0.059330523
225	0x3cc2bf4f	0.023772864
226	0xbd0e7843	-0.03478266
227	0x3abad2c1	0.0014253483
228	0xbddcbdb8	-0.107783735
229	0xbe76b385	-0.24091919
230	0xbdc9238f	-0.098212354
231	0xbda58d83	-0.08083632
232	0xbe028b73	-0.12748508
233	0x3d29a2a5	0.041414876
234	0x3d81d8d1	0.063401826
235	0xbcc0a2ac	-0.023515068
236	0xbca6949f	-0.02033454
237	0x3b0688f8	0.0020528417
238	0xbcd375a7	-0.025812937
239	0x3ccc76d2	0.024959002
240	0xbccb9cdd	-0.024855072
241	0x3d6c4490	0.057682574
242	0xbdcc969a	-0.099896625
243	0xbd639444	-0.05556132
244	0xbbe84ad3	-0.007088998
245	0xbdadb975	-0.08482639
246	0x3b776bb2	0.00377534
247	0x3d48bf3b	0.049010497
248	0xbe43ee83	-0.19133954
249	0xbd95bb4e	-0.07311116
250	0xbda8727f	-0.082249634
251	0xbe09c83a	-0.13455287
252	0xbebb1ca1	-0.3654528
253	0x3d8fff7e	0.07031153
254	0xbae73778	-0.0017640432
255	0x3b87c40c	0.0041432437

out_net.fc2.bias f4 [128]
0	0x3cd9ecbd	0.026602143
1	0x3e3b17a0	0.18270731
2	0xbe1e1025	-0.15435846
3	0xbd7a7879	-0.061150048
4	0xbe3632a0	-0.1779275
5	0x3d167c38	0.036739558
6	0x3e624afa	0.22098914
7	0x3e9a8ca0	0.30185413
8	0x3dd67e35	0.10473291
9	0x3e2122d4	0.15735942
10	0x3c00d381	0.007862926
11	0x3e3894f3	0.1802557
12	0x3d1e7fc1	0.038696054
13	0x3d702d05	0.058636684
14	0x3e0d46f3	0.13796596
15	0x3dab7784	0.08372405
16	0x3dee092f	0.116228454
17	0x3d3673ea	0.044544138
18	0xbdf53881	-0.11973668
19	0x3bcc1b65	0.0062288516
20	0xbe8fa351	-0.28054288
21	0xbe1587d9	-0.14602603
22	0x3e197a8d	0.14988156
23	0xbe9efc6c	-0.31051958
24	0xbe09ba19	-0.13449897
25	0xbdc1b549	-0.094584055
26	0x3d04b72e	0.032401256
27	0x3e16f571	0.14742066
28	0x3d9d9408	0.0769425
29	0xbd9bb839	-0.07603497
30	0xbd656074	-0.056000188
31	0x3d938807	0.072036795
32	0xbd9a22ed	-0.07526193
33	0x3e013e09	0.12621321
34	0x3b070e8f	0.0020608043
35	0xbea044dd	-0.3130254
36	0xbcd396c3	-0.025828725
37	0x3dddf5e2	0.10837914
38	0x3d0d3701	0.034476284
39	0xbcd054a9	-0.025430994
40	0x3a43e172	0.00074722536
41	0xbdcb0ce0	-0.09914565
42	0xbe4ae22f	-0.19812845
43	0xbcb792d3	-0.022408878
44	0xbdd31003	-0.10305788
45	0x3df90da2	0.121608034
46	0x3e368fab	0.17828242
47	0x3d34e246	0.044161104
48	0x3d7f5dae	0.0623452
49	0xbd9c73b1	-0.07639254
50	0x3e7ee813	0.24893217
51	0xbd243292	-0.04008729
52	0xbd0b2df0	-0.033979356
53	0x3d17ec45	0.03709056
54	0x3e44091e	0.19144103
55	0x3e0e1011	0.13873316
56	0xbd421a20	-0.047388196
57	0x3aad7078	0.0013232371
58	0x3df6139c	0.12015459
59	0xbd9a0744	-0.07520917
60	0x3d307ad5	0.04308589
61	0xbe78bc33	-0.24290542
62	0x3e7161a3	0.23572402
63	0xbb9f5e47	-0.0048635337
64	0x3ecf4da4	0.40488923
65	0x3dad214a	0.08453615
66	0x3da9422b	0.08264574
67	0xbe50ac4d	-0.20378228
68	0xbcd0622c	-0.025437437
69	0xbd21ceaa	-0.03950373
70	0x3d5a1a2b	0.053247612
71	0xbbcc1018	-0.0062275045
72	0xbdd5b579	-0.10435004
73	0xbdebf93a	-0.115221456
74	0x3e83de1d	0.25755396
75	0xbdb3acc6	-0.08773188
76	0x3d82de37	0.0639004
77	0xbcf980bb	-0.030456891
78	0xbdc57e57	-0.09643238
79	0x3d1f38ba	0.038872458
80	0xbc8a36c3	-0.016871816
81	0x3b3819ea	0.0028091618
82	0xbe71d765	-0.23617323
83	0x3d6d446a	0.057926573
84	0x3d613a96	0.054987513
85	0x3e339fb2	0.17541388
86	0x3dcfc458	0.101448715
87	0xbcaac16a	-0.02084418
88	0x3dd3a1ae	0.10333572
89	0xbe0656c3	-0.13119034
90	0x3cb7a5b2	0.022417877
91	0xbe3996df	-0.18123959
92	0xbe026f45	-0.12737758
93	0x3cd6352c	0.026148401
94	0xbe1caac0	-0.15299511
95	0xbd2d6d8b	-0.042340796
96	0xbe256c96	-0.16154703
97	0x3df4d0e6	0.11953907
98	0xbea7f5ad	-0.32804623
99	0xbe2239e3	-0.15842395
100	0xbd166a9a	-0.036722757
101	0xbd04712e	-0.0323345
102	0xbe207a6d	-0.15671702
103	0x3e2fa9cc	0.17154616
104	0x3e067f48	0.13134491
105	0x3dec13c7	0.1152721
106	0xbdc80dcc	-0.097682565
107	0xbe0fdd75	-0.14049323
108	0xbd0997c1	-0.03359199
109	0xbea9ec7e	-0.33188242
110	0x3e0be4d0	0.13661504
111	0xbd8252c7	-0.06363445
112	0x3d111546	0.03542068
113	0x3c1dbe38	0.009627871
114	0x3dd3a774	0.103346735
115	0xbcb093b9	-0.021554815
116	0xbcf115b0	-0.029429287
117	0x3e5ce7ba	0.21572772
118	0xbdd9e1b3	-0.10638752
119	0x3dbc92c6	0.09207682
120	0xbb8f1730	-0.004366778
121	0x3df1650f	0.117868535
122	0xbdd68f30	-0.104765296
123	0x3e68c472	0.22731188
124	0xbdd2709f	-0.10275387
125	0xbe37df29	-0.17956223
126	0xbca72e0e	-0.020407703
127	0x3d778bad	0.06043594

out_net.fc3.weight f4 [64, 128]
0	0xbb96ff9d	-0.004608108
1	0x3d1f488d	0.03888755
2	0xbd61a03c	-0.055084452
3	0xbe0e85d1	-0.13918234
4	0x3d06459d	0.032781232
5	0xbe2b2c51	-0.16716124
6	0x3d0f9b7c	0.03506039
7	0xbdaf3dfe	-0.08556746
8	0xbcbe6269	-0.023240285
9	0xbcf932ac	-0.03041967
10	0xbd1dde1c	-0.038541898
11	0xbe537b1e	-0.20652434
12	0x3d4820e8	0.048859507
13	0xbe434f60	-0.19073248
14	0xbddeaefd	-0.1087322
15	0xbdf84229	-0.12121994
16	0xbd523690	-0.051321566
17	0x3bfa9f7c	0.0076484066
18	0xbe1ce010	-0.15319848
19	0xbd889d47	-0.06670623
20	0x3e1c7187	0.15277682
21	0x3d0ab8bd	0.033867586
22	0xbc8517d3	-0.016246712
23	0xbd89abcc	-0.06722221
24	0xbe071ef9	-0.13195409
25	0x3e02fd03	0.12791829
26	0xbdbee21d	-0.093204714
27	0x3d1ce2cc	0.038302228
28	0xbcdfa331	-0.027299495
29	0x3c59622d	0.013268036
30	0xbe0367f0	-0.12832618
31	0xbde500e8	-0.111818135
32	0x3d9b7a82	0.07591726
33	0xbdf969bf	-0.121783726
34	0xbe60ce48	-0.2195369
35	0xbde87057	-0.11349552
36	0xbcdd238c	-0.02699449
37	0xbc03883b	-0.008028085
38	0xbe09d7b8	-0.13461196
39	0xbd5941f3	-0.05304141
40	0xbd166695	-0.036718924
41	0xbe202b2b	-0.15641467
42	0xbcc06a18	-0.02348809
43	0x3d178ce3	0.036999594
44	0xbde76d97	-0.113001995
45	0xbdd8d88b	-0.10588177
46	0xbd171d82	-0.036893375
47	0xbe0816cb	-0.13289945
48	0xbdbbc6f5	-0.091688074
49	0xbc581ccb	-0.0131904585
50	0xbe1fe7fd	-0.1561584
51	0x3db28cc0	0.08718252
52	0x3bda19bc	0.0066559
53	0xbe04622f	-0.12928079
54	0xbbe4898a	-0.0069744037
55	0x3d84ca46	0.06483893
56	0xbdb1321c	-0.08652136
57	0x3db661bd	0.08905361
58	0x3e14e1dd	0.14539285
59	0xbda532ab	-0.08066305
60	0xbe1c63dc	-0.15272468
61	0xbe10c164	-0.14136273
62	0x3c9dd860	0.019268215
63	0xbe22f614	-0.15914184
64	0xbdf546af	-0.119763725
65	0xbc33cc5f	-0.010974019
66	0x3d88a6d6	0.066724464
67	0xbdc89d2f	-0.097956054
68	0xbcb906dd	-0.02258628
69	0x3ded8d7f	0.11599254
70	0xbe29319c	-0.1652283
71	0xbdec83c7	-0.11548572
72	0xbbc8aa40	-0.006123811
73	0x3d3fe874	0.046852544
74	0xbdd2300e	-0.10263072
75	0xbd10137d	-0.035174835
76	0x3cdfe511	0.027330907
77	0xbc2f9510	-0.010716692
78	0xbdfd2177	-0.123598985
79	0xbe202d0a	-0.15642181
80	0xbc8f9614	-0.017527618
81	0x3c4fb81a	0.012678171
82	0xbd8e7101	-0.069551475
83	0xbd96c9c6	-0.07362704
84	0x3cf3a9c9	0.029744046
85	0xbdae42dd	-0.08508847
86	0xbb53f0fa	-0.0032339678
87	0xbe2668fc	-0.16250986
88	0x3dc8593b	0.09782644
89	0x3c27e3dc	0.010247197
90	0xbe010871	-0.12600876
91	0xbc68978c	-0.014196288
92	0xbe036de1	-0.12834884
93	0xbc9180c1	-0.01776159
94	0xbdd983cc	-0.106208414
95	0xbdd76a15	-0.105182804
96	0x3dc1b095	0.094575085
97	0xbd685385	-0.056720275
98	0xbe06c228	-0.13160002
99	0x3ca43e11	0.020049127
100	0xbe4fa329	-0.20277084
101	0xbe17a545	-0.14809139
102	0xbdb8b76f	-0.09019362
103	0xbd891b38	-0.06694645
104	0xbdee5569	-0.116373844
105	0xbd3f7e18	-0.04675111
106	0x3c4d83cd	0.012543631
107	0x3d06a652	0.03287346
108	0x3d884fcf	0.06655847
109	0x3da7720c	0.081760496
110	0xbe1bada7	-0.15202962
111	0xbd248f3e	-0.04017567
112	0x3d96f83d	0.073715664
113	0xbe32711e	-0.17425963
114	0xbd9da4fc	-0.07697484
115	0xbe25335a	-0.1613287
116	0xbcd7a195	-0.026322166
117	0xbe0e1ab0	-0.13877368
118	0x3d2fa939	0.042885993
119	0xbe6da753	-0.2320836
120	0xbdfa4132	-0.12219466
121	0xbd9b4c23	-0.07582881
122	0xbe0feed7	-0.14055954
123	0xbe19c255	-0.15015538
124	0xbc279bb5	-0.010229995
125	0x3db8be0f	0.09020626
126	0xbd868e1f	-0.06570076
127	0xba9a72de	-0.0011783501
128	0xbd8919aa	-0.06694348
129	0xbabcb2db	-0.0014396565
130	0x3b8f55f3	0.0043742596
131	0x3e0faf32	0.14031675
132	0xbe2f0eec	-0.17095536
133	0x3c924c1c	0.017858557
134	0x3d1527a4	0.036414757
135	0x3d80f520	0.06296754
136	0xbdc3680e	-0.09541331
137	0x3e19adfd	0.15007778
138	0xbde3d848	-0.11125237
139	0xbe009435	-0.12556536
140	0x3af91cb7	0.001900575
141	0xbda21eaa	-0.07916005
142	0x3bfd3839	0.0077276495
143	0xbe069a85	-0.13144882
144	0x3da2fc28	0.07958251
145	0xbd2885ba	-0.041143157
146	0xbd5e1d36	-0.054227076
147	0x3d3bd9fe	0.04586219
148	0xbd7a291d	-0.061074365
149	0x3d247c7a	0.040157773
150	0x3d50ce28	0.050977856
151	0x3d001fed	0.031280447
152	0xbce3bc4d	-0.02779975
153	0xbe217206	-0.15766153
154	0xbe72934a	-0.23688999
155	0x3d70e1b6	0.058809005
156	0x3c1aff73	0.009460318
157	0xbc885589	-0.016642349
158	0x3d934e4b	0.071926676
159	0xbc0c5993	-0.008566278
160	0xbd96a8f9	-0.07356448
161	0x3b7485e4	0.003731125
162	0x3b28273c	0.002565815
163	0xbdd3c7ea	-0.10340865
164	0xbe0c90b1	-0.1372707
165	0xbcfc5aa6	-0.030804943
166	0x3d3668b7	0.044533458
167	0xbdb57bad	-0.0886148
168	0xbdb1c8bb	-0.086808644
169	0x3db9f619	0.090801425
170	0xbe0f11ab	-0.13971584
171	0xbe214c0f	-0.1575167
172	0xbd6320c6	-0.055451177
173	0x3d74307e	0.05961656
174	0xbd4cef6d	-0.05003302
175	0xbddd3919	-0.10801906
176	0xbb1eba06	-0.0024219765
177	0x3bc96b85	0.0061468505
178	0x3d733bdd	0.059383262
179	0xbdb26402	-0.08710481
180	0xbbf14ea0	-0.007364109
181	0x3d598dd3	0.05311377
182	0xbd6eb400	-0.05827713
183	0x3e248ef0	0.16070151
184	0xbd91cb6d	-0.071188785
185	0x3b6682dd	0.0035173215
186	0xbdd9b567	-0.10630303
187	0xbe2d5ebe	-0.16930673
188	0xbd9fcace	-0.07802354
189	0xbdaea571	-0.08527649
190	0xbd8cbf09	-0.068723746
191	0xbe726f4c	-0.23675269
192	0xbdbd6fbe	-0.09249829
193	0xbd96c31c	-0.07361433
194	0xbe074e9f	-0.13213585
195	0xbe0933c5	-0.13398655
196	0x3d8f7c3f	0.0700612
197	0x3d10b4bc	0.03532861
198	0xbd5a8038	-0.053344935
199	0x3de3674b	0.11103686
200	0xbdd76273	-0.105168246
201	0x3dd8a07c	0.10577485
202	0xbd3176ee	-0.04332631
203	0xbd16b529	-0.03679386
204	0x3d6a1b2c	0.05715482
205	0xbdfa3912	-0.122179165
206	0xbcc8cb60	-0.02451104
207	0xbcc8c5d4	-0.024508394
208	0x3b14bc01	0.0022695067
209	0xbbe28ca0	-0.0069137365
210	0x3d598cf9	0.053112958
211	0x3d8d025f	0.06885218
212	0xbccd3e1e	-0.025054034
213	0xbdbb1992	-0.091357365
214	0xbe2146d3	-0.15749674
215	0x3cbb1ce2	0.02284092
216	0xbdfcb51a	-0.1233923
217	0xbd250932	-0.040291972
218	0xbd5c33df	-0.053760406
219	0xbd59ea24	-0.05320181
220	0xbd9a66a6	-0.0753911
221	0x3a8eb447	0.0010887467
222	0xbe3fc98d	-0.1872923
223	0x3c92a6da	0.017901827
224	0xbd6b37d7	-0.0574263
225	0xbdbb4289	-0.0914355
226	0xbd10695f	-0.03525674
227	0x3c41a331	0.011818693
228	0xbdec2911	-0.1153127
229	0x3dc15388	0.094397604
230	0xbd0940bb	-0.033508997
231	0x3d1a9836	0.037742816
232	0x3dbb276f	0.09138381
233	0x3d535878	0.051598042
234	0xbc941a12	-0.018078838
235	0xbdb96069	-0.09051592
236	0xbdc8d15a	-0.09805556
237	0x3cff68d4	0.031177916
238	0xbd7d2174	-0.06179948
239	0xbdd5c5a8	-0.104380906
240	0x3d9ef587	0.077616744
241	0x3c93c94f	0.018040327
242	0xbe0f5824	-0.13998467
243	0xbd5ec694	-0.054388598
244	0x3df3b46f	0.11899649
245	0xbe1d1f18	-0.15343893
246	0xbb3f46cf	-0.0029186492
247	0xbe5282d7	-0.20557724
248	0xbc003cff	-0.007827043
249	0x3d9c4bee	0.0763167
250	0xbc7c03d0	-0.015381768
251	0xbd831038	-0.06399578
252	0xbd55e657	-0.052221622
253	0x3c5e0a2a	0.013552228
254	0xbe126f5f	-0.14300297
255	0x3d0d7862	0.034538634

out_net.fc3.bias f4 [64]
0	0xbd27a67b	-0.040930253
1	0xbe21cd85	-0.15801056
2	0xbdf774c0	-0.12082815
3	0xbc1ec5ef	-0.009690746
4	0x3d07d41c	0.033161268
5	0x3e1f1450	0.15535092
6	0xbe37f8af	-0.17965959
7	0x3df0b5bf	0.11753415
8	0x3e8d9ef3	0.2766033
9	0x3e0a2ba3	0.13493209
10	0x3eb76bdb	0.35824475
11	0x3cc187c8	0.023624316
12	0x3e00cd56	0.1257833
13	0xbe358b5e	-0.17728946
14	0x3dfd3b09	0.12364776
15	0x3e3815e3	0.17977099
16	0xbc78f5b1	-0.015195296
17	0x3be1d867	0.0068922522
18	0xbe3326e7	-0.17495309
19	0x3e64c1a8	0.22339499
20	0xbe240c82	-0.16020396
21	0x3ccb7322	0.024835173
22	0xbe924acc	-0.2857269
23	0x3e46495e	0.19363925
24	0xbd4927fc	-0.049110398
25	0xbd130968	-0.035897642
26	0x3e17dfc4	0.14831454
27	0xbedd4d82	-0.43223196
28	0xbd73b66e	-0.05950015
29	0x3e998a42	0.29988295
30	0x3de28a42	0.11061527
31	0x3dae0d12	0.08498587
32	0xbe287e32	-0.1645439
33	0xbcc55530	-0.024088472
34	0xbc68d916	-0.014211914
35	0xbf1bab94	-0.6080868
36	0x3db91fe5	0.090392865
37	0x3e9597b0	0.2921729
38	0x3ea8c058	0.32959247
39	0x3deb7a8e	0.11497985
40	0x3e103393	0.14082174
41	0x3eaedb05	0.34151474
42	0xbdac6a73	-0.08418741
43	0xbe2a8653	-0.16652803
44	0x3eadb054	0.3392359
45	0xbde52084	-0.111878425
46	0x3d0b3441	0.03398538
47	0xbdedb8fa	-0.11607547
48	0xbe236632	-0.15956953
49	0xbc73b06f	-0.014873608
50	0xbe160234	-0.14649278
51	0x3dfe5d46	0.12420134
52	0xbe011e19	-0.12609138
53	0x3e9c9494	0.30582106
54	0x3e4bbfb6	0.1989735
55	0x3c5dd405	0.013539319
56	0x3e79a32a	0.24378648
57	0xbdc4f0a8	-0.09616214
58	0x3d5f86bb	0.05457185
59	0xbcfca97f	-0.03084254
60	0xbe33e2e4	-0.1756702
61	0xbdc16fdd	-0.09445164
62	0xbd85b096	-0.06527822
63	0x3e3b19a3	0.18271498

out_net.fc4.weight f4 [1, 64]
0	0xbb23e0c0	-0.0025005788
1	0xbc08ca1c	-0.008348968
2	0x3c9f46f0	0.019443005
3	0x3d098abe	0.03357958
4	0xbdaf32e9	-0.08554632
5	0xbd7b9fbc	-0.06143163
6	0xbba5377d	-0.005042015
7	0x3d0bc72a	0.034125485
8	0xbd62514d	-0.055253316
9	0x3d4f4bc4	0.050609365
10	0x3ce5386f	0.027981011
11	0xbc829871	-0.01594183
12	0xbce52bdf	-0.02797502
13	0xb8ea1bcf	-0.00011163169
14	0xbd01639a	-0.031589128
15	0xbd544cc3	-0.05183102
16	0x3c8ce2df	0.017198024
17	0xbcbf407e	-0.023346182
18	0x3ae686b6	0.0017587754
19	0xbc8ad489	-0.016947048
20	0xbb21360f	-0.0024598872
21	0xbd56a4f5	-0.05240341
22	0xbcae9982	-0.021313433
23	0xbce2bae7	-0.027677013
24	0x3d9ad223	0.07559612
25	0xbcb6c968	-0.022312835
26	0x3d15bc79	0.036556695
27	0x3d0e49dd	0.03473841
28	0xbd8743ec	-0.06604752
29	0xbcc2a25f	-0.023759065
30	0x3dc21393	0.0947639
31	0xbd137f30	-0.036009967
32	0x3c9e7125	0.01934106
33	0x3c0a1da2	0.008429917
34	0xbdf13a02	-0.11778642
35	0x3cf1ddb5	0.029524663
36	0xbd44f517	-0.0480853
37	0x3d8c6122	0.06854464
38	0x3ccb39f4	0.024807908
39	0x3d1bacc4	0.03800656
40	0x3cd78f82	0.026313547
41	0xbc53c54b	-0.012925456
42	0xbd580558	-0.05273947
43	0x3bfb1d9e	0.0076634428
44	0xbd54f46d	-0.051990915
45	0x3d4cef6e	0.050033025
46	0xbd331812	-0.043724127
47	0xbc978057	-0.018493814
48	0x3d8db357	0.06918972
49	0xbca7abce	-0.020467665
50	0x3c762d21	0.015025408
51	0xbd7c7362	-0.061633475
52	0x3cd2ff7a	0.025756586
53	0x3d940406	0.0722733
54	0xbcd0807c	-0.025451891
55	0xbd8d047a	-0.068856195
56	0x3ce5b37d	0.028039688
57	0xbda6c5f9	-0.08143229
58	0xbceed832	-0.029155824
59	0x3dab371e	0.08360122
60	0x3cdfd7da	0.027324606
61	0xbcf760fc	-0.030197613
62	0x3d6a4a8c	0.0572
63	0x3d44fee5	0.04809465
