scores/checkpoint_env_solved_critic_e3200_r077.pth (torch, 194623 bytes, 7 tensors)

obs_net.fcs1.weight f4 [256, 24]
000000 ed 67 9a 3d 6a 1f ad 3f 55 d5 48 3c ea 9c 8c 3e
       0.075393535 1.3525212 0.012257894 0.27463466
000010 3b 2d 18 3e cb 25 a4 bc 03 b9 ad 3b 28 ca a5 3e
       0.14861004 -0.020037552 0.005301596 0.32380795
000020 e5 32 d5 3e 78 d2 d0 3f 46 6a da bc a7 71 57 3e
       0.41640392 1.631423 -0.026662003 0.21039449
000030 ac 33 4d 3d eb 41 ac 3d 1f da 47 3d d3 3b 38 3e
       0.050098106 0.0841101 0.048792 0.17991571
000040 88 c2 48 3f 1f a1 d2 3f 64 2f dc bb 31 8d 88 3e
       0.7842183 1.645542 -0.0067195166 0.2667022
000050 62 d7 d5 be ea 3c 18 3f 8f fa 8f 3d cf 53 90 3e
       -0.41765887 0.5946795 0.07030212 0.2818894
000060 35 b0 28 3e f8 da de 3e f9 80 da bc 5d 80 97 bd
       0.16473468 0.43526435 -0.026672827 -0.0739753
000070 9c f5 07 3f 96 4b 36 bf 02 46 13 3d 14 4f c1 bb
       0.53109145 -0.71209085 0.035955437 -0.0058993194
000080 82 eb f4 3a af 8a f9 3e 43 12 82 bc a1 e4 5a bd
       0.001868591 0.4873862 -0.015877848 -0.053440694
000090 24 d9 2d 3d f6 b3 a4 3e f2 9a 86 3c 0e f0 9a bc
       0.04244341 0.3216855 0.016431306 -0.018913295
0000a0 13 db 06 be 9a ae 11 3f 38 0b 97 3b 93 85 d5 bc
       -0.13169508 0.56907046 0.0046094917 -0.02606467
0000b0 8f 0f e3 be ce 86 ab 3f 4f 4a 8f 3c 47 15 25 bb
       -0.44347808 1.3400514 0.017491488 -0.0025189684
0000c0 4f d4 7b bc 1f c8 66 3f 94 6b 7c bd dc 1a 6c 3c
       -0.0153704425 0.9014911 -0.061626032 0.014410701
0000d0 1d c3 64 be 49 a8 9c be c8 52 c9 3c a4 5a a9 3d
       -0.22340055 -0.3059714 0.024575606 0.082692415
0000e0 db 7a fe 3d 8d 5b 5d 3f e4 c1 38 3c 22 76 03 be
       0.124257766 0.8646782 0.011276696 -0.12838033
0000f0 ac 7d aa bd 07 64 50 3e c6 65 a5 3c 9c 90 3d be
       -0.08324751 0.20350657 0.02019013 -0.18512195
000100 79 a2 aa 3e 8c 84 54 3f fb a3 11 3c 34 f4 8a be
       0.33327082 0.8301475 0.008889194 -0.27139437
000110 c8 82 9f bd 3b e6 94 3f 23 7c 94 3c b9 97 52 be
       -0.077886164 1.1632761 0.0181256 -0.2056569
000120 95 8c 3a 3c 2d 82 d5 3e 8f a5 7e 3b 73 0c 93 3c
       0.011386056 0.4170088 0.0038856005 0.017950272
000130 e0 89 df 3e 38 f2 8a 3d 03 11 8e ba 86 c4 cc 3d
       0.43659878 0.06784481 -0.001083881 0.09998421
000140 68 a9 14 3d 00 76 b9 3e f8 b3 00 bd 49 55 a5 be
       0.03629437 0.3622284 -0.03142163 -0.3229163
000150 67 ef a3 3e ba dc 0a 3e fe 58 84 bb e9 dd b2 be
       0.32018587 0.13560763 -0.004038929 -0.3493493
000160 04 2c 85 3d c9 38 1f 3f ef 2c 74 bd d8 4e ac 3b
       0.06502536 0.6219602 -0.059613165 0.0052584223
000170 ae f4 91 be a7 a4 8b be 1d d4 0f 3c b3 b9 42 3d
       -0.28506988 -0.27274057 0.008778599 0.047540378
000180 3b 08 50 be 52 ab d4 3b 48 ce 3b bc ac 1f fc bd
       -0.2031564 0.0064901495 -0.0114627555 -0.123107284
000190 ed ea 88 bf 81 4d e8 be 12 f5 51 3c 3c 0f c2 bd
       -1.0696694 -0.4537163 0.012814777 -0.09475562
0001a0 83 b6 ca 3e d8 4c b9 bd 65 ce b3 3c c7 1f ea bd
       0.3959237 -0.0904786 0.021949003 -0.11431842
0001b0 fc 9a a0 be 25 53 9b bd fd a4 90 bd 65 15 11 bd
       -0.31368244 -0.07584218 -0.07062719 -0.035420794
0001c0 78 ea 2f 3f 49 8b 43 be a6 ee e5 b9 d0 6f 1d be
       0.68717146 -0.19096102 -0.0004385609 -0.15374684
0001d0 e8 d6 1b 3f a7 d0 8e 3e 1e 8b 8f bc dd 53 dc bd
       0.60874796 0.27893564 -0.017522391 -0.10758183
0001e0 bb 31 8c bd 84 ef 11 3e 10 59 94 3c 68 c7 f2 3d
       -0.06845423 0.14251524 0.018108875 0.1185444
0001f0 ce 11 16 be c7 4e 90 bf 3c 75 e0 bc 75 d0 f6 3d
       -0.1465523 -1.1274041 -0.027399652 0.12051479
000200 1d 04 33 3e 95 a4 0e 3e 28 0d 02 3d 94 af de 3c
       0.17482038 0.1392997 0.031750828 0.027183332
000210 21 eb ce 3e f5 d5 15 bf fc 7d 0d bd 22 a7 8b bd
       0.40413764 -0.585296 -0.034543976 -0.068189874
000220 8b cb ad 3e 30 ec 6a 3d 75 8e 96 3c f3 62 65 3e
       0.33944353 0.057354152 0.018378476 0.22401027
000230 1d 9e 27 3f 44 b9 96 3e 2b dc e4 3c 0b 20 70 3e
       0.65475637 0.2943822 0.027937016 0.23449723
000240 69 37 1d 3e ee a7 37 3e 12 1f 8c 3b a1 8d 8a bd
       0.15353169 0.17935154 0.004276165 -0.06765295
000250 3f 55 5b 3f 74 62 d0 bf 22 23 8a bd 4e 96 be bc
       0.8567695 -1.6280046 -0.06744982 -0.02326503
000260 55 11 09 3e d7 34 8b 3c 9a 47 8a 3b e4 23 03 bd
       0.13385518 0.01699297 0.0042199614 -0.03201665
000270 5a 1e 59 bc 28 eb 38 bf 1e 63 b9 bb 8c 23 02 bd
       -0.013251865 -0.7223382 -0.0056575676 -0.03177218
000280 9a 6a 0e 3e a1 25 cf 3d 72 f4 61 bd dd 5f 91 3e
       0.13907853 0.10114599 -0.05516476 0.2839345
000290 7d 07 c9 3e 30 2e c9 3e 9a e3 30 bd 35 bf a7 3e
       0.39263526 0.3929305 -0.043185808 0.32763067
0002a0 79 91 ad 3f a3 dc 34 bf 7d ba b7 bc 02 fe 59 3f
       1.356002 -0.70649165 -0.022427792 0.8515321
0002b0 fe 8f 79 bc c4 b0 3f bf 1b a0 84 bc 5e 3a 50 3f
       -0.015232084 -0.748791 -0.016189625 0.8133906
0002c0 fa d4 77 3f 72 63 2c bf 54 22 c6 3c 72 69 85 3d
       0.9680935 -0.6733924 0.02418629 0.06514253
0002d0 39 d3 4c 3e ef a0 f5 bf cc 7e 29 3d b6 5d 59 3c
       0.2000245 -1.9189738 0.04138069 0.013266971
0002e0 4e a7 3a 3f 7c 34 26 bf 3b e7 01 be f6 04 db be
       0.72911537 -0.64923835 -0.12685864 -0.42777222
0002f0 a0 ed 32 3e 29 9a 66 be 91 77 c7 bd fb cc 00 bf
       0.17473459 -0.22519745 -0.09739602 -0.50312775
000300 d4 f8 76 bd 57 b6 45 bc b3 c2 d0 3c 9a 87 dc 3c
       -0.060295895 -0.012067399 0.025483465 0.026920129
000310 31 b2 c4 ba d5 28 48 3f bc fe 2b bd 92 b7 97 3c
       -0.0015006718 0.78187305 -0.04199098 0.01852015
000320 f0 a1 19 be 07 fc 6b 3e 2d 17 bf bc 4a d5 e3 bc
       -0.1500318 0.2304536 -0.02332648 -0.027811665
000330 bb 92 71 3e 51 3b 97 3e 8b 18 08 3c 8f dc 5f 3d
       0.2359113 0.29537442 0.008306633 0.0546537
000340 50 25 d6 be 93 61 6d 3e d7 4b 7b bd e6 79 98 3d
       -0.41825342 0.23181753 -0.061351623 0.07445125
000350 8d 86 fd 3e 2d 6d c3 bf 63 2d bc 3c 0e 0a 07 bb
       0.49516717 -1.5267693 0.02297086 -0.0020605358
000360 a9 97 85 3e 0a 00 80 3e c3 ec 09 be 8c d5 24 bf
       0.2609227 0.2500003 -0.13469224 -0.64388347
000370 31 82 27 3d b1 3b e1 bd 5f 9e 87 bd 22 39 20 bf
       0.040895645 -0.10997713 -0.06622004 -0.6258718
000380 15 51 9d 3e 5b cd 69 3e 3b f8 ae 3c af a1 99 3e
       0.30725923 0.22832243 0.0213586 0.30006167
000390 e0 7a 8a 3d a1 bb d3 be c0 7c 06 bd 4d 9a 85 3e
       0.06761718 -0.41354087 -0.032833815 0.26094285
0003a0 8e bb d3 3e 7d 26 9c 3e 3d 47 b1 3d 75 a4 11 3e
       0.4135403 0.30498114 0.08656166 0.14222892
0003b0 4c 59 c9 3d 30 bb 88 bf 0d 02 15 3d 4d cf f5 3c
       0.09831485 -1.0682125 0.03637891 0.030006075
0003c0 ef 56 ef 3d 64 2a 84 3e 82 0c de bd 81 55 19 bf
       0.11686503 0.2581359 -0.108422294 -0.59896094
0003d0 6a 47 68 bc 80 8c 54 3e dc b7 41 bd d7 44 17 bf
       -0.014177183 0.20756721 -0.047294483 -0.59089416
0003e0 a9 59 70 3e 90 fd ad 3e 7c ef fa bc 19 61 3f be
       0.23471703 0.33982515 -0.030631773 -0.18689384
0003f0 0a cd 61 be 1f a7 7b bd 09 c1 65 bc f3 6c 58 be
       -0.22050872 -0.061438676 -0.014023074 -0.21135311

obs_net.fcs1.bias f4 [256]
000000 7e 13 ac be 29 cd 52 bf c4 f1 0e bf 57 51 df be
       -0.3360862 -0.823443 -0.55837655 -0.43616745
000010 42 04 bf 3e ec b2 aa bf 6b af 94 bf 6b 91 76 3f
       0.37307936 -1.3335853 -1.1616033 0.9631564
000020 1e a4 78 3f 8c 3d 47 be 75 b6 36 bf 20 b8 33 bf
       0.9712542 -0.19457072 -0.7137216 -0.7020283
000030 8a 3e 51 bf fc 7b 9d bc bc 4f 57 bf de 85 3f bf
       -0.8173605 -0.01922416 -0.8410604 -0.7481364
000040 f2 de de 3e 27 11 66 bf 0d 1d 15 be 97 31 e4 be
       0.4352947 -0.8986992 -0.14561863 -0.44569084
000050 79 73 91 bf d3 21 af bd 36 da 64 be 74 9c 2a bf
       -1.1363364 -0.08551373 -0.22348866 -0.6664498
000060 1d 51 61 bf 04 fb cd 3e 78 c1 75 be 72 5f 04 be
       -0.88014394 0.40230572 -0.23999584 -0.12927034
000070 47 c8 56 be 26 eb 15 be 5f 02 ff be 72 1f 93 3e
       -0.20974837 -0.14640483 -0.49806497 0.28734928
000080 aa 37 71 be 74 63 0e 3d 75 11 5e bf 3a df 4d bf
       -0.2355639 0.034762815 -0.8674539 -0.8041874
000090 be 6a 81 be bd a3 71 bf f1 68 8c bd 21 ea 71 be
       -0.2527675 -0.9439047 -0.068559535 -0.2362447
0000a0 9b 4f 7f be c8 a4 f5 be 65 5f b3 be 0d 55 34 be
       -0.24932711 -0.4797728 -0.35033718 -0.1761057
0000b0 3f bb ba bc cd 95 81 bf 9e cf 98 3b 65 18 b5 3e
       -0.022794364 -1.012384 0.004663422 0.35370174
0000c0 7e 83 1a bf 30 73 80 3f 9d 39 11 bf 3f 4b 8d be
       -0.6035689 1.0035152 -0.56728536 -0.2759647
0000d0 51 12 2a bf f6 a4 0f bf 13 b8 0a 3e 83 c3 04 bf
       -0.664342 -0.56111085 0.13546781 -0.5186083
0000e0 ab 49 94 3e 2d b3 2a 3f b6 f8 06 bf c9 48 cd be
       0.28962454 0.6667965 -0.5272325 -0.40094593
0000f0 4f 88 95 be d4 c8 de be ec e6 2d 3f 39 8e 23 bf
       -0.29205558 -0.43512595 0.67930484 -0.6388889
000100 27 d0 84 3e bd be 99 bf be 90 50 bf 4b 7e 62 bf
       0.25940058 -1.2011334 -0.8147086 -0.8847396
000110 d3 33 09 bf 39 21 88 bd 31 8d fd be 47 d5 97 be
       -0.535947 -0.06646962 -0.49521783 -0.29654905
000120 b4 1c bc be 29 ad e7 be c4 6d 8c be 91 df 2a 3c
       -0.3674065 -0.45249298 -0.27427495 0.010429279
000130 11 1e df bf b6 e5 1f bf b2 76 da bd 59 46 5f bf
       -1.743105 -0.62459886 -0.106671706 -0.87216717
000140 e9 53 7c bf eb 55 2f bf 50 32 8b be 10 fd 0c bf
       -0.98565537 -0.68490475 -0.27186823 -0.5507364
000150 fe d1 9f be 0d b3 29 bf bc d0 b2 bd ba cd 8a be
       -0.312149 -0.66288835 -0.08731219 -0.27110082
000160 4c f0 4e bf fa 46 39 bf c6 8e 00 3f 02 78 e4 be
       -0.80835414 -0.72373927 0.50217855 -0.4462281
000170 69 15 0b 3f bf d7 1c bf 69 52 ca bf b1 20 b6 be
       0.54329544 -0.612667 -1.58064 -0.35571817
000180 48 c5 00 bf 48 1d 42 be f0 f0 ee be 6b 98 23 3d
       -0.5030103 -0.18956482 -0.46668196 0.03994028
000190 f8 b7 e5 be f5 03 42 be 68 47 3b 3d 64 71 e1 3d
       -0.4486692 -0.18946822 0.045722395 0.11007956
0001a0 25 06 61 3d c0 3d 9e 3f 4e 5b ff 3d 58 d6 ca be
       0.0549375 1.2362595 0.12468587 -0.39616656
0001b0 74 82 8e bf c9 1c 84 3e 42 21 b6 bc 27 d0 89 3e
       -1.1133561 0.2580321 -0.022232655 0.2691662
0001c0 39 1f 8c be 90 71 41 be d3 29 a9 3e c4 20 a4 bd
       -0.2736757 -0.18890977 0.33039722 -0.08014062
0001d0 6e 02 e4 be c9 02 18 be 15 df 30 be 51 1e eb be
       -0.44533104 -0.14844812 -0.17272599 -0.45921567
0001e0 af e4 29 3f e2 05 57 3c f2 7d 9e be a6 01 b6 be
       0.6636457 0.013123961 -0.30955464 -0.35548133
0001f0 a2 e7 8c be 98 55 62 bf d9 4c 00 bf 88 36 5f 3e
       -0.27520472 -0.88411856 -0.5011726 0.21798146
000200 ff 6b 32 bf 7a 3c 73 3e 92 07 f8 be 8d fa 80 bd
       -0.6969604 0.23753539 -0.48443276 -0.06297789
000210 37 0b ca bd f0 e5 14 be 70 8b 49 bf 5a 16 bb 3e
       -0.0986542 -0.14540839 -0.7872839 0.3654049
000220 21 a1 6e 3e 24 0c 4b be fd 71 ca be d5 b4 e3 be
       0.23303653 -0.1982885 -0.3954009 -0.444739
000230 b6 92 47 be 01 22 99 3f 1a 82 33 bf cc 67 eb be
       -0.1948956 1.1963502 -0.70120394 -0.45977628
000240 9c ff 87 be 77 57 14 bf 58 8e 58 bf 81 a0 56 3f
       -0.26562202 -0.5794596 -0.845922 0.8383866
000250 7e 44 9f bf c2 3e 6b 3f 37 f8 ee be 49 a9 1c 3f
       -1.2442777 0.91892636 -0.46673748 0.6119581
000260 f2 52 3d bf 14 44 c8 be 98 8b 04 bf f8 f5 9d be
       -0.7395469 -0.3911444 -0.51775503 -0.30851722
000270 c7 48 97 be 09 26 ef be 5e 03 e1 3f ae e7 38 3f
       -0.29547712 -0.46708706 1.7579153 0.72228515
000280 04 dd 9e be a4 b4 37 bf b9 02 ba 3e d0 79 dd be
       -0.31027997 -0.7176001 0.36330202 -0.43256998
000290 89 46 cc be ac 67 5c bf b0 5a 24 bf 8f f4 52 3c
       -0.39897564 -0.8609569 -0.6420088 0.01287569
0002a0 1e 12 8a bf af 50 03 bf 05 f7 2b 3f 13 e2 02 bf
       -1.0786779 -0.5129499 0.67173797 -0.5112621
0002b0 10 81 79 bf 79 b0 58 3f 4e b9 77 bf a0 06 88 be
       -0.9746256 0.84644276 -0.9676713 -0.26567554
0002c0 9a ac c0 3e ad 5d 97 be cb ca d2 be cf 1d 80 bf
       0.37631685 -0.29563656 -0.41170344 -1.0009097
0002d0 2a 76 18 bf b1 e0 08 bf 8d 7a dc be 85 f5 bb bf
       -0.59555304 -0.5346785 -0.4306225 -1.4684302
0002e0 c9 35 b7 be 88 75 5d bf 4d fc 08 bd 69 dd 86 be
       -0.35783222 -0.86507463 -0.033443738 -0.26340798
0002f0 9f fd 14 bf 3b 58 a2 3e 7f b2 3d bf 58 63 47 3e
       -0.58199495 0.3170794 -0.7410049 0.1947149
000300 a7 48 3a bf 06 8a 77 be f0 f3 18 bf c2 36 26 3e
       -0.7276711 -0.24173746 -0.5974722 0.16231826
000310 ef a5 08 bf 6e a8 0b bf 38 f9 8c bf 48 da dc be
       -0.53378195 -0.5455388 -1.1013556 -0.43135285
000320 6f 44 e4 3d 03 82 e0 be 03 20 b8 bd 3c a3 cd 3e
       0.11145865 -0.4384919 -0.08990481 0.401636
000330 95 1b 86 bd 89 40 92 3e a5 94 24 bf 41 a7 ad bf
       -0.065482296 0.2856486 -0.64289314 -1.3566667
000340 7a 4e f6 3c 97 48 ff be a6 ce 53 be 7a 7b 56 bf
       0.030066717 -0.4986007 -0.20684299 -0.8378216
000350 86 d3 c6 3e 2d a2 b0 bf a4 94 02 be 04 05 56 bf
       0.38833255 -1.3799492 -0.12752014 -0.83601403
000360 6c 0e 08 bd e1 e8 b3 be 6c df d5 be 8a 9c ad bf
       -0.03321688 -0.3513861 -0.4177202 -1.3563397
000370 1c 9c 56 3f 8f b1 0d bf f4 8b 34 bf a3 c6 03 bf
       0.83831954 -0.5534906 -0.7052605 -0.5147497
000380 f5 34 bc bf b2 91 96 bf e0 6d 7e bf bd ed f3 be
       -1.4703661 -1.1763213 -0.99386406 -0.47642317
000390 e1 d8 e5 be fb b2 c3 be 7b 1f c3 bf b4 e0 ea bf
       -0.44892028 -0.3822249 -1.5243982 -1.8349824
0003a0 1f 5b 42 bf 2f 77 83 be 9d 47 50 bf ef bc a9 bd
       -0.7592029 -0.25676867 -0.81359273 -0.08287989
0003b0 e1 bd a0 bf ea 96 da be 8c 57 cb be c7 9d 16 bf
       -1.2557946 -0.42693263 -0.3971523 -0.588345
0003c0 81 66 03 3e 52 30 f5 3e 57 b1 b4 3e 6e f6 16 bf
       0.12832071 0.47888428 0.3529155 -0.5896977
0003d0 4e 07 7f bf d8 e6 88 3e 1e 96 3e bf f0 92 b0 be
       -0.9962052 0.2673862 -0.7444781 -0.34487104
0003e0 fa 7e b4 be a4 c7 0e bf 91 95 e9 bd 86 3a 8e 3f
       -0.35253125 -0.5577338 -0.11405481 1.111161
0003f0 cd 3b a6 bd 1d 7f 63 3e b7 5f 58 3e 7b df 23 bf
       -0.08116875 0.22216459 0.21130262 -0.6401288

out_net.fc2.weight f4 [128, 258]
000000 e4 ad ef bd 4d c6 c7 bc 14 69 33 bd 9b 40 11 bd
       -0.11703089 -0.02438655 -0.043801382 -0.035462003
000010 58 ed 2d ba df 80 b8 bd 47 45 c3 bd fc cb f8 bd
       -0.0006634793 -0.09008955 -0.09534698 -0.12148282
000020 eb af 6a bc e9 69 97 bd 1a 8d cf bd 9d 11 63 3b
       -0.014324169 -0.07393248 -0.10134335 0.003464795
000030 47 1f 8a bd c7 f3 43 bd 84 32 79 3d b3 59 46 bd
       -0.06744247 -0.047839906 0.06083919 -0.048425388
000040 65 43 c7 bc 8f 33 43 be 45 e2 d1 bd 0d 80 06 be
       -0.024324128 -0.19062637 -0.102482356 -0.13134785
000050 14 bc 78 bd 4e e5 49 bd 80 e1 e5 bc 01 54 79 3d
       -0.06072624 -0.049290948 -0.028061628 0.060871128
000060 b0 f8 9a bc 0c 7e 3b 3d ff 31 14 be df ec 3e be
       -0.018917412 0.045774505 -0.14472197 -0.18645047
000070 7e 84 1e 3d 3b fd c6 bd 29 a8 ac bb 40 c5 56 3c
       0.038700573 -0.09716269 -0.0052690697 0.0131085515
000080 af 34 f7 3c 17 28 e8 bd 84 8c 7f bc 65 dc 70 bd
       0.030176489 -0.113357715 -0.015597466 -0.058803935
000090 72 bb cc bd 42 94 ad bd 09 17 08 3d 04 db 8b 3d
       -0.0999669 -0.084755436 0.033225093 0.06828883
0000a0 ae a3 03 be a5 45 3e 3c 6c 39 ac 3d 9d 37 33 bc
       -0.12855408 0.011613284 0.0840939 -0.010938552
0000b0 e3 79 8b 3d cc 21 1a be 87 88 f3 bd fd 46 79 bb
       0.068103574 -0.15051955 -0.11891275 -0.0038036697
0000c0 49 9c 8c 3c 97 b9 fa 3c c9 a5 25 bb a9 34 81 3d
       0.017164366 0.030606074 -0.0025275818 0.06308872
0000d0 76 5f a6 bd cb 3e 2f bd 33 b4 2d bd 41 7f 3c bd
       -0.081236765 -0.042784493 -0.04240818 -0.046019796
0000e0 5f 8e a1 bd 9f 22 78 bc c2 ea 1f bd 09 43 db 3d
       -0.07888483 -0.015144973 -0.039042242 0.10706145
0000f0 71 b1 2c 3d 01 e5 97 bd 9b d1 33 bd 53 3e 28 bd
       0.04216141 -0.07416726 -0.043901067 -0.041075062
000100 5a 04 85 bc be 4a 93 3c 53 3a 1c 3d a0 f5 6c bd
       -0.016237427 0.017979976 0.03814156 -0.057851434
000110 94 da 29 be 77 3f f6 3c 1e 08 57 bd e8 17 06 3d
       -0.16587287 0.03005956 -0.052497976 0.032737643
000120 ae 8b 89 3d 69 c1 ae bc 12 41 de bd 2d c7 13 3d
       0.06716095 -0.02133246 -0.10852255 0.03607862
000130 6b eb 7c 3c ef 6d f1 bd 57 94 9d bd 06 4e 23 3a
       0.015436987 -0.11788546 -0.07694309 0.0006229583
000140 56 1f a6 bd fe 77 8c bd 4e 93 80 3c b6 74 66 3b
       -0.081114456 -0.06858824 0.01569524 0.003516478
000150 51 50 f4 bd a2 a0 c0 3d 4e a7 0f be 16 8e ce bd
       -0.11929382 0.09405638 -0.14028665 -0.100856945
000160 d9 cb 16 bd 66 7a a0 bc e9 55 f3 bd 99 12 13 3d
       -0.036815498 -0.019589614 -0.118816204 0.035906408
000170 e8 0b c7 bc 5a ce 21 bc 13 71 9d bc 98 03 54 be
       -0.02429767 -0.009875858 -0.019218957 -0.20704496
000180 7a 80 93 bd 98 34 7c bd 1f 9e 7d 3d a8 ea 65 bd
       -0.07202239 -0.061573595 0.061918374 -0.05613199
000190 c3 41 14 3c e6 45 09 bd 98 cc b8 bd 84 53 10 be
       0.009048882 -0.033513926 -0.09023398 -0.14094359
0001a0 45 3d 7c bd a8 8b 45 3d c0 8c c2 bc 65 70 71 bd
       -0.06158187 0.04822889 -0.023748755 -0.05894508
0001b0 14 e1 01 3c f0 05 07 bc cd f4 3a bd 04 77 06 3d
       0.007927198 -0.008241162 -0.045643616 0.032828346
0001c0 57 52 4e 3c b6 ce 42 bd 8e 4f 38 3d 8c 4b c1 bc
       0.012592874 -0.047560416 0.044997744 -0.023595594
0001d0 74 2e e6 bd 3d 66 89 3c 31 d0 ab 3c ad 5e e0 bd
       -0.11239329 0.016772384 0.020973297 -0.10955558
0001e0 4e 06 fa bd 03 ad b8 bd 02 15 19 be d5 eb e2 bd
       -0.12208234 -0.09017374 -0.1494942 -0.11080138
0001f0 78 df f3 bd 83 7e 5a 3d 79 87 bd 3c c8 f2 c1 bd
       -0.11907858 0.053343307 0.023135887 -0.09470135
000200 27 5c 27 bc 90 39 44 bc e2 4e 7a 3c e1 99 4d 3d
       -0.010214842 -0.011976615 0.015277596 0.05019558
000210 aa 49 f9 bd 0e d7 9a bd 70 d7 ad 3c 34 b0 aa bd
       -0.121722534 -0.0756055 0.021220893 -0.08334389
000220 dd 00 4f be 58 71 f1 bc 11 ec 83 3b 9f 29 cc 3d
       -0.20215173 -0.029472992 0.004025944 0.09968876
000230 73 83 d1 3c 3f 7b b1 3c b8 59 02 be e9 ef 11 ba
       0.025575375 0.021665214 -0.12729537 -0.00055670604
000240 b8 ea be bc c9 63 b2 bd 22 66 47 bc 45 7f b5 3c
       -0.023305282 -0.08710439 -0.012170346 0.022155413
000250 07 20 e2 3c 3e 8e fe 3c 35 83 99 3c 00 f8 82 bb
       0.027603162 0.031073686 0.018739322 -0.003996849
000260 ba 25 2e bd c0 6d 38 3c 7c e9 a8 bd 90 35 77 bd
       -0.042516448 0.011256635 -0.082476586 -0.060353816
000270 13 b8 b0 bc f9 70 c0 bd 95 d4 2b be 43 f5 88 3d
       -0.021572148 -0.09396548 -0.16780312 0.06687405
000280 56 bb a3 bb b3 7d 62 bd 4e a0 a8 bd 23 de 32 bd
       -0.0049966974 -0.055295657 -0.08233701 -0.043668877
000290 80 84 55 3d 02 ec e0 3b 00 fa 2a be c0 72 b7 bc
       0.052128315 0.006864072 -0.1669693 -0.022393584
0002a0 f7 5d f2 bd b7 a5 8f bd 01 8f 37 be e6 6e 88 bd
       -0.118343286 -0.070140295 -0.17925645 -0.06661777
0002b0 d8 ea ae bd f2 3d ac bd 2b ec 2d 3d ea 58 69 3d
       -0.08540887 -0.08410253 0.042461555 0.05696956
0002c0 55 ec 47 3d b5 86 83 bc e4 46 ab 3c 9c f2 04 be
       0.04880937 -0.016055444 0.020907827 -0.12983173
0002d0 ab 57 83 3c 7a 46 80 bd 91 d9 c7 bd 39 d5 0f bd
       0.016033014 -0.06263442 -0.097582944 -0.035115454
0002e0 90 7b 05 be fb c5 22 bd ed f0 76 bd e4 10 46 3d
       -0.13035417 -0.03973959 -0.06028836 0.048355952
0002f0 bc bf ab 3c ae 6d 03 3b 20 07 46 bd ae 57 7a 3d
       0.02096545 0.0020054388 -0.04834664 0.061118774
000300 2a f3 0b 3c 23 dd a2 bd 3c 76 c3 bd a7 c8 91 3d
       0.008541862 -0.07952335 -0.09544036 0.071183495
000310 5e 8e 0c bc 4a 78 b6 3d e6 be c0 bd f8 66 9f bb
       -0.008578865 0.08909662 -0.09411411 -0.0048645698
000320 37 fc 63 3d 72 cb e6 bd 6d d9 23 be c9 cb da bd
       0.055660453 -0.11269273 -0.1600091 -0.106834
000330 5d 9e 44 3d bb d5 ef bc 0e 67 5d 3d 4c 5c 49 3d
       0.04800259 -0.02927672 0.05405336 0.049160287
000340 df 4e 8e 3d 75 2c e8 bc 39 8a 1d be d0 88 cd bd
       0.06948637 -0.028341511 -0.15384759 -0.100358605
000350 c1 4c b6 bc e2 c5 0f be 98 89 c0 bd 5e 20 a4 bd
       -0.022253396 -0.1404033 -0.09401244 -0.08013986
000360 3d 8d 74 bd bf c5 e6 bd 4d c5 73 3c 75 cd 0e bd
       -0.059705008 -0.11268186 0.014878583 -0.034863908
000370 34 57 ae bd a7 ab bc bd 77 e2 b5 bd a4 d2 e1 bc
       -0.085127264 -0.092124276 -0.08881085 -0.027566262
000380 c8 84 18 3c 52 94 4a be 80 0d 57 bc 6a ba ac bd
       0.009309001 -0.19783142 -0.013125777 -0.08433993
000390 11 56 93 bd 27 40 86 3b 22 3c 94 bd 1b c5 fc bd
       -0.0719415 0.004097003 -0.07238032 -0.123422824
0003a0 14 2b 98 bc 21 55 23 3d e7 97 2d 3d 26 27 f5 3d
       -0.018575229 0.039876107 0.042381193 0.119703576
0003b0 cc 62 2a 3c 54 40 9b bd 13 53 3a 3d 7f 71 6b 3d
       0.010399532 -0.07580629 0.045489382 0.057481285
0003c0 cd 45 e7 3c 84 5a 9b 3d 61 19 4c bd ca b7 f7 bd
       0.028231526 0.07585624 -0.04982889 -0.12095602
0003d0 45 00 f3 bd 1c c3 d3 bd b1 57 12 3c 38 09 d2 bd
       -0.11865286 -0.103399485 0.00893204 -0.102556646
0003e0 c8 f2 46 bd 70 ba fd 3b 6e 29 01 be d8 53 31 3d
       -0.048571378 0.0077431723 -0.1261346 0.04329285
0003f0 a3 10 09 bd 8c cb 98 3c 17 4e 33 bc 19 17 3c bc
       -0.03346313 0.018651746 -0.010943911 -0.011480116

out_net.fc2.bias f4 [128]
000000 95 ad 8d bd 2b 69 dd 3e 12 ef 28 be cc 29 87 bd
       -0.06917874 0.432443 -0.16497448 -0.06599769
000010 bc 8a 0a bd d1 92 55 3e a1 de fa 3e 03 33 cf be
       -0.033823714 0.20856787 0.48997977 -0.40468606
000020 1e 62 d5 3e 54 e0 9e bb 57 2a 6d 3e 00 fa ae bd
       0.4167642 -0.0048485193 0.23160683 -0.085437775
000030 04 c2 d0 bc f8 e1 ad bd 64 78 96 bf 8a 51 6b 3f
       -0.025483139 -0.08490366 -1.175549 0.91921294
000040 5e 63 27 bf 09 ef 05 be 59 db 1f bf ef 93 6f bf
       -0.65386 -0.13079466 -0.6244407 -0.93585104
000050 ee 3a a7 bd 25 3e bc 3d db 65 8d 3f d4 9d 01 be
       -0.08165537 0.09191541 1.1046709 -0.12657863
000060 d1 70 4e bc 79 aa 52 3d 3b f1 a2 3f 04 ec 90 3d
       -0.01260014 0.051432107 1.2729868 0.070762664
000070 1d 66 c3 bd 6b b8 0c 3f ac cf 4e 3d f7 3f 3d 3f
       -0.09540961 0.549689 0.05049102 0.7392573
000080 5c 7a 31 bf a1 0c e2 be aa 00 26 3f cf 3b 49 3f
       -0.6932733 -0.4415026 0.64844763 0.78606886
000090 42 e1 12 bf bb b1 ad be 05 00 83 bf 15 e7 ba 3e
       -0.57374966 -0.3392466 -1.0234381 0.36504427
0000a0 02 67 97 bf 1a 0a 69 be ab 5a d2 3e 8c 6f c3 be
       -1.182831 -0.2275776 0.410848 -0.3817104
0000b0 ac d2 0d be 78 93 47 bf 17 c3 25 3d b0 88 80 3d
       -0.13849896 -0.77959394 0.040469255 0.06276071
0000c0 86 1e f8 be d9 e1 d1 bd 92 ec 93 3b a1 27 2e bf
       -0.48460788 -0.10248155 0.0045142854 -0.6802922
0000d0 22 69 1e be 62 cd ee 3d 14 2f 89 3f 38 96 0b 3c
       -0.15469792 0.116602674 1.0717492 0.008519702
0000e0 1b 58 04 3e dd 24 7d be 2b 38 15 3f 91 84 12 3e
       0.12924235 -0.24721093 0.5828883 0.14308383
0000f0 bf c5 39 bf 8a 53 c2 bd 74 bf 72 bf 70 a2 bc bd
       -0.7256736 -0.0948859 -0.94823384 -0.0921067
000100 3d 9a ec 3c cc 5d 0a be 8a ab a2 be 85 42 86 bd
       0.02888214 -0.13512343 -0.317715 -0.06555656
000110 e3 50 f2 be 82 fd d5 be f0 34 19 bf 1a 66 e2 be
       -0.47327337 -0.41794974 -0.598464 -0.44218522
000120 13 35 b1 be 70 11 04 3d b6 30 46 3f 93 6d 90 3d
       -0.34610805 0.032243192 0.77418077 0.070521496
000130 3e ae a7 bd d8 96 0c bf 69 72 f5 be 16 95 30 bb
       -0.08187531 -0.5491767 -0.4793885 -0.002694433
000140 ce b7 c5 be 28 76 c2 3d ae 65 07 be 6e 55 a2 bf
       -0.38616794 0.09495193 -0.13222381 -1.2682321
000150 6c 7c d3 be 07 61 19 c0 f4 6e fa bf cd ec a5 3d
       -0.41305864 -2.396547 -1.956511 0.08101807
000160 0b ec 77 3f 6a 82 ab 3e 46 26 24 be 84 cd 1b 3e
       0.9684455 0.33497936 -0.16030225 0.15215117
000170 db 6e 34 bf 83 54 72 3f af dd 29 3e a8 63 17 bf
       -0.7048165 0.94660205 0.16588472 -0.5913644
000180 fc 67 a4 be 20 76 65 3e 33 7c b0 3d b1 43 ab 3e
       -0.32110584 0.22408342 0.08617439 0.33450082
000190 55 f9 b2 be 5f 7e 04 3f 23 2d 85 bf 79 fc 3d bd
       -0.3495585 0.51755327 -1.04044 -0.046383355
0001a0 37 4a 2c 3f 82 34 68 bd b9 cd ba 3e 29 35 01 3e
       0.6730074 -0.0566907 0.3648508 0.12617935
0001b0 13 76 00 3f cb bc 79 be 63 6f 26 3f 98 0d 17 3f
       0.50180167 -0.24388425 0.6501371 0.5900512
0001c0 07 b4 9a 3f 71 34 78 bf 59 99 6d be c3 8f a8 be
       1.208619 -0.9695502 -0.23203029 -0.3292218
0001d0 0c f2 68 3f ff 0b 04 3e ac f1 b5 bd 15 59 82 3f
       0.90994334 0.12895201 -0.08883986 1.0183436
0001e0 aa 38 51 3d 46 d5 6b bd 7b 1d 1a bd 6b 0e b1 bd
       0.05107943 -0.05757644 -0.03762577 -0.08645328
0001f0 fc 69 0f be b3 ae cc 3e f5 29 11 3f 75 ac a9 bc
       -0.14005274 0.39977035 0.56704646 -0.020712117

out_net.fc3.weight f4 [64, 128]
000000 a2 e1 92 bd 9f 05 f1 bc 59 0b 72 3e 67 3e f3 3d
       -0.07171942 -0.029421626 0.23637141 0.11877137
000010 71 b7 64 bf 76 4b 8f be cd 29 c6 be ab 59 08 bd
       -0.8934241 -0.2798726 -0.38703766 -0.03328864
000020 c0 93 53 bf 31 1a 81 3b c6 96 f2 be ab 88 20 3e
       -0.82647324 0.00393989 -0.47380656 0.15677135
000030 bb 9c bb bc a8 d1 b5 3e b7 f2 bb be 45 ea 91 3c
       -0.022901883 0.35511518 -0.36708614 0.017811904
000040 05 cd af bd 42 5e 34 be 9e 5a dc be ff 88 d4 3d
       -0.08584026 -0.17614082 -0.43037885 0.103776924
000050 6c 7d 00 be 83 1a 80 3e 73 ed 18 bf 62 c3 53 bd
       -0.12547845 0.25020227 -0.5973732 -0.051700003
000060 47 73 bd bd 98 c8 8b bc 33 d5 59 bf 7b 1e 0c bf
       -0.09250503 -0.017063424 -0.8509094 -0.5473401
000070 51 35 a6 bd e2 0f 11 bf 84 ac 0a bf 9c 66 04 3d
       -0.08115638 -0.5666486 -0.5416949 0.03232442
000080 66 d5 75 be a4 40 98 3c 94 df 0d bd 0e 67 96 be
       -0.24007186 0.01858551 -0.03463705 -0.293755
000090 7f 1d d8 3d 10 e5 26 be b5 29 b1 3e 18 fe 18 3d
       0.10552501 -0.16298318 0.34602132 0.037351698
0000a0 9f 0b 0a bf 19 89 1f bb aa b7 18 bd 96 ba 3b be
       -0.5392398 -0.0024343191 -0.03728453 -0.18332896
0000b0 69 16 92 3d 63 e0 89 3f 07 48 ff bc ab 76 1b bf
       0.07133181 1.0771602 -0.031162275 -0.6072795
0000c0 95 6f 4c be 9b ab 60 be e5 dc 1e bf 28 e0 82 3d
       -0.1996444 -0.21940462 -0.6205581 0.06390411
0000d0 f2 cc d4 3c 36 74 00 be 33 3e 5a 3c 29 0f 3c be
       0.025976632 -0.12544331 0.0133204935 -0.18365158
0000e0 47 15 77 bd aa 56 10 3e 36 b8 d5 bd 1d e4 72 be
       -0.060323026 0.1409556 -0.10435526 -0.23719831
0000f0 98 11 b3 bd 1f fa 36 bd 2a 6b dc bc 2a f1 be bd
       -0.0874359 -0.044672128 -0.026906569 -0.09323342
000100 50 65 b4 be 02 b9 6d be e0 30 a0 be d3 4f e3 be
       -0.35233545 -0.23215106 -0.3128729 -0.4439684
000110 c1 f8 13 3e 29 be d9 3d bb 50 17 bd 1a 80 73 bc
       0.14450361 0.10631973 -0.036942225 -0.014862085
000120 19 72 12 3e ce 2c 49 be 0a c7 43 bd ed 80 b8 3e
       0.14301337 -0.19645998 -0.04779724 0.36035863
000130 ed af 21 3e 8a 0f 39 bd 1e ac e5 3e 77 f6 e7 bd
       0.15789767 -0.045180835 0.44857877 -0.11326306
000140 ed 41 c1 be 95 04 0e be 31 5d b8 3e eb e1 a1 3d
       -0.3774561 -0.13868935 0.360086 0.079044186
000150 2e 28 09 be 27 d5 0c 3f 02 e4 a0 be 73 93 89 3d
       -0.13394234 0.55012745 -0.31423956 0.06717577
000160 14 de d6 bd d9 e8 93 bd 79 d5 f5 bd 2b 25 93 3d
       -0.10491577 -0.072221465 -0.12003607 0.071848236
000170 32 e4 36 be 40 74 35 be 4d d0 f9 bd 87 33 83 bf
       -0.17860487 -0.17720127 -0.12197933 -1.02501
000180 dd 2b 67 be 0b 7a ce be de f3 88 bf 21 23 44 bf
       -0.22575326 -0.40327486 -1.0699422 -0.766161
000190 2c 9a 03 3e fa fa fb be e9 85 04 be d1 5c 48 bd
       0.1285178 -0.49214917 -0.12941708 -0.04891664
0001a0 82 2f 86 be eb cd 08 be e5 70 16 be fd d2 dd 3e
       -0.2620812 -0.13359801 -0.14691503 0.43325034
0001b0 f6 de 27 bf b2 29 ec be 3c f2 04 be ca a0 08 be
       -0.65574586 -0.4612556 -0.1298303 -0.13342586
0001c0 19 b6 59 bb 64 2b 20 bd 06 d5 4b 3e 16 07 89 3e
       -0.003322011 -0.03910388 0.1990548 0.2676322
0001d0 87 99 c3 be 68 77 cd bd e4 ef 30 3e 99 41 a4 be
       -0.3820307 -0.100325406 0.17279011 -0.32081297
0001e0 99 c3 0e 3e e4 13 97 bd 90 fa 16 3d 93 f0 14 3d
       0.13941802 -0.07376841 0.03686005 0.036362242
0001f0 7f 17 26 3e c8 c7 b4 bd 21 3c 3c bc 0b 47 b5 bd
       0.162199 -0.08827168 -0.011488945 -0.08851441
000200 1c 83 59 3d 8c d5 0d be b2 f4 bc 3d d6 67 80 3b
       0.05310355 -0.13850993 0.092263594 0.003918628
000210 b5 6f e3 3e 56 65 9a bc 09 95 10 be 3d db 14 3e
       0.44421163 -0.018847149 -0.14119352 0.14536758
000220 60 16 b6 3d 11 d1 2f bd 9d 90 76 be 36 8f 50 3e
       0.088909864 -0.04292399 -0.24078603 0.2036713
000230 56 a8 77 bb 4c 1f 03 be 67 3c 47 bf 24 74 59 3d
       -0.0037789545 -0.12804908 -0.7782654 0.053089276
000240 16 84 62 bf 8a 07 33 be 5e 47 44 bd 63 00 6e bc
       -0.884828 -0.17483345 -0.047919624 -0.014526459
000250 32 43 1b bd 3b fd ed 3e 81 f5 6b be c0 a5 e0 3d
       -0.03790588 0.46482262 -0.23042871 0.10969114
000260 c4 20 c8 3c 49 70 b5 be 20 aa 42 bd d8 62 e8 be
       0.024429686 -0.3543723 -0.047525525 -0.45387912
000270 bd 65 b0 be 4d d9 d5 be 67 95 10 3e 18 84 ab be
       -0.3445262 -0.4176735 0.14119492 -0.33499217
000280 ed 85 01 be eb 6d 65 be 4b e1 2f 3e ed de 94 bf
       -0.12648745 -0.22405212 0.17175786 -1.1630532
000290 8c d3 87 3c 19 a6 5c be 51 55 25 3e f1 91 84 be
       0.016580366 -0.21547736 0.16145827 -0.25892594
0002a0 70 28 25 bf e3 fc d6 3e 88 a2 1f bd a7 e6 88 be
       -0.6451483 0.41989812 -0.03897336 -0.26738474
0002b0 6e 04 09 3e d6 f5 84 3f f1 fb bc bc c5 4f c3 bd
       0.13380596 1.0387523 -0.023069354 -0.09536699
0002c0 a6 62 a3 bc 72 5e da bd 35 4a df bd d4 a2 f5 be
       -0.0199445 -0.10662545 -0.10902826 -0.4797579
0002d0 5b 46 49 bc 46 6e b6 ba a4 89 45 be bf 20 e2 bc
       -0.01228484 -0.0013918362 -0.19290787 -0.027603505
0002e0 31 d8 61 3c 72 95 d6 bc 93 05 61 3e 25 5e b2 3d
       0.013784454 -0.026194308 0.21974783 0.08709363
0002f0 27 30 bb 3d 62 c5 6d bd 0c 7a 99 bd 33 7c 26 be
       0.09140044 -0.058049567 -0.07493982 -0.16258316
000300 49 13 4f be a5 5e 6e 3e 35 d4 bf 3a 84 cd 39 be
       -0.202222 0.23278292 0.0014635386 -0.18144804
000310 0c b4 4a 3e 60 46 0e be 60 2b 48 bd d1 c8 33 3e
       0.19795245 -0.13894033 -0.04886949 0.17557074
000320 92 12 9a 3d d6 ac 5c be 80 69 c3 bc 76 13 fc 3d
       0.07523073 -0.21550307 -0.023854017 0.123083994
000330 c0 37 be 3d d6 1b 48 bd ac 31 0f bc ca 81 be 3d
       0.09287977 -0.04885467 -0.00873987 0.09302099
000340 1a ce 8e 3e 2c 9f 8c 3e ac 66 8b 3e f3 7e a5 bd
       0.27891618 0.27465189 0.2722677 -0.08080854
000350 28 a1 0e 3d bd 74 f0 bd 10 cc 31 bf a2 bb c1 be
       0.03482166 -0.11741016 -0.69452 -0.37838465
000360 63 c6 27 3e a1 4a d3 be ea e6 a8 bd 34 11 40 bf
       0.16384272 -0.41267875 -0.08247168 -0.7502625
000370 75 c4 53 3d 6c 68 12 3e 4e 2e fa be cf 1f 1f 3e
       0.051701028 0.14297646 -0.48863453 0.15539478
000380 f0 a2 ed 3d 44 b1 29 3e ec aa a0 3d 87 b0 a4 be
       0.116033435 0.16571528 0.07845101 -0.3216593
000390 b5 71 6b bd 42 9f 46 3e 9a 2e 27 bf 64 03 c5 39
       -0.057481486 0.1939669 -0.65305483 0.00037577294
0003a0 fb cc 44 3c e2 27 b7 bc 12 3a 16 bf e7 bf 50 3e
       0.012011762 -0.022357885 -0.5868236 0.20385705
0003b0 87 78 b7 3e c7 4c 1d be 0f 28 fb be a8 33 81 bd
       0.35834143 -0.1536132 -0.49054 -0.06308681
0003c0 50 3d 06 be 5c ce 81 3d 45 0c 61 3e 06 51 58 3e
       -0.13109326 0.06338188 0.21977337 0.21124658
0003d0 f6 c6 cf 3d 8f 59 0e 3d 67 22 0e bf b3 a4 a3 be
       0.10145371 0.03475338 -0.55521244 -0.31961593
0003e0 1a 74 66 be d4 ce 03 3e 14 d7 37 3b 1b 6d 17 3d
       -0.22505227 0.12871867 0.002805178 0.036969285
0003f0 4b 80 77 3e 9d 3e 42 be 90 a6 85 be 94 f2 34 3e
       0.24170034 -0.18969198 -0.2610364 0.17670661

out_net.fc3.bias f4 [64]
000000 90 19 d1 3e a9 bf 26 3f 4d c7 14 3f c4 b0 cd be
       0.40839815 0.651362 0.5811661 -0.40173924
000010 0a f8 d5 be 07 b8 11 3f c7 7f 49 bf 01 48 3b bf
       -0.417908 0.5692143 -0.787106 -0.73156744
000020 e1 ba 02 bf 85 c1 da bd ad ca 88 3e 74 3b 2f bf
       -0.51066405 -0.10681442 0.2671713 -0.68450093
000030 ea 7d 81 3f 02 b4 62 bf f0 90 33 bf 02 e6 76 3f
       1.0116551 -0.8855592 -0.7014303 0.96444714
000040 fd 5e 3f 3f 42 12 de 3e b9 5e 87 3f a4 d9 18 bf
       0.74754316 0.43373305 1.0575782 -0.59707093
000050 77 63 dc be 64 e5 d7 be e9 9a 9c be 75 c1 8e bf
       -0.43044636 -0.421672 -0.30586937 -1.1152788
000060 61 32 31 3f 50 79 3b bf 42 dc 84 3f e4 71 05 3e
       0.692175 -0.73231983 1.0379717 0.13031727
000070 b3 21 bb 3f d6 78 c5 3e 9b ff 18 3f e6 88 2e bf
       1.4619659 0.38568753 0.59765023 -0.6817764
000080 bf 1f 44 bf ad 11 10 bf 83 6a 6f 3f 35 46 61 be
       -0.7661094 -0.5627697 0.935219 -0.21999438
000090 cf 7e 0b 3f 16 38 32 3e 86 7d a3 bf 24 09 a3 3f
       0.5449037 0.17404208 -1.2772682 1.2737164
0000a0 92 73 1f bd fa c7 2d 3e 37 1c ea 3e 35 fc 74 bf
       -0.038928576 0.16970816 0.4572465 -0.9569734
0000b0 24 99 d1 bf d4 87 05 be b7 5a 09 bf 1e 49 fc 3e
       -1.637486 -0.13040096 -0.53654045 0.49274534
0000c0 e7 9d 37 3f 1e 2c 31 bc 93 7d 7d 3f 48 b2 95 3f
       0.71725315 -0.010813741 0.99019736 1.1695032
0000d0 fb 9f 94 3f 67 46 62 3f 92 43 25 bf b0 04 22 bf
       1.1611322 0.88388675 -0.6455623 -0.632884
0000e0 31 ec 59 bf 54 66 c1 bc 97 77 34 bf 07 ca 9e 3e
       -0.85126024 -0.023608364 -0.7049498 0.3101351
0000f0 64 99 ab bf 62 c9 a4 be ba 80 c1 be 85 c3 4e be
       -1.3406186 -0.32184893 -0.37793523 -0.20191772

out_net.fc4.weight f4 [1, 64]
000000 78 54 1d bd c1 bd 3d bc 05 e1 6c bc e1 26 54 3d
       -0.038410634 -0.011580885 -0.014457946 0.05179489
000010 7a 53 b1 3c 18 04 04 3d d3 85 81 bc f3 f5 6f bc
       0.02164625 0.032230467 -0.015810883 -0.014646041
000020 21 62 55 3c c2 94 0f bd de 24 97 bc 33 d7 f0 3c
       0.013023884 -0.035053976 -0.018450197 0.02939949
000030 3c 69 b8 bc 69 2a 84 bc 52 a8 a2 bc 6d 49 47 bc
       -0.022511117 -0.016133504 -0.019855652 -0.012163502
000040 e9 56 ce 3c d6 f9 34 3c 24 bc 0d 3c 39 9d 9e bc
       0.025187926 0.011045894 0.008650813 -0.019362079
000050 6e 2f 26 3d b8 17 08 bd 8e 6a d8 bc da 58 b4 3c
       0.040572576 -0.033225745 -0.026417997 0.022015024
000060 61 51 86 bc e9 06 11 bd ce 9d 33 3c 5a c7 18 bd
       -0.016396226 -0.03540698 0.010962917 -0.03729949
000070 d6 f8 66 3c 3b 81 cf 3c b8 c0 8d 3c 71 fe 2b bd
       0.014097413 0.025330177 0.01730381 -0.0419907
000080 b4 b1 67 3c c1 93 ca bc 9b 7c 89 bc a4 6d 8b bc
       0.014141489 -0.024728658 -0.01678305 -0.017020054
000090 50 bf 9c bc 6e 84 bc 3c bb 62 01 3d f4 7f a5 bc
       -0.019134194 0.023012366 0.031588297 -0.020202614
0000a0 80 1e b9 3c c1 9d 77 bd cf 81 08 3d 4b 6f e5 bc
       0.022597551 -0.06045318 0.03332692 -0.02800717
0000b0 99 8f cb 3c 0a d6 df 3c 1e dd f5 bb 8a 0c 68 bc
       0.024848746 0.027323741 -0.007503166 -0.014163146
0000c0 be bf bd bc 31 b8 a6 bc 89 70 bb bc a8 e7 91 3c
       -0.023162719 -0.020351501 -0.02288081 0.017810658
0000d0 62 54 ba 3c 4e e3 d0 bc bc 8f f2 bc 4f fd 6f bd
       0.022745315 -0.025499012 -0.029609554 -0.058591183
0000e0 a3 cc 06 bd 7b a9 8a 3d 6c 9d 38 bd c2 fc 6d 3c
       -0.03291 0.06770607 -0.045072004 0.014525594
0000f0 b9 bd 35 bd b9 79 28 3d 78 07 c7 3b 96 39 a8 bc
       -0.044370387 0.04113171 0.0060738884 -0.020535272
