scores/checkpoint_actor.pth (torch, 193791 bytes, 8 tensors)

net.fc1.weight f4 [256, 24]
00000000: 519c b3bd d6ae 963d ea95 91bc 5624 6c3d
00000010: 8df7 91bc 0b3b 353e 285f 873d ef32 48bb
00000020: 14dd 503b 4b8a 613d bcd7 6abd eaa5 7bbd
00000030: 0370 f8bc 9171 753d d713 383d 156f e4bc
00000040: 60fd 85bd aa31 8e38 8b52 6c3d 2b32 5abd
00000050: d9e7 3e3d a964 5d3b 62c4 b63a d1ed 41bd
00000060: 7c62 01bc 5f65 babd 0c74 643d 8e26 acbc
00000070: fab8 903c 33de 92be a404 73bb ec14 86bd
00000080: 3b74 06bd 9083 783b d321 1dbc 4f19 90bc
00000090: 6369 8fbc 1b78 c4be bf0b 4e3d 0907 00bd
000000a0: 1a3e 0f3c ae1b b4bd fcd2 20bd 572b b1bb
000000b0: 89d3 f5bd fd40 92be 6086 17bd b55e 633d
000000c0: 4918 f1bb ab8b 743d 1591 853d 9d8b e6bd
000000d0: d474 1d3b b0dc 54bd b7e2 8f3d 1bde 9cbd
000000e0: cd13 2bbb 2940 ae3b 2ead 843b c091 f9bd
000000f0: 8fb2 7d3d bc82 44bd 04c4 00bd 5429 0cbe
00000100: 9a41 1b3d ea5c b73d 9965 33bd 5a1c b9bd
00000110: f82b 0b3c 5ec9 b9bc 946a 8739 479c efbd
00000120: c83e 0d3b e674 60bc 7d51 8c3c 6d7e 9a3d
00000130: 3ea1 db3b ad1d 9d3d b00a bcbc 8f8b 1c3c
00000140: 09c0 f0bc 2b2c 76bd 4c8d d93c 24ed 943d
00000150: 049a 0fbc 6506 77bd 2818 a1bc 71d9 f1bc
00000160: 9e2d ccbd d9ae b3bd 0db3 823c 282b c5bb
00000170: 5cdb 203d 6917 efbd 1f01 533d b0cc 8b3d
00000180: bc3e c8bc 447d 6cbd a368 8b3d 547b 3c3d
00000190: 58fd b6bd 5030 79bd c2c3 ac3d 5432 9d3c
000001a0: b862 313d b2fc 073d 5c16 26bd c20b 803d
000001b0: 4da2 11bd a968 a3bc 3433 d7bc 6dd9 ab3d
000001c0: 0288 d5ba 58ac 10bd 6de6 aebb c809 ad3d
000001d0: 3608 45bd b127 93bd 8bba f8bc 206f fd3d
000001e0: babb 673d cc0f 433c 2415 17bd 11cd 9e3d
000001f0: 2f4c ecb9 03e7 87bc 80b3 1fbd 8809 0c3d
00000200: 3523 1f3d b0fd ddbc 4bd5 ce3c 54b1 5bbc
00000210: e823 953d 2dfe 113d 0858 12bc 46c0 1bbd
00000220: 396b cfbc 9d64 f7bc 34e7 973d 24f9 713d
00000230: 8fb3 c93d f997 143e a2a8 bf3c 9553 a33c
00000240: 330d c8bd ecf5 e4bc 890d ea3c f4e0 9bbd
00000250: 1672 4a3c 57fe 19be 6b84 973c e08e 95bc
00000260: ebad 75bd 896c 5d3b 1c9b 9bbd 07b0 21bd
00000270: 7f04 58bd eb04 93be 6df0 d13c e7ae dc3b
00000280: 8e42 86bd 5b08 72bd b848 513d db31 5f3d
00000290: 8396 19be 2c7b 96be db02 373c a2bd d73c
000002a0: 7b1f 45bd 3fad 96bb 35c0 a93b 1599 c23c
000002b0: 42e9 5d3e d320 f7b9 3530 f9b9 295c 3a3c
000002c0: 3217 17bc d877 a43d bc30 843c 545b 283b
000002d0: 3d82 1a3e 28f2 3f3d b280 87bc 111d 79bc
000002e0: a3a7 d9bd 6469 113d 207f 353d 4d94 89bd
000002f0: af53 103e dbfd ee3d 64a2 dcbc 026c 91ba
00000300: e13e 7abd f371 e93c 1122 153d 94c6 18bd
00000310: 9fa4 e8bc 1e17 1fbd 1fda 74bc 6e1f 403d
00000320: f017 6cbb 212a 6abc 3a1e 9c3c dad8 423d
00000330: 5463 8f3d d2e7 aa3c 483a 923c 2313 b03d
00000340: 870c 83ba 92a1 843d 96a3 013d b2fd bd3d
00000350: cadb 893d 4717 a33d 6e55 7b3d 20d9 a23d
00000360: 1e43 d8bd cc45 063c 6e56 aa3c 7da9 8d3d
00000370: cefe 1a3d 2cca 00bc 414f 61bd 1235 e33d
00000380: c3ce 243c a14f 8cbd a6b0 e13c 614c 8d3c
00000390: 7148 0cbb ed8c 1d3d 42c8 f73c 42d3 a93d
000003a0: a701 94bd 68cd 313d 1877 003d f3f3 123d
000003b0: 1297 36bd 4def 573e 1e15 a03d 4619 babc
000003c0: b663 90bd b720 8cbc 8bfe d8bc fb8f 61bd
000003d0: 8d80 b2bc 47ce f63d 49a4 b7bc 155b 34bd
000003e0: 9c82 b8bb c33e 82bd 5522 44bd ab65 d1bb
000003f0: f8cd 84bd 06aa 4e3e 6b94 023c 466a 4fbd
-0.08770049 0.07357566 -0.01777168 0.05765184 -0.017818237 0.17698304 0.066099465 -0.0030547937
0.0031870054 0.055063527 -0.057334647 -0.061437525 -0.030326849 0.05992276 0.044940796 -0.027885
-0.06542468 6.780338e-05 0.057695907 -0.0532705 0.046607826 0.0033781922 0.0013944025 -0.04734594
-0.007897016 -0.09101366 0.055774733 -0.021014478 0.017666329 -0.2868515 -0.0037081623 -0.06546959
-0.03282569 0.0037920214 -0.009590584 -0.017590193 -0.017506307 -0.38372883 0.05030417 -0.03125671
0.0087428335 -0.08794342 -0.03926371 -0.005406778 -0.12003238 -0.28565207 -0.036993384 0.05551024
-0.0073576313 0.05970351 0.06521813 -0.11257098 0.0024025934 -0.051968277 0.07025664 -0.07659551
-0.0026104331 0.005317707 0.004048965 -0.12186003 0.061937865 -0.04797624 -0.031436935 -0.1368764
0.03790436 0.08953269 -0.043798063 -0.09038611 0.00849437 -0.022679027 0.00025828613 -0.116997294
0.0021552313 -0.013699746 0.0171287 0.07543645 0.006702571 0.07671676 -0.022954315 0.009554758
-0.029388444 -0.060100716 0.026556633 0.072717935 -0.0087647475 -0.060308833 -0.019664839 -0.02952263
-0.09969638 -0.08773584 0.015954519 -0.0060171075 0.039271697 -0.11674387 0.05151474 0.068261504
-0.024443977 -0.05773665 0.06807067 0.046016052 -0.0893504 -0.06083709 0.08435775 0.019189037
0.043307036 0.033199973 -0.040548667 0.062522426 -0.035555173 -0.019947367 -0.026269533 0.0839108
-0.0016291144 -0.03532061 -0.0053375275 0.08449131 -0.048103534 -0.07185305 -0.030362388 0.12374711
0.056575514 0.011905622 -0.036885396 0.07753957 -0.0004507019 -0.016589647 -0.038989544 0.034188777
0.038851935 -0.027098507 0.02524819 -0.013408978 0.07282239 0.03564279 -0.008932121 -0.038025163
-0.025319682 -0.030199343 0.07417145 0.05907549 0.09848701 0.14511098 0.02339584 0.019937316
-0.097681426 -0.027949296 0.028570907 -0.07611266 0.012356302 -0.15038429 0.018495759 -0.018256605
-0.059980314 0.0033786616 -0.07597944 -0.039474513 -0.052738663 -0.2871469 0.02562734 0.006734717
-0.06555663 -0.05909 0.05109474 0.054490905 -0.14998822 -0.29390848 0.011170114 0.026335541
-0.048125725 -0.0045982893 0.0051803836 0.023754636 0.21671012 -0.00047135967 -0.00047528898 0.011374512
-0.009221839 0.08030671 0.01613652 0.0025689201 0.15088744 0.046861798 -0.016540859 -0.015204684
-0.10627677 0.0355009 0.04431069 -0.06717739 0.14094423 0.11669513 -0.026932903 -0.0011094811
-0.061095122 0.028496718 0.03640944 -0.037298754 -0.02839881 -0.038840406 -0.014944582 0.046904974
-0.003602501 -0.014292271 0.019057382 0.047570087 0.07001367 0.020862494 0.017850056 0.085974
-0.000999824 0.064761296 0.03165015 0.09276904 0.067313746 0.07963424 0.06136077 0.079515696
-0.105596766 0.008195352 0.020793166 0.06917093 0.037840657 -0.0078607015 -0.055007223 0.11094107
0.010059061 -0.068511255 0.027550053 0.017248334 -0.0021405483 0.038464475 0.030246858 0.08292247
-0.07226878 0.04340878 0.031363577 0.03587718 -0.044577666 0.2108738 0.07816528 -0.02271713
-0.07050268 -0.017105443 -0.026488563 -0.05506895 -0.021789813 0.12051063 -0.022417204 -0.044032175
-0.005630804 -0.06359627 -0.047884304 -0.0063902936 -0.06484598 0.20182046 0.007969956 -0.05063846

net.fc1.bias f4 [256]
00000000: 47ce 213e 7092 98bd f852 ca3b 8c77 19be
00000010: 5986 f63d 0946 253e 4cd5 19be cacb c23c
00000020: ba35 5bbe a528 25be bcb1 263e fd61 903d
00000030: c6ae 973c 8f62 173d 3fa8 0dbe 001a 003e
00000040: a7b0 913d 76bb e93c 7107 b0b9 77f0 54be
00000050: 1d3a 42bd e46e adbc 5272 f8bd a96c c83d
00000060: 573e b83d d718 0cbe 0980 bfbd 2d51 ea39
00000070: f527 1e3e 70e3 c2bc eb9f 48be 64f9 49bc
00000080: c86a b53d 2c28 f33d e9de d03d efc8 84bb
00000090: 7033 3cbc bd05 3b3e 006c 1dbc c0f6 d33d
000000a0: c561 443e b529 63bc e7ff f93d c68e 163e
000000b0: ee8a 613b 549e 8bbd e61b 06be 4a5e 6cbd
000000c0: f54c 1f3d 0a47 593c 333f 4fbc 3874 ef3d
000000d0: be5f f33d 3ffb 18bd 1bb8 77bd 0292 6e3a
000000e0: f58e d33c 63bb 5ebe a3c6 e93d fcf3 463e
000000f0: 2458 2f3e b6ce 583d eca4 363e 1c96 e7bd
00000100: d0c8 bc3d 2c4d c3bd f2fa 17be 23da 09be
00000110: 24cc 9e3d 679b 4dbe 1d6b 2d3e fba4 9fbd
00000120: 71d0 633e 2f35 d4bd 1bfa d13d 8b10 693e
00000130: a048 603e 21ac 1abe a3b5 203e 653a 4c3d
00000140: 9904 1f3e 96a4 353d 1cdf 14be d757 36bb
00000150: e3b1 953d 984e 303e b371 3f3d 3875 4fbd
00000160: a0b3 af3d 87ba 1cbe fd79 e9bd 9539 e73d
00000170: 5d26 203e 06f8 1cbd 29c7 cc3c 7c8d f93c
00000180: 5e3b dcbd 8f5a 1fbe 5c5f 413e fadf 15be
00000190: 9061 55bd 49b2 0d3d 777d a83d c95e 503d
000001a0: 53a0 ecbc b8e0 913d 7bf4 c5bd c999 513d
000001b0: 6032 1e3e c737 a83d 523b bbbd a18d b03d
000001c0: a34b b23d a910 51be 4666 cf3d 01b3 5dbe
000001d0: e8aa 2d3e 7025 3e3d 01ce c93d a113 a7bc
000001e0: be6e 663e f3cd 3fbe c413 db3b 88eb 87bc
000001f0: 67b1 8cbd ce43 11be 469d ed3d 5043 ebbd
00000200: d03e 453e c382 efbd b42b 073e 90e1 5f3e
00000210: 43e0 1dbe b2c1 1bbe 6752 2dbe 4199 53be
00000220: d3b8 463d 26c5 463e 907c 02bd 3b92 80bb
00000230: 8eb2 003e 7b74 2e3e da56 0e3d e075 36bd
00000240: f31d 103e 5b2b e63d 688a f8bd a992 78be
00000250: 4728 aabb e446 813e 06d0 cab9 b7d8 b53b
00000260: 51cb 6b3d be47 14bc 5251 543e 08e2 443b
00000270: 4072 3bbe 64ac 123e 30f3 753c 9bb6 613e
00000280: 5620 013e c688 22bd bd7c bebd a51c 973d
00000290: 4aa9 12be d7bf db3c f103 273e af6a 3dbd
000002a0: bc19 3c3e ebd8 18be a7e4 153d 277c f03d
000002b0: b99d 2f3c b989 f13d e103 12be 7036 16be
000002c0: 9e10 c73c 45c4 5b3e 49bc f43c 2097 3cbd
000002d0: b990 e8bb 14b5 3e3e 81d0 283e 9702 873b
000002e0: 3978 16be c37f 383e c010 583d 83cb 063e
000002f0: 0ad3 3dbe e085 943d 0b8b 24be aab4 9c3d
00000300: 3c65 9cbd 3858 1fbe 9f4f d5ba 37db 62bc
00000310: 5b95 c33c b333 b73d 9d55 debd 9444 3ebd
00000320: 2401 af3c 45c0 d2bc 30e9 1cbe 0de4 003e
00000330: ad92 343c c990 013e ac98 4c3e 59f4 383e
00000340: 1be3 81bd 3338 283e 177f 823d ed95 c93b
00000350: 6f77 fdbb d271 163d 2475 ca3c 76be 50bd
00000360: 853d e83d 1e88 cdbd 6366 313c 9e24 793d
00000370: eb9b 59bd 33f5 0c3e 99ec 15be ba0b e23d
00000380: a3a5 2dbe f345 b8bd 639d 19bd 1c42 a3bd
00000390: 423d 873b 1cd3 abbd c6d4 bd3d 6587 e63d
000003a0: 049e 053d dbcf 493e 2e36 ea3d 1b70 0a3e
000003b0: 5cb0 99bd 4e2c 67bd 3684 f93d 725f 143d
000003c0: 12f4 783c afe3 313c cd32 dbbd 453d d5bd
000003d0: 583d f5bc eb0b ca3d a87e 77bd 162f eb3d
000003e0: 4688 fb3d fcd3 b6bd 16ce 31be 5c49 26be
000003f0: 19ee 193e a8a6 143e de5e 09be cb96 bbbd
0.15801345 -0.07449806 0.0061744414 -0.1498701 0.120373435 0.16139998 -0.15022773 0.023778815
-0.21407214 -0.16128786 0.16278738 0.0704994 0.018515956 0.036959227 -0.13833712 0.12509918
0.07113772 0.028531771 -0.0003357488 -0.20794855 -0.047418702 -0.02117104 -0.1213118 0.0978635
0.089962654 -0.1368135 -0.09350593 0.0004469244 0.1544493 -0.023790091 -0.19592254 -0.012327526
0.088582575 0.118728966 0.10198767 -0.0040522735 -0.011486873 0.18263908 -0.009608269 0.10349798
0.19177921 -0.013864924 0.122070126 0.14702901 0.0034415084 -0.06817308 -0.1309658 -0.05770711
0.03889175 0.013261566 -0.012649345 0.11692089 0.11883496 -0.037348982 -0.06047831 0.00091007364
0.025825003 -0.2175117 0.1141484 0.1942901 0.17123467 0.05293151 0.1783635 -0.11307928
0.092179894 -0.09536204 -0.14841822 -0.13462119 0.077537805 -0.20078813 0.16935392 -0.077951394
0.22247483 -0.103617065 0.10252782 0.22760217 0.21902704 -0.15104724 0.15694289 0.049860377
0.15529098 0.044346415 -0.14538234 -0.0027823353 0.0730932 0.17217481 0.04673929 -0.050648898
0.085791826 -0.1530553 -0.114002205 0.1129028 0.15639634 -0.03832247 0.02499731 0.030462973
-0.10753511 -0.15561889 0.18884033 -0.14636222 -0.052094996 0.034593854 0.082270555 0.050871644
-0.028885042 0.0712294 -0.096657716 0.05117205 0.15448904 0.08213764 -0.09142174 0.086207636
0.08705833 -0.20416512 0.10126929 -0.21650316 0.16959727 0.046422422 0.09853745 -0.020395102
0.22503182 -0.18730907 0.006685706 -0.016591802 -0.06869774 -0.14186022 0.11602263 -0.11487448
0.19262242 -0.11694863 0.13200265 0.21863389 -0.1541758 -0.15210608 -0.16925965 -0.2066393
0.048516106 0.19411144 -0.031857073 -0.003923682 0.12568113 0.17036621 0.034750797 -0.044546008
0.14073925 0.11238738 -0.12135774 -0.24274696 -0.0051927897 0.25249398 -0.00038683432 0.005549516
0.057566945 -0.009050308 0.20734146 0.0030041952 -0.18305302 0.14323574 0.015011594 0.22042315
0.12609991 -0.03968122 -0.09301136 0.073785104 -0.14322391 0.026824875 0.16310097 -0.04624432
0.18369192 -0.14926498 0.036595013 0.1174243 0.010718756 0.11793847 -0.14259292 -0.14669204
0.024299916 0.2146159 0.029874938 -0.04604256 -0.0070973304 0.18623763 0.16485788 0.004120182
-0.14694299 0.18017487 0.05275035 0.13163571 -0.18537536 0.07252097 -0.16068666 0.076516464
-0.076364964 -0.15560997 -0.0016274339 -0.01384621 0.02387493 0.08945408 -0.10856173 -0.04645212
0.021362849 -0.025726447 -0.15323329 0.12586994 0.011021298 0.12652887 0.19980115 0.18061961
-0.06342145 0.16427688 0.06371897 0.0061519057 -0.007735185 0.03672964 0.02471406 -0.050962888
0.11339859 -0.10035728 0.010827634 0.060825936 -0.05312721 0.13765411 -0.14641036 0.11037393
-0.16957717 -0.08997717 -0.03750361 -0.07971594 0.0041271755 -0.08389875 0.09269099 0.11256293
0.0326214 0.19708197 0.11436115 0.13519327 -0.07504341 -0.056438737 0.1218342 0.036223836
0.01519491 0.010857507 -0.10703049 -0.10412077 -0.029936478 0.098655544 -0.060423523 0.1148359
0.122818515 -0.089271516 -0.17363772 -0.16238922 0.15032233 0.145167 -0.13415095 -0.09159621

net.fc2.weight f4 [128, 256]
00000000: e87c 3d3d 19a6 f53d 24f7 7b3d 59dc 10bd
00000010: ab2b db3d e790 dcbd d1e8 4e3c 6339 34be
00000020: 1195 023d ec63 8ab9 94e0 36be a614 68bd
00000030: 1bdc eabd 5b3d 91bc 5f71 83bd b9dc 963d
00000040: 1863 febd f71f cf3c bc8a 6b3c 6965 58bd
00000050: acee 093d cda7 ee3d 0c13 8bbe 24d6 223d
00000060: 1646 d0bd 3964 823b 8f63 c6bd c51b 7bbd
00000070: 29ab 723d c93e 57bd 93f3 8abd 0625 bb3d
00000080: 07ab 383d 3c5d 1dbe adea 92bc 20e2 cb3d
00000090: e4a0 d43c 8990 063e 9c82 dfbd afa5 a7bc
000000a0: 24e6 cf3d ba80 bbbb fad7 afbd 56e0 d7bd
000000b0: 33c9 1f3d 00e6 b43d fe5f 96bd 447c 073d
000000c0: 8427 17bc ed6b c13c 2b85 b1bc 2d78 d1bd
000000d0: 8962 21bc 71eb 40be 614b 653d 7b40 0f3d
000000e0: 227b 1a3b bee2 6c3d b6af 083d 2fd2 30bd
000000f0: d2bd 95bd 96ed b83d 321f 983d ee94 ee3d
00000100: 13fb 4dbd af9c babd 7cdc c73b f70a 503d
00000110: 3986 a8bc 6edf a6bc 1a8c 103d 72ee 81bd
00000120: 34bd 813d 8325 88bd 76aa 9c3d 68d4 043d
00000130: a2f5 cbbd b6ac 933c 3b3b 4e3d b5e3 bbbb
00000140: f5b3 12bd ba01 81bd a00d ab3d 6074 2c3d
00000150: 77b6 d73b eae0 cdbc 2c7b f73c fdb7 b8bc
00000160: d460 03bc 373c 703d 438f 343d 3b66 b1bd
00000170: 226b e73d d090 ffbd b12d 55bb fa1f 923d
00000180: 790e c03c 9ac4 72be 727e 6e3d cdf4 453d
00000190: d716 943c b3d1 153e acbd 3a3d 182a 32bc
000001a0: 4918 4d3d ccd3 c53d 3909 823d a29b a4bc
000001b0: 1dea ddbd 21e8 31bd 43e8 e1bd 0295 fabd
000001c0: 7b5d dc3d fed4 8e3d e353 323d e454 943d
000001d0: c62b b73c 87fe 95bd e1a8 85be d641 55bd
000001e0: c2fb 4dbe 2fcf b73d 0ee5 75bd 4d0d 1fbd
000001f0: f8d7 1fbd 6079 90bd d88b 503d 149d 29be
00000200: cbfd 803d 12e6 343d 95a8 0dbe e177 a43d
00000210: a5a4 f73c 12ab 7c3c 5b2a ae3d 17d3 8f3c
00000220: 9990 9c3d 2211 ea3c b420 c13d 08f4 1c3d
00000230: ad07 b93d 2b29 e63c d6e2 bd3d f1cc 5ebe
00000240: abc0 55bd 3b55 233d 49e8 73bd 2556 923c
00000250: 5129 c2bd ae09 20be ebb7 2fbc 75d5 8fbc
00000260: 980b 01bd fe27 a4bc 37fd b3bd 5391 2b3d
00000270: 8235 e33b d841 9bbd 564b 10be b8c8 b6bd
00000280: 3955 b0bb 8032 083d 0c89 c1bd 7986 e8bd
00000290: 3dd2 28bc 451d 5dbd edcd 993d 2eff 693d
000002a0: b0b3 58bd 4c29 77bc bfb4 b63d 3119 333d
000002b0: eb1b 17be 3d16 a3bd d5ae 723d 8e41 d43c
000002c0: 1780 85bd f36e 82bd 5021 56bd 5124 f8bc
000002d0: e94d 823c 32e3 963c bf25 233d db40 273d
000002e0: f8eb 8e3d d5ff b23d fbfa 95bd ab3b 963d
000002f0: 056f 23bc ec38 153d 9b02 b93c c14c 2bbb
00000300: 04d2 9f3c d9ff 0abe ecc9 173d cd01 d6bc
00000310: ff4d 5dbd f9f8 92bd f9bb 933d 82fe dfbc
00000320: 10f1 2d3c 79be 8fbd 605e 5f3d b472 a03d
00000330: ed53 5fbe 84f8 313d e779 20bc f92c d2bd
00000340: 611d 02be 5353 e23d ac88 b53c 3dd2 27be
00000350: 6e76 64ba b700 813d bf27 273d c477 4a3c
00000360: b6ab e7ba 2afd 333d 58c9 b93c 0f8f d03d
00000370: b670 f0bc 42d2 3e3d 0fb9 a33c df3d 69bd
00000380: 101b ed3b 7f93 4e3d 0b3c 90bd 5488 183d
00000390: e805 4d3d 1e5d f23c f523 ee3d 2de2 ee3c
000003a0: 6036 3a3c 6871 1c3d d3a6 82bd b477 343d
000003b0: 8226 d4bd 356a 2b3d 5b51 9cbd 463d 90bd
000003c0: 8699 d03c b04b f9bd 3988 e13d f69b feba
000003d0: c42b 573d f5f5 593d d9ba 90bc 920e b3bd
000003e0: 37cb 03bd 4f18 06bd d59b be3d 6e09 473d
000003f0: 6924 74bd c901 783d fdd6 bf3c 4a6f 4bbd
0.046261698 0.11994571 0.06151499 -0.03536639 0.107016884 -0.107698254 0.01262875 -0.17600016
0.031880442 -0.0002639586 -0.17859107 -0.056660317 -0.11467763 -0.017729452 -0.06418108 0.07366318
-0.124212444 0.025283797 0.014376339 -0.052831087 0.03367488 0.11653099 -0.2716297 0.039755
-0.10169618 0.0039792326 -0.09686958 -0.06130578 0.059245262 -0.05255011 -0.06784739 0.09137921
0.04508498 -0.15367597 -0.017934168 0.09955239 0.025955625 0.13141073 -0.10913584 -0.020464746
0.10151318 -0.0057221325 -0.08586116 -0.105408356 0.039010238 0.088329315 -0.07342528 0.033077493
-0.00922573 0.023611033 -0.021669945 -0.10228 -0.009850153 -0.18839814 0.05598009 0.034973603
0.0023571928 0.057833426 0.033370696 -0.043169197 -0.07311596 0.09029691 0.07427825 0.116495
-0.05028827 -0.09111916 0.006099282 0.050791707 -0.020571815 -0.020370211 0.03528986 -0.06344308
0.06334916 -0.0664778 0.076497 0.03242913 -0.0995896 0.01802669 0.050349455 -0.005733932
-0.03581615 -0.062991574 0.08352208 0.04210317 0.006583031 -0.025131661 0.0302101 -0.02254867
-0.008018691 0.058651175 0.044081938 -0.08662077 0.11299731 -0.12478793 -0.0032528455 0.07135005
0.023444401 -0.2370781 0.058226056 0.048329163 0.018077297 0.14630775 0.04559104 -0.010874294
0.05007199 0.09659538 0.06349415 -0.020093743 -0.10835669 -0.043434266 -0.110306285 -0.12235452
0.107600175 0.06974219 0.04353703 0.07242754 0.02235974 -0.07323938 -0.26105407 -0.05206474
-0.20115569 0.08975064 -0.060032897 -0.038831044 -0.039024323 -0.070544004 0.050914615 -0.16563827
0.06298407 0.044164725 -0.1383384 0.080306776 0.030229876 0.015421646 0.085041724 0.01755671
0.07644767 0.028572623 0.09430066 0.038318664 0.09034667 0.028095802 0.09271781 -0.21757866
-0.052185696 0.039876204 -0.059547696 0.017863343 -0.09480537 -0.15628693 -0.010725002 -0.017557839
-0.031505197 -0.020038601 -0.08788531 0.04188664 0.006933869 -0.07580918 -0.14091238 -0.08925003
-0.005381253 0.033251286 -0.09449968 -0.113537736 -0.010304031 -0.05398299 0.0750998 0.057128124
-0.05290574 -0.01508553 0.08921193 0.043725196 -0.14756744 -0.07963226 0.059248764 0.025910165
-0.06518572 -0.06368818 -0.052277863 -0.030290755 0.015906291 0.018418882 0.03983092 0.040833335
0.06978601 0.08740202 -0.07323261 0.073355995 -0.0099752 0.036431238 0.02258425 -0.0026138278
0.019509323 -0.1357416 0.037057802 -0.026123906 -0.05402946 -0.07176394 0.07213587 -0.027343038
0.010616556 -0.07018752 0.054533362 0.07834378 -0.21809359 0.043449894 -0.009794689 -0.10262484
-0.1270652 0.11051049 0.022159897 -0.16388793 -0.0008715157 0.062989645 0.04080939 0.012357656
-0.0017675075 0.043942608 0.022679016 0.10183536 -0.02935062 0.046587236 0.019985704 -0.05694377
0.007235892 0.050433632 -0.07042702 0.037239388 0.05005446 0.029585417 0.11627952 0.029160583
0.011365503 0.03819409 -0.063794754 0.04405947 -0.10358907 0.041849334 -0.07632705 -0.07042937
0.02546383 -0.12172639 0.110123105 -0.0019425142 0.052531973 0.05321308 -0.01766722 -0.087430134
-0.032176223 -0.032738026 0.09307066 0.048592977 -0.059605036 0.060548577 0.023417944 -0.04966668

net.fc2.bias f4 [128]
00000000: d522 d8bc 330c b5bc c224 583d 41f2 7d3d
00000010: 6466 a6bc ffca 58bd 5bfd 4fbd dd37 d53b
00000020: 33b4 693c f9e3 c73c acf7 d83b 06dc fbbb
00000030: a329 2b3d fc6a 883d d85e 36bc 967c 1f3d
00000040: 0ae6 8d3d 85da 81bc dccf ca3d 4241 89bc
00000050: 1411 893c 3b17 703b bc0c a03c f24f 993c
00000060: bfef 163d aff0 a03c 1640 5ebd ac0d 803c
00000070: 8d2f 8abc 3478 6d3d 5732 ecbc 8fc5 ac3d
00000080: 6d7e a7bc ffd0 8e3d 0b9f ad3c d865 2b3c
00000090: 0102 4f3d f09b fcbc 0c29 553d 0751 14bc
000000a0: e54e bf3d a40b b83d c04b babb 8909 54bd
000000b0: 9a35 153d 876d 45bd a229 40bd 1b89 353d
000000c0: f3b7 953d 76d1 013c 5f0b ab3c 5f85 e3bc
000000d0: 94fc 6ebd 71ca 8a3d b1a9 553b a67d 923d
000000e0: bb70 3f3c 3423 3cbd 98bf 3dbd e348 babc
000000f0: 196f b03d 1c47 be3d fd25 e2ba f4a4 943d
00000100: 210f 0f3d 22f6 da3c 414c ea3d 172f 973d
00000110: 1686 29bd e19b fd3a 037c e33d cce3 de3c
00000120: 8101 0f3d 9194 263d 6ea0 2a3b b085 433d
00000130: 1995 44bc 198f e3bc 202f 3fbd cc03 733d
00000140: 724b 56bb e10b cdbc 91a5 0dbd 40b6 6cbc
00000150: 1b70 5b3d b355 7bbc 8646 603b 0c2f 393c
00000160: ddae d03a edfb 573d 4ab6 36bd 555f d23d
00000170: 764c 803d b66c 643d abc8 37bd 22bb 713c
00000180: 9dd6 8e3b 6715 3abd 403f 5d3d e88a 0abd
00000190: 95f4 b43b 26f5 573d 8f0b 3b3d 9eaf 6d3d
000001a0: f56a edbc e72b 843d 7a2e 4abd 433c 81bc
000001b0: 9465 433a 0b57 60bd 8834 5f3c 9f95 533c
000001c0: ff44 893c ed45 18bd 41f2 9f3d 391d 253d
000001d0: ea0b 223d 1af4 333d b183 293b 43c9 873a
000001e0: 4352 8d3d 7fc9 efbc 3533 633d 45e9 803c
000001f0: 32c6 20bd db61 493c 065c 4ebd e76b 193c
-0.026383797 -0.022100544 0.05276943 0.06199861 -0.020312496 -0.052927967 -0.050778728 0.0065069036
0.014264154 0.024400698 0.0066213217 -0.007686141 0.041787755 0.06661031 -0.011131011 0.038937174
0.06928642 -0.015851269 0.09902927 -0.01675475 0.016731776 0.003663494 0.019537322 0.018714879
0.036849733 0.019646017 -0.054260336 0.01563152 -0.016868377 0.057975963 -0.028832598 0.08436119
-0.020446027 0.069734566 0.021194002 0.010461293 0.05053902 -0.030836076 0.0520411 -0.009052522
0.0934122 0.08986595 -0.0056852996 -0.051766906 0.03642807 -0.048200157 -0.046914704 0.044320207
0.07310476 0.007923475 0.020879446 -0.027773557 -0.058346346 0.06776894 0.0032602365 0.07152872
0.011684592 -0.04593201 -0.046325296 -0.022739833 0.0861494 0.09290907 -0.0017253753 0.07258025
0.034926537 0.026728693 0.114403255 0.073820285 -0.04138764 0.0019348824 0.11107638 0.027208231
0.034913544 0.040669028 0.0026035565 0.047734916 -0.011998438 -0.027778195 -0.0466758 0.059329793
-0.0032698778 -0.025030078 -0.034581725 -0.014447749 0.05357371 -0.0153402565 0.0034221723 0.011302721
0.0015921254 0.05273049 -0.04460744 0.102720894 0.06264584 0.055767737 -0.044869106 0.014754089
0.00435908 -0.045430567 0.054015398 -0.033823878 0.0055223205 0.052724026 0.04566532 0.05802881
-0.028981665 0.06453686 -0.04936073 -0.015775805 0.0007453796 -0.05477051 0.013623364 0.01291409
0.016756533 -0.03717606 0.07809878 0.040311072 0.039562143 0.043933965 0.0025865848 0.0010359663
0.06900456 -0.029270886 0.055468757 0.015736232 -0.039251514 0.012291397 -0.05038073 0.009364105

net.fc3.weight f4 [64, 128]
00000000: 291e 093e c297 f73d fe15 e6bd 04a8 f6bd
00000010: 5844 aa3d 1dad 123e be02 a1bc 037f 893e
00000020: 1903 263e c601 74bd ce47 f33d c8c4 203d
00000030: f3b3 ed3c 245c 243d 2d2e 893d a7a1 82bc
00000040: 7942 9d3c 9480 743d 2a98 8fbc 7996 233e
00000050: d045 0dbe 7ec3 903e a3ce 9e3d f0b7 09be
00000060: 8f77 c93d fab1 ef3d 353e af3c 7cda 383d
00000070: 9ea1 c4bd ed6c 933d ac67 a63d 8f5a 48bd
00000080: acf2 813e c2f0 e1bd 306f d33d 8883 c63d
00000090: 155a 94bd f04f 3cbd 5151 40bd 534e 59bc
000000a0: 2fbc ccbd 0f72 08be af1a 873e 86bf bd3d
000000b0: 713b 993d 3f11 ed3d be86 2a3d 7a73 913d
000000c0: 2e40 a5bd 4785 da3d fab0 c8bb 997b 16be
000000d0: c155 003e 8b67 3e3d 7b1e ab3d f546 dfbd
000000e0: 00f3 aa3d 7b32 f83d de42 d4bd 2d03 503e
000000f0: 8a28 1abe 8619 943d 7992 8cbc 66fd 6c3d
00000100: d754 743d 9c28 f239 6337 32bd 9846 7fbd
00000110: 435a 143e 7574 1dbe ed98 de3c bc28 503e
00000120: 45bb ab3d c2aa 0ebe 42f0 553c 0050 a43d
00000130: 70cd 803d 2d55 ab3c c35e 07bd f112 bbbd
00000140: 15d8 3d3d 949b a93d 9c33 a93c b035 293e
00000150: cc0a e33d cea6 0d3d 44b4 5cbd 717a 8e3e
00000160: 56fd 7bbd 05b4 693d dee8 ce3c 690c 923d
00000170: 6aea 3d3d 61c8 0e3e bf1c 5fbd 375f 873d
00000180: a4ba e9bc 7363 503c a6a7 713e 39e2 ce3d
00000190: bcf0 8d3c 5aff 103e 7a95 08bc 1428 5c3b
000001a0: 91a3 4abd 2f05 3b3d 53be 513e db7f 4bbc
000001b0: 023a df3d 7ed5 1b3d d7a2 acbd d689 ebbd
000001c0: 9b23 ddbd 1230 f33d c5e6 f8bd 2338 86bc
000001d0: c653 9b3b 7e49 4cbd 16fd acbd 6db6 ffbc
000001e0: f843 063e 4e8f 1d3e 98ec 7a3d a474 a8bd
000001f0: 036e 873c 34dc 09be 3dd0 b53d 22d8 883d
00000200: cd63 2a3d 31b4 95ba 77d0 d53d 1ce1 babd
00000210: 6795 d93d 41c5 003e 0b2c 113e 597e 513e
00000220: 864c 0a3e 20cc e73d 4cf5 d5bd bfc3 793d
00000230: 6e70 ca3d 5168 553c 8229 6c3d 8515 51bc
00000240: c547 3dbe 80c0 183e 2424 183e 9d5e 2b3e
00000250: 24c8 16be 0474 c43d eb85 f0bd ef73 b3bb
00000260: 6d8d eb3d 08e1 bebd 1fd3 0d3d 8439 d53b
00000270: 30df 243d a9ff a2bd 1cb5 aa3d ef27 663c
00000280: 05ac 453e d332 dcbd 7cd2 c53d 944c 02be
00000290: 8e06 dfbd 8ea7 ee3d f1ab a2bc 978c b8bb
000002a0: c273 7a3d 2174 50be 33c4 c63d 3ffd 5d3d
000002b0: 8283 a63d cf39 253d 106b 5d3d 6f8b 39bd
000002c0: 4ed8 fd3d 01d6 dbbc d3f0 25be 1774 2fbe
000002d0: fec1 653e 780f 2a3d 3c23 db3d 4581 003d
000002e0: f766 c8bc 15fa 17be 0bb9 62bd 760d c43c
000002f0: 30fe 81bd 948d acbd 6bc0 ccbc ef63 01bb
00000300: aa22 853d 4f42 d83d b528 d4bb 85de 8abd
00000310: 65a2 a13d f13d e5bc 463a ae3b 8dca ea3d
00000320: 96f7 e5bd 4078 39be 0369 d3bb aa41 f4bd
00000330: f560 053e 7341 2dba 49ea 2a3e 3dd0 bfbd
00000340: 8611 993c c932 fb3d 1dc4 ba3d 111b b53d
00000350: 35f7 b13d c0b1 c7bd 6dfb 31bd f233 273e
00000360: f06b abbd 0aaa 003e 99ba 693c b097 acbc
00000370: 13a1 9abc c1bd 693d 4472 a93c 37b7 853d
00000380: 73da 813d 3053 28bd 1484 f2bc 297b 11bc
00000390: 5f3b 1fbe f6e9 703d 3a0a f3bc 7a9b 64bc
000003a0: f73a a83c dec2 e33c a3c5 083e 7678 30be
000003b0: 65d3 bf3d 5ba0 ff3a c052 14be 89f1 473d
000003c0: a994 e8ba d7ae 6cbd 965f d5bd a584 ffbd
000003d0: 27c2 c43d 865f dd3d 9fc9 1abe 9a16 1cbe
000003e0: 4cb3 a1bd b675 6b3e 984d 793d 3f24 febd
000003f0: 28b3 1a3e c77c f2bd 74e6 cdbb f52e 19bd
0.13390411 0.120894924 -0.112346634 -0.12043765 0.08313817 0.1432385 -0.019654628 0.26854715
0.16212119 -0.059572004 0.1187893 0.039250165 0.02901647 0.040126935 0.066982605 -0.015946222
0.019196736 0.059692934 -0.017528612 0.1597537 -0.13796163 0.2827415 0.077542566 -0.13449073
0.09837257 0.11703868 0.021391967 0.045130238 -0.096011385 0.0719851 0.081252426 -0.04891449
0.25380456 -0.11032249 0.10323942 0.09693056 -0.07243744 -0.04597467 -0.04695255 -0.013263303
-0.09996831 -0.1332476 0.26387545 0.09265046 0.07482041 0.11575555 0.041632406 0.071021035
-0.08068882 0.10669952 -0.006124613 -0.14695586 0.12532713 0.046485465 0.08355423 -0.10902206
0.0834713 0.121190034 -0.103643164 0.20313711 -0.15054527 0.07231431 -0.017159687 0.057858847
0.059651222 0.00046188093 -0.043509852 -0.062323183 0.14487557 -0.15376456 0.02717253 0.20328039
0.08385328 -0.13932326 0.01305777 0.08023071 0.06289184 0.020914638 -0.033049356 -0.09134472
0.04634865 0.08281627 0.020654492 0.16524386 0.11086044 0.034582905 -0.053882852 0.2782779
-0.061520897 0.057056446 0.025257524 0.07131273 0.046366133 0.13943626 -0.054470774 0.06609958
-0.02853138 0.012719023 0.23599109 0.10101742 0.017326705 0.14159909 -0.008336419 0.0033593224
-0.049472395 0.04565924 0.20482759 -0.01242062 0.10899736 0.0380454 -0.08429497 -0.115008995
-0.10797807 0.11874403 -0.12153391 -0.01638419 0.004740211 -0.049874775 -0.0844671 -0.031214917
0.13111866 0.15386698 0.06126079 -0.082253724 0.01653195 -0.13462907 0.08877609 0.06681849
0.041599084 -0.0011421499 0.10440152 -0.091249675 0.10624199 0.12575246 0.14176957 0.20458354
0.13505754 0.11318231 -0.10447177 0.060977694 0.098847255 0.013025359 0.057656772 -0.012761478
-0.18484409 0.14917183 0.14857537 0.16735311 -0.14724785 0.09592441 -0.11744293 -0.005476467
0.11501584 -0.09320265 0.03462517 0.0065071005 0.04025191 -0.079589196 0.08335325 0.014047607
0.19303901 -0.107518815 0.09659287 -0.12724525 -0.10889922 0.11653052 -0.019857379 -0.005631994
0.06114555 -0.203568 0.09705391 0.054196592 0.08130552 0.040338334 0.05405718 -0.04529899
0.123947725 -0.026835443 -0.16205148 -0.17134129 0.22437283 0.04151866 0.1070008 0.03137328
-0.02446316 -0.14841492 -0.055352252 0.0239322 -0.063473105 -0.084254414 -0.024994096 -0.0019743403
0.06500752 0.10559522 -0.006474579 -0.067807235 0.078923024 -0.027983638 0.0053170053 0.11464415
-0.11228864 -0.18112278 -0.0064517274 -0.11926587 0.13025267 -0.0006609179 0.16690935 -0.0936589
0.018685114 0.12265546 0.09119437 0.08843053 0.08689729 -0.097507 -0.04345267 0.1632841
-0.08370197 0.12564865 0.01426568 -0.021068424 -0.018875634 0.05706573 0.020684369 0.06529086
0.06340494 -0.04109496 -0.029603995 -0.008879461 -0.15549992 0.058816873 -0.029667962 -0.013953084
0.02053593 0.02780288 0.13356642 -0.17233452 0.09366492 0.0019502746 -0.14484692 0.04881433
-0.00177445 -0.057783928 -0.10418622 -0.12476472 0.09607344 0.10809235 -0.15115975 -0.15242997
-0.07895526 0.22994122 0.060865015 -0.12409257 0.15107405 -0.11840206 -0.0062835757 -0.037398297

net.fc3.bias f4 [64]
00000000: a1e7 2d3b d019 a8bd 1765 d13d 2fe7 c03a
00000010: 1688 713d b911 99bd 1211 4fbc 048e 173a
00000020: cd93 efbc 29bb 4e3d 6c64 1a3d b0a8 433a
00000030: 1691 ce3c 915d 3f3d b9e6 6c3d 4e21 3ebc
00000040: dd5a ca3d c47a 143c e696 a53d 4617 be3d
00000050: 9c36 d73c af80 4fbd c5d5 103d 0f50 13bd
00000060: 88c4 133c fd8a 473d 97f7 ff3a b8c2 9abd
00000070: e5c7 783d 60f4 bc3d eaa5 ebbc 21c4 063e
00000080: d590 553d 4d0f 0fbd c767 f1bc 50b4 00bc
00000090: b16a 73bd 8326 58bd 4c3f 09bb a296 a9bd
000000a0: 070b 013e cdb8 9ebb e0fa e1bc 758f fc3d
000000b0: 8c13 48bd 1863 d2bd 9ac6 8e3d 4909 b43d
000000c0: ec89 a3bd 7661 84bc 2c4f 32bc 1337 9a3d
000000d0: 512b 863c 3b5c cb3b 77a8 083d fad9 cfbc
000000e0: 9f72 fe3c d6d0 2f3d e202 6c3d 1272 f73c
000000f0: f0e4 d5bc 8d42 64bd 5672 293d 713d 7a3d
0.0026535767 -0.08208048 0.102243595 0.0014717336 0.058967672 -0.074740835 -0.012638347 0.0005781355
-0.029245282 0.05047146 0.037693426 0.0007463796 0.025215667 0.04672009 0.05783722 -0.01160462
0.09880612 0.009062473 0.08085422 0.09281783 0.026271157 -0.05065983 0.035360117 -0.03596502
0.009019025 0.048716534 0.0019528744 -0.07556671 0.06073751 0.09226298 -0.028765637 0.13160755
0.052140076 -0.0349267 -0.02946843 -0.00785549 -0.05942792 -0.052771103 -0.002094227 -0.08280684
0.12601863 -0.0048438073 -0.027585447 0.1233205 -0.048846766 -0.10272807 0.06971474 0.087908335
-0.07985291 -0.016159754 -0.010883134 0.07530036 0.016378077 0.006206063 0.033363786 -0.025372494
0.031060515 0.04292377 0.057619937 0.03020576 -0.026110142 -0.05572753 0.041368805 0.06109375

net.fc4.weight f4 [2, 64]
00000000: aaa1 8f3d bf66 813d 8f91 183d cec4 923d
00000010: a54e 793c 13f7 3b3d 45c7 843d 593b c83d
00000020: 9a7e bc3d 34ad a3bd 80a0 893d 2286 1c3d
00000030: 4c2c 8c3c 872f 7e3d 0b11 253d 8e7f 583d
00000040: a884 8bbd 3b9f b0bd 372f 8d3d 0cc6 353d
00000050: 3bf0 eb3d 360d 993d 59ba dc3d 86d7 c43c
00000060: 3c31 9dbd a508 97bd 2d08 d73d 8298 ab3d
00000070: a1d5 3f3d 2e19 963d d2e2 353d 8e81 353b
00000080: 1d52 c93d 1294 4e3d 03ed 5dbd 3b4a 933d
00000090: ade5 cd3d 86ce f23e 6c49 b03c b3ca 363d
000000a0: 793f 9d3c 73a3 82bd 0fcd 80bd ce91 cebd
000000b0: 68a6 cc3d 2396 803d 0a39 563d 05e8 8a3d
000000c0: 86d6 bb3d bc10 803d 102c 77bd 75a3 603d
000000d0: ca8f 823c 18f8 ea3d 80ba 1f3d 393e bf3d
000000e0: 672b ce3d bfa9 8cbd b919 913d 1185 323d
000000f0: 0ad6 6e3d 36fa 893d cb33 d83d 3d4e 203b
00000100: fd52 023d e69c 6f3d 4c2f 3ebe 2cff 40bd
00000110: 68d5 fbbd 8d9f 173d 0924 9c3c e6de 3a3d
00000120: 5eb0 9ebb 429d c43b 1e25 963c 2974 4fbe
00000130: f907 0bbe a275 a5bd a692 c0bd 1913 91bd
00000140: ca49 9cbc a66b 3c3c c7e8 80bd 4688 48be
00000150: c28c bc3d c6a1 163d 1e57 05be 0885 f3bd
00000160: e1e2 993a 945c 63bd d913 fa3d c3fa fabd
00000170: f945 a33c b322 713d 93e9 e6bd c9e6 20be
00000180: 19ea 90bd ec02 db3d 7539 663d 1c85 febc
00000190: 0abf ac3d 2567 aebb 1859 a8bd 969a 02bc
000001a0: e336 2bbe 0288 38bd 4a30 3b3d 4534 ec3c
000001b0: dd0c 15bc e3a6 31be 12e7 2a3d e172 103d
000001c0: af38 c0bc d8d3 1dbe d340 3cbd d451 cb3c
000001d0: 23fb 0e3e 98aa 233d 6732 5c3c c2e0 713d
000001e0: 7384 e23c 5475 df3c 2b40 b83c 8cbd 0dbe
000001f0: 0881 02bd c8ea 803c f2e8 46bd 1611 26bb
0.07013257 0.063184254 0.03724819 0.07166444 0.015216504 0.045889925 0.0648332 0.09776945
0.09203835 -0.0799202 0.06720066 0.038213857 0.017110966 0.062057044 0.040299457 0.05285602
-0.068124115 -0.08624121 0.06893771 0.044378325 0.1152043 0.07473223 0.107777305 0.02402855
-0.07675406 -0.07374696 0.10499606 0.08378698 0.04683459 0.073290214 0.044405766 0.0027695629
0.09830115 0.05043418 -0.05418111 0.07191893 0.10053573 0.4742319 0.021519385 0.044626903
0.019195305 -0.06378832 -0.06289112 -0.10086404 0.09992677 0.06278636 0.05230049 0.067825355
0.091717765 0.06253192 -0.060344756 0.054843385 0.015937705 0.114731014 0.03899622 0.0933804
0.10066872 -0.06868314 0.07084984 0.043583933 0.058309592 0.06737177 0.10556754 0.0024460696
0.031817425 0.05849924 -0.1857273 -0.04711835 -0.122965634 0.037017394 0.019060152 0.04562273
-0.004842802 0.006000192 0.018328246 -0.20259155 -0.1357726 -0.08079077 -0.09402971 -0.07083721
-0.019078154 0.011500275 -0.06294399 -0.19583234 0.09206535 0.036775373 -0.13021514 -0.11890608
0.0011740589 -0.05550821 0.12210817 -0.1225486 0.019930827 0.058870982 -0.112750195 -0.15713038
-0.070759006 0.10693917 0.05620714 -0.03106933 0.08434875 -0.0053223544 -0.08220118 -0.0079714265
-0.16720156 -0.045051582 0.04570035 0.028833518 -0.009097305 -0.17348818 0.041724272 0.035265807
-0.023464529 -0.15412843 -0.04596026 0.024819292 0.13962989 0.039957613 0.013439751 0.059052236
0.027651047 0.027277626 0.022491535 -0.13841838 -0.031861335 0.015736952 -0.048561998 -0.0025339774

net.fc4.bias f4 [2]
00000000: 64e8 b2bd 33dc 2fbe
-0.08735731 -0.17173843
