scores/checkpoint_env_solved_actor_PER.pth (torch_old, 192103 bytes, 8 tensors)

net.fc1.weight f4 [256, 24]
0	0x3c50c44d	0.012742114
1	0x3cc28ce8	0.02374883
2	0xbb6cd347	-0.0036136673
3	0xbe0446bb	-0.12917607
4	0x3d5a6e54	0.053327873
5	0xbeee9c3f	-0.4660358
6	0x3c9751d5	0.018471638
7	0xbd9d4fa7	-0.07681208
8	0x3d5e5c86	0.054287456
9	0x3da4dcad	0.08049903
10	0xbc4af187	-0.012386686
11	0xbda5fc1e	-0.08104728
12	0x3d30f1b6	0.043199264
13	0xbecea378	-0.40359092
14	0xbd8c8cc3	-0.06862786
15	0xbe06c778	-0.13162029
16	0xbb9dec43	-0.0048194244
17	0x3c1c7066	0.009548282
18	0xbb84ba76	-0.004050548
19	0xbe356a07	-0.17716227
20	0x3d00519b	0.031327825
21	0xbd783ad6	-0.060602985
22	0xbcb4e56a	-0.02208205
23	0xbdad698d	-0.08467398
24	0xbd024971	-0.03180832
25	0x3d01a59b	0.031652074
26	0xbb86bb4c	-0.004111683
27	0x3d1842a6	0.037172936
28	0x3d362bad	0.044475246
29	0xbd1aafa2	-0.037765153
30	0xbd2fd32e	-0.042926006
31	0x3d77aeec	0.060469553
32	0xbd957cdc	-0.07299206
33	0x3da3dbbf	0.080008976
34	0x3d791137	0.060807433
35	0xbc8f18b7	-0.01746784
36	0x3d99f32f	0.07517087
37	0x3d2c9723	0.042136323
38	0x3d56220f	0.052278575
39	0xbd8bd955	-0.06828562
40	0xbc697441	-0.0142489085
41	0xbce0cc3a	-0.027441133
42	0x39877680	0.00025837496
43	0xbdb96110	-0.09051716
44	0x3d5561ae	0.052095108
45	0xbe76574f	-0.24056743
46	0x3d1eb00f	0.03874212
47	0xbe0bd8f8	-0.13656986
48	0x3d946c3e	0.07247208
49	0xbdca521f	-0.098789446
50	0xbc897157	-0.016777677
51	0xbd23cc7f	-0.039989945
52	0x3e0c668d	0.13710995
53	0xbe3d818e	-0.18506452
54	0x3ce41365	0.02784128
55	0xbd4cef0d	-0.050032664
56	0x3c7e5111	0.015522257
57	0xbcbb954b	-0.022898337
58	0x3d457288	0.04820493
59	0x3d52e23c	0.051485285
60	0x3e055b7a	0.13023177
61	0xbe4bcf3b	-0.19903271
62	0xbca48dc9	-0.02008714
63	0xbced77bf	-0.028987763
64	0x3ca5539f	0.020181475
65	0xbdbd8772	-0.0925435
66	0x3c4c201d	0.012458828
67	0x3dd5c159	0.10437269
68	0x3d0b49cc	0.034005925
69	0xbe11a0d9	-0.14221515
70	0xbb0a2b47	-0.0021082924
71	0x3da36749	0.079786845
72	0xbda42f36	-0.08016817
73	0x3d09bf07	0.033629443
74	0xbc5fbba2	-0.013655575
75	0xbe532143	-0.20618157
76	0x3dede803	0.11616518
77	0xbde86406	-0.11347203
78	0xbd050d90	-0.032483637
79	0xbe091b20	-0.13389254
80	0x3d38f8a1	0.045158986
81	0x3d083740	0.033255816
82	0x3d2d2e68	0.042280585
83	0xbd93b887	-0.0721293
84	0x3dbef301	0.09323693
85	0xbe65b4c7	-0.22432242
86	0x3b2e3337	0.002658082
87	0xbe2e3dcc	-0.17015761
88	0xbdefc8e4	-0.11708239
89	0xbc49ba33	-0.01231246
90	0xbdc75fc7	-0.09735065
91	0xbe29a146	-0.16565427
92	0xbd0136dd	-0.031546462
93	0xbe0fdebc	-0.1404981
94	0xbd26ae54	-0.040693596
95	0xbe200533	-0.15626983
96	0x3d856ff9	0.06515498
97	0xbd928088	-0.07153422
98	0xbafe0e2c	-0.0019382886
99	0xbd05d647	-0.032675054
100	0x3e714b09	0.2356378
101	0x3c91e3dc	0.017808847
102	0x3be9f2f7	0.0071395594
103	0xbc57f745	-0.013181512
104	0x3cb03456	0.02150933
105	0xbdf9916a	-0.12185939
106	0xbb859a10	-0.0040772036
107	0x3d36f0b2	0.04466314
108	0x3d277e85	0.040892143
109	0x3e108210	0.14112115
110	0xbc90d0da	-0.017677713
111	0xbd0f8038	-0.03503439
112	0xbd34ab46	-0.04410865
113	0xbd6bc19c	-0.057557687
114	0x3cb9f133	0.02269802
115	0xbe5d3833	-0.2160347
116	0x3de4e326	0.111761376
117	0x3cc9bfd3	0.024627602
118	0xbd7204f4	-0.059086755
119	0xbe109dc5	-0.14122684
120	0xbd888c44	-0.066673785
121	0x3c800fde	0.015632566
122	0xbcc2ec57	-0.023794336
123	0x3cefa8ba	0.02925526
124	0x3dbd07f8	0.092300355
125	0xbddeb007	-0.10873418
126	0xbcbb8f2a	-0.022895414
127	0x3ba84b73	0.0051359474
128	0xbd7fed6e	-0.06248229
129	0xbcbad549	-0.02280678
130	0xbc4644b5	-0.012101342
131	0xbc804561	-0.015658082
132	0x3d87f524	0.06638554
133	0xbd83969f	-0.06425213
134	0xbcf45b73	-0.029828763
135	0x3cb04435	0.021516899
136	0xbd0d2ffc	-0.03446959
137	0xbdaf7c97	-0.085686855
138	0xbcd70c52	-0.026250992
139	0xbdd132d9	-0.102147765
140	0x3db9e7a4	0.09077385
141	0x3e149acd	0.14512177
142	0x3d38907f	0.045059677
143	0xbe005570	-0.12532592
144	0xbdcf2e85	-0.10116295
145	0xbc80ea7f	-0.015736816
146	0xbd5e6b06	-0.054301284
147	0xbc945d31	-0.018110843
148	0x3c41c85b	0.011827554
149	0xbd5f2b52	-0.054484673
150	0xbd38cc49	-0.045116697
151	0x3d38b649	0.045095716
152	0xbd997079	-0.074921556
153	0x3d20987e	0.039207928
154	0xbdc96852	-0.09834351
155	0xbd91e6a5	-0.0712407
156	0x3d959442	0.073036686
157	0xbdb0a254	-0.08624712
158	0xbda6d01d	-0.08145163
159	0xbd999ad6	-0.07500236
160	0xbcfbf7de	-0.03075784
161	0x3c18cc68	0.009326078
162	0x3d040b0a	0.03223709
163	0x3ca2df25	0.019881794
164	0x3dda1b36	0.10649721
165	0xbe395aa6	-0.18100986
166	0x3d31dbb2	0.04342241
167	0x3d929c4b	0.07158717
168	0x3b4ee8e3	0.0031571917
169	0x3d0befbb	0.03416417
170	0x3c33d142	0.010975184
171	0xbd17c44b	-0.037052434
172	0x3b1b5939	0.0023704304
173	0x3d313c2d	0.04327028
174	0xba4b353b	-0.00077517674
175	0xbd9de3b8	-0.077094495
176	0xbd3540a9	-0.044251118
177	0x3d885446	0.06656699
178	0xbc1a141a	-0.009404207
179	0xbd932106	-0.07184033
180	0x3e3b7851	0.18307616
181	0x3da1bf84	0.07897857
182	0xbc7b349a	-0.015332365
183	0xbd89a99a	-0.06721802
184	0x3cf7e871	0.030262204
185	0x3da7f524	0.08201054
186	0xbc96da83	-0.018414741
187	0xbc4e7022	-0.012599977
188	0x3e0c0d3a	0.1367692
189	0x3e2c95b0	0.16853976
190	0xbd03f761	-0.03221834
191	0x3d5be47d	0.0536847
192	0xbdae1545	-0.085001506
193	0xbd315d8b	-0.0433021
194	0xbd18422a	-0.037172474
195	0xbd28b331	-0.041186515
196	0xbe1212f5	-0.14265044
197	0xbe9912c5	-0.29897133
198	0xbbc47055	-0.0059948363
199	0xbd2f265f	-0.042761203
200	0x3c3be4a8	0.01146809
201	0xbd96c0b7	-0.07360976
202	0xbdd0b125	-0.10190038
203	0xbc9682c7	-0.018372906
204	0x3d13823b	0.03601287
205	0xbe67302c	-0.2257697
206	0xbbb56f66	-0.0055369614
207	0x3d12502a	0.03572098
208	0x3b82c077	0.0039902288
209	0x3cad58b8	0.021160468
210	0xbe07c7c1	-0.13259794
211	0x3db66960	0.089068174
212	0x3d82173b	0.06352087
213	0xbe1e8b71	-0.1548288
214	0xbd42cd56	-0.047559105
215	0x3dd1ce7d	0.10244463
216	0xbb461329	-0.0030223823
217	0xbe01228c	-0.12610835
218	0x3d049247	0.032366063
219	0xbcf8f28b	-0.030389091
220	0xbda49692	-0.080365315
221	0xbd968b59	-0.07350797
222	0xbd2f555f	-0.042806026
223	0x3cefbbdb	0.029264381
224	0xbdca3008	-0.098724425
225	0xbde5cc79	-0.11220641
226	0x3ca00d08	0.019537464
227	0x3ccb0835	0.024784187
228	0xbc8a528a	-0.01688506
229	0xbd7ee674	-0.062231496
230	0xbc099db1	-0.008399413
231	0xbd3464d6	-0.044041477
232	0xbd8beb5d	-0.06832001
233	0xbde1c985	-0.11024765
234	0x3d2b80cb	0.041870873
235	0xbd81078b	-0.06300267
236	0x3e317acc	0.17332
237	0xbdadec74	-0.084923655
238	0xbc2f4516	-0.010697624
239	0xbdb12b7b	-0.08650871
240	0xbdd73e6b	-0.10509952
241	0x3c6dae4b	0.014506887
242	0x3ccbe4f2	0.024889443
243	0x3d469239	0.048479293
244	0xbd2cdec9	-0.042204652
245	0x3dd841fa	0.10559459
246	0x3d8588a8	0.06520206
247	0x3d3a4ada	0.04548154
248	0xbdb7a70f	-0.08967411
249	0xba6baaa9	-0.0008989969
250	0x3cbf9159	0.023384737
251	0x3d0115ea	0.03151504
252	0x3c8612f7	0.016366465
253	0x3d3b1c0c	0.045681044
254	0xbc744fcf	-0.014911606
255	0x3c860499	0.016359614

net.fc1.bias f4 [256]
0	0x3e1d97dd	0.15389962
1	0x3e169023	0.14703421
2	0xbe35948a	-0.17732444
3	0xbc26337d	-0.010144112
4	0xbe1d3b77	-0.15354715
5	0x3dd1e5ff	0.102489464
6	0x3e4907df	0.19631909
7	0x3d957917	0.07298487
8	0x3d4b123b	0.049577933
9	0x3da2fd80	0.079585075
10	0xbde3caa9	-0.11122639
11	0xbdc2c959	-0.0951106
12	0xbe88408f	-0.26611754
13	0x3e5be570	0.21474242
14	0xbe32aaf2	-0.17448023
15	0xbdbda620	-0.092602015
16	0xbd75aa41	-0.05997682
17	0x3e4926b0	0.19643664
18	0x3e664b05	0.22489555
19	0xbcbc70bb	-0.023002973
20	0xbe1ae7bf	-0.15127467
21	0xbe24d795	-0.16097863
22	0x3e49d748	0.1971103
23	0xbd63fa65	-0.055658717
24	0x3e2b7dbb	0.16747181
25	0x3e24e724	0.16103798
26	0xbe6bd7e0	-0.23031569
27	0x3de82d7e	0.11336802
28	0x3da101e5	0.078616895
29	0x3cec9f3c	0.028884523
30	0x3e12cb2e	0.1433532
31	0x3e21af48	0.1578952
32	0xbd9d2887	-0.076737456
33	0x3e47635d	0.19471498
34	0xbcbb6db2	-0.022879455
35	0x3e46982d	0.19393988
36	0x3d0ea3aa	0.03482405
37	0x3e1dfa6f	0.15427564
38	0x3df8cdee	0.12148653
39	0x3e26512a	0.16241899
40	0x3d84a158	0.064760864
41	0xbb508019	-0.0031814633
42	0x3e1470cf	0.14496158
43	0x3dca1a9d	0.09868357
44	0x3d8a500d	0.0675355
45	0x3df69f67	0.12042122
46	0xbdb3c70b	-0.08778199
47	0xbdb6a43b	-0.08918043
48	0xbd7f472c	-0.062323734
49	0xbe4d150a	-0.20027557
50	0x3e12de09	0.14342512
51	0xbd6996cc	-0.057028577
52	0x3e473636	0.19454274
53	0x3dd8a218	0.10577792
54	0x3dd050dc	0.10171673
55	0xbe36ce1c	-0.17852062
56	0x3dae5d6e	0.08513914
57	0x3e0cd1a1	0.13751842
58	0x3e5ee2d0	0.2176621
59	0xbbdcaef5	-0.0067347237
60	0xbd7a60c6	-0.061127447
61	0x3be56d5c	0.007001562
62	0x3d2069e8	0.0391635
63	0x3e06ec39	0.1317605
64	0x3d6ac21c	0.057314023
65	0x3e3b9a81	0.18320657
66	0xbda450ee	-0.080232486
67	0xbde6dfcc	-0.112731546
68	0x3dadf260	0.08493495
69	0x3d5cc151	0.0538953
70	0x3dddce49	0.108303614
71	0x3e33eb9d	0.17570348
72	0x3e107389	0.14106573
73	0xbdd09b26	-0.10185842
74	0xbdc9bff1	-0.09851063
75	0xbe073661	-0.13204338
76	0x3df00816	0.11720292
77	0xbd3f7ccb	-0.04674987
78	0x3d06e1fe	0.032930367
79	0x3d86141e	0.06546806
80	0xbd333ebd	-0.043761004
81	0xbd5f4648	-0.054510385
82	0x3cf2709b	0.02959471
83	0xbd975248	-0.07388741
84	0x3d6dee1f	0.058088418
85	0xbcb8e326	-0.02256925
86	0x3d2109bb	0.03931592
87	0x3df01a24	0.11723736
88	0x3c5201fb	0.012817855
89	0x3e385037	0.1799935
90	0xbcbdf91f	-0.02319008
91	0xbd3c4b48	-0.04597023
92	0xbd4e5a26	-0.05037894
93	0xbe58f11b	-0.21185724
94	0xbd81efb8	-0.06344551
95	0x3e087f7d	0.13329883
96	0xbdc0938c	-0.09403142
97	0x3da875ad	0.0822557
98	0x3e3ef943	0.18649773
99	0x3e6214d0	0.22078252
100	0x3c941eac	0.018081032
101	0x3e032af6	0.12809357
102	0xbdf496cd	-0.119428255
103	0xbd64c3db	-0.055850845
104	0x3c70dffa	0.014701838
105	0x3e107a3b	0.14109127
106	0x3d4d6309	0.050143275
107	0x3e672f45	0.22576626
108	0xbe1a59b9	-0.15073289
109	0x3cbff8c6	0.023434054
110	0xbe396f60	-0.18108892
111	0x3d5e9c7b	0.05434845
112	0xbd596060	-0.053070426
113	0xbe5122fb	-0.204235
114	0xbe049fec	-0.1295163
115	0xbdf1d76f	-0.11808669
116	0xbc88977f	-0.016673801
117	0x3cf90025	0.030395577
118	0xbe105847	-0.14096175
119	0x3e0c7103	0.13714986
120	0xbe7d5cf1	-0.24742486
121	0xbd5d1d65	-0.05398311
122	0xbe1677f6	-0.14694199
123	0xbdc4f552	-0.09617104
124	0x3bb1e08e	0.0054283803
125	0xbdb0e310	-0.08637059
126	0x3e2fde4b	0.17174642
127	0x3cb27062	0.021782104
128	0xbe679804	-0.22616583
129	0xbe0cd545	-0.13753231
130	0x3e3a6f40	0.18206501
131	0x3e20b6c1	0.15694715
132	0x3dcd2cae	0.100182876
133	0xbd81ae20	-0.0633204
134	0xbcb4d155	-0.022072474
135	0x3d511d68	0.051053435
136	0x3e202440	0.15638828
137	0x3e606246	0.21912488
138	0x3d9083a3	0.07056358
139	0xbdea6c7d	-0.11446474
140	0x3db074a4	0.086159974
141	0x3bea617f	0.0071527357
142	0xbe1a22ca	-0.15052333
143	0x3d956025	0.07293729
144	0x3dc0ada2	0.09408118
145	0xbda9940f	-0.08280193
146	0x3dca8b83	0.09889891
147	0x3e065312	0.13117626
148	0x3e3b1ffc	0.1827392
149	0x3e1bbac6	0.15207967
150	0x3d8be3d5	0.06830565
151	0xbdb5b55c	-0.08872482
152	0x3dbb8f38	0.09158176
153	0xbe43e995	-0.19132073
154	0xbe47db9a	-0.19517365
155	0xbe049c76	-0.1295031
156	0x3db4a9a6	0.0882142
157	0xbd00cc1e	-0.03144466
158	0x3bc59769	0.0060300124
159	0x3cab4269	0.02090569
160	0x3ce40ba8	0.02783759
161	0x3d6fa4e2	0.058506854
162	0xbe59afad	-0.21258421
163	0x3d48730e	0.04893785
164	0x3d437779	0.04772136
165	0xbc9147d7	-0.017734451
166	0xbe07233a	-0.13197032
167	0xbd8dd031	-0.06924475
168	0xbd40703f	-0.046982046
169	0xbbbe46f5	-0.0058067986
170	0x3d159b9c	0.036525354
171	0x3e16f0c6	0.14740285
172	0xbe2bba8c	-0.1677038
173	0x3e317eea	0.1733357
174	0xbdb047f7	-0.08607476
175	0xbe1a352f	-0.1505935
176	0x3e4304fd	0.19044872
177	0x3d14246e	0.036167555
178	0x3da9a638	0.08283657
179	0x3e0987c1	0.13430692
180	0xbda02627	-0.07819777
181	0xbe35736b	-0.1771981
182	0x3df17695	0.11790196
183	0xbd1b084d	-0.037849713
184	0xbe10335f	-0.14082097
185	0x3d962953	0.07332101
186	0x3dc3c7bd	0.095595814
187	0xbe0a9cdf	-0.13536404
188	0x3d99ab33	0.07503357
189	0xbe58b706	-0.21163568
190	0x3e3273db	0.17427008
191	0x3e13e20f	0.14441703
192	0x3e28a22a	0.1646811
193	0xbda48739	-0.08033604
194	0xbdeb89d5	-0.11500899
195	0xbddd7d64	-0.10814932
196	0x3e1a4111	0.15063883
197	0xbd978c69	-0.07399828
198	0xbe6a425f	-0.22876881
199	0x3de7d7c2	0.113204494
200	0x3d27f11d	0.041001428
201	0x3e51d5bf	0.20491694
202	0x3e285663	0.16439204
203	0x3d80b592	0.06284632
204	0xbd1b9d92	-0.037992068
205	0xbe7803bc	-0.24220175
206	0xbe502672	-0.20327166
207	0xbe175654	-0.14779025
208	0xbd0153f1	-0.031574193
209	0x3b008020	0.0019607618
210	0x3df3677a	0.11884971
211	0x3db6b9d0	0.0892216
212	0xbd3f2290	-0.04666382
213	0x3e316f85	0.17327698
214	0x3da6876f	0.08131301
215	0x3e1e0b34	0.15433961
216	0x3dc90922	0.09816195
217	0x3db12727	0.08650046
218	0xbc448698	-0.01199498
219	0x3d6b0072	0.05737347
220	0x3e12c86f	0.14334272
221	0x3d2c9296	0.042131983
222	0x3cd15a97	0.025555892
223	0xbd469980	-0.048486233
224	0x3dbb9011	0.09158338
225	0x3e1ca5f3	0.1529768
226	0xbc51695f	-0.01278147
227	0x3e575af5	0.21030791
228	0xbd19b1e4	-0.037523165
229	0xbd0d303f	-0.03446984
230	0x3e279800	0.16366577
231	0x3e2ce434	0.16883928
232	0x3e05505f	0.1301894
233	0xbdead537	-0.11466449
234	0x3e8ae343	0.27126512
235	0xbe26d121	-0.16290714
236	0xbe3e3940	-0.18576527
237	0xbe0e835b	-0.13917296
238	0xbd8991eb	-0.06717285
239	0x3d920ce5	0.07131366
240	0xbe005078	-0.12530696
241	0xbda4e6ff	-0.080518715
242	0x3e055b67	0.13023148
243	0x3df76d27	0.12081366
244	0xbe623f60	-0.22094488
245	0x3ce0351c	0.027369075
246	0x3cd21cbe	0.025648471
247	0x3dd543a5	0.10413293
248	0x3d9f101d	0.07766745
249	0x3e42c655	0.1902097
250	0x3e015794	0.12631065
251	0xbe45f21b	-0.19330637
252	0x3da63fec	0.08117661
253	0xbd171212	-0.036882468
254	0x3ca78f8d	0.020454193
255	0x3d80bf7a	0.06286521

net.fc2.weight f4 [128, 256]
0	0x3e2f1d11	0.17100932
1	0xba50eb04	-0.00079695904
2	0x3be6f815	0.0070486167
3	0x3d43a5b0	0.047765434
4	0x3b95b2b4	0.004568422
5	0xbca01271	-0.019540044
6	0xbdf2096c	-0.11818203
7	0x3cc896ec	0.024486028
8	0x3cf4bf2b	0.029876312
9	0xbd2f19be	-0.04274916
10	0xbc883609	-0.016627328
11	0x3dd0a579	0.101878114
12	0x3d872ef4	0.066007525
13	0xbe0c11fb	-0.13678734
14	0x3d23f0b2	0.040024467
15	0x3c95d4ec	0.018290006
16	0xbc1a6343	-0.00942308
17	0x3d6a9616	0.05727204
18	0xbd116ac6	-0.035502218
19	0x3df2bb46	0.11852126
20	0x3d46ce4f	0.048536595
21	0x3dc57788	0.096419394
22	0x3d62fb20	0.055415273
23	0xbcf52a8f	-0.02992752
24	0xbdddbc62	-0.10826947
25	0x3dae581b	0.085128985
26	0x3d0913f4	0.033466294
27	0x3cb7662a	0.022387583
28	0xbd8c4486	-0.06849007
29	0xba85593e	-0.0010173691
30	0xbcaaed5f	-0.02086514
31	0xbd5be373	-0.05368371
32	0x3e0586f0	0.13039756
33	0xbcf91a9f	-0.030408202
34	0xbc806e3b	-0.015677562
35	0xbc36eb9f	-0.011164575
36	0x3d662c24	0.05619444
37	0xbc968f88	-0.018378988
38	0xbc929836	-0.017894845
39	0x3dcbbcbf	0.0994811
40	0xbd2066fe	-0.03916072
41	0xbd286b0a	-0.041117705
42	0xbc8183ee	-0.01580998
43	0x3e54eae7	0.20792733
44	0x3d027bd0	0.031856358
45	0xbd0e19e4	-0.03469266
46	0xbde05540	-0.1095376
47	0xbe1e6a9e	-0.15470359
48	0xbbc66acb	-0.006055211
49	0x3d604bb0	0.05475968
50	0xbd385f7d	-0.04501294
51	0x3e56127c	0.20905489
52	0x3da6fe2b	0.081539474
53	0x3db64ad2	0.089009896
54	0x3d09b9f0	0.03362459
55	0xbcf05235	-0.029336074
56	0x3cc30dc4	0.023810275
57	0x3cdbee04	0.026846893
58	0x3d861b74	0.06548205
59	0x3ccbf3a4	0.02489645
60	0xbe374ffb	-0.17901604
61	0xbe0ff658	-0.14058816
62	0xbd890fe2	-0.066924825
63	0x3dea38fc	0.1143665
64	0x3c883ec9	0.0166315
65	0x3dc456a2	0.095868364
66	0xbd8f7875	-0.07005397
67	0xbd136d3f	-0.035992857
68	0x3d264a31	0.0405981
69	0x3d5ebfb4	0.05438204
70	0x3b9bd02b	0.00475504
71	0xbe3d6d87	-0.18498813
72	0xbd7d53f6	-0.06184765
73	0xbccc3b79	-0.024930703
74	0x3d84c75c	0.06483337
75	0xbe0eb3c7	-0.13935767
76	0xbe17d766	-0.14828262
77	0x3c6202c9	0.013794609
78	0xbdf97fde	-0.12182592
79	0x3e1ae48e	0.15126249
80	0xbdd56413	-0.10419478
81	0x3d4efc05	0.050533313
82	0xbd818bb9	-0.06325478
83	0xbccdf7e2	-0.025142614
84	0x3d636958	0.055520386
85	0x3d7b3ba6	0.061336182
86	0x3dc2f445	0.09519247
87	0x3cb89f4e	0.0225369
88	0x3cbd462b	0.023104748
89	0xbe8c29fe	-0.27375787
90	0xbd67f13c	-0.056626543
91	0xbc665282	-0.014057757
92	0xbd802180	-0.062563896
93	0xbdd689df	-0.104755156
94	0xbd11625a	-0.035494186
95	0x3e0c1009	0.13677992
96	0xbccd3a49	-0.025052207
97	0xbe20de52	-0.15709808
98	0x3bdd21ad	0.006748399
99	0x3d7c816a	0.061646856
100	0xbd7c4a1d	-0.061594117
101	0x3b5439b9	0.0032383038
102	0xbc58412d	-0.013199133
103	0x3cd2c389	0.025728004
104	0x3db7471c	0.0894911
105	0x3e729d26	0.2369276
106	0x3e035e81	0.12829019
107	0xbcfcf42f	-0.030878155
108	0x3d07d4e4	0.033162013
109	0xbd5f5817	-0.05452737
110	0x3d88a953	0.06672921
111	0xbe244e66	-0.16045532
112	0xbd3940d9	-0.04522786
113	0x3ad1ab62	0.0015996511
114	0xbd988152	-0.07446541
115	0x3d5e6e30	0.0543043
116	0xbd0fca57	-0.035105076
117	0x3cea776c	0.028621398
118	0xbc9ece5c	-0.01938551
119	0xbd81c929	-0.063371964
120	0xbdb867be	-0.09004162
121	0xbdd78e98	-0.105252445
122	0xbcd61f99	-0.026138114
123	0x3dd9c098	0.106324375
124	0xbaa253b3	-0.0012384563
125	0x3d22fb4f	0.039790448
126	0xbd2c5576	-0.04207369
127	0x3d915278	0.07095808
128	0xbd04fecc	-0.032469556
129	0x3d2bba5d	0.041925777
130	0x3e4500d3	0.19238596
131	0xbe0e440a	-0.13893142
132	0x3d0b3209	0.033983264
133	0xbc66b0cb	-0.014080237
134	0xbe2183b7	-0.15772901
135	0xbb589a26	-0.0033050864
136	0x3d2dc09d	0.04242002
137	0x3d8727b6	0.06599371
138	0xbdca2f5f	-0.098723166
139	0xbe19ab3f	-0.15006731
140	0x3e79d760	0.24398565
141	0x3dfbc45a	0.122933105
142	0x3c0ee5d3	0.008721787
143	0x3cd1d93c	0.02561628
144	0x3de4a390	0.111640096
145	0x3d20324f	0.039110478
146	0x3ca09b96	0.01960544
147	0x3d676c20	0.0564996
148	0xbd17de00	-0.03707695
149	0xbcc17a90	-0.023618013
150	0xbd98ab67	-0.074545674
151	0xbd14980f	-0.036277827
152	0xbd8555f5	-0.06510536
153	0xbd8831a6	-0.06650095
154	0x3dd94f9d	0.10610888
155	0x3bb4bdbd	0.0055157826
156	0xbd73f6ea	-0.059561647
157	0x3de5bb7d	0.11217401
158	0x3c0a4819	0.008440041
159	0xbdbeaa25	-0.09309796
160	0x3d1488dd	0.036263335
161	0xbb811dfe	-0.003940343
162	0x3d9496ef	0.07255351
163	0x3db9aed1	0.09066547
164	0x3d2816f9	0.041037533
165	0x3dfb2383	0.12262633
166	0xbce1319c	-0.027489476
167	0xbddad6ad	-0.106854774
168	0x3c96e4d6	0.018419664
169	0xbb03edcc	-0.0020130752
170	0xbd507c63	-0.050899874
171	0x3b658c01	0.0035026076
172	0x3e2cf143	0.16888909
173	0x3cc113cd	0.023569012
174	0x3d1d2886	0.038368724
175	0x3dc8842b	0.09790834
176	0x3d93bd36	0.072138235
177	0xbd55431e	-0.05206596
178	0xbe0d6fe6	-0.13812217
179	0x3dacb29a	0.08432503
180	0x3d5a641d	0.05331813
181	0x3d7a404f	0.061096486
182	0x3cdb3658	0.026759312
183	0xbe139f7d	-0.14416309
184	0x3d938e0c	0.07204828
185	0x3d681710	0.05666262
186	0x3e1af120	0.15131044
187	0xbb39dc4c	-0.0028360067
188	0x3cdfa6ab	0.027301153
189	0xbc5eb800	-0.013593674
190	0x3d778eb5	0.06043883
191	0xbd8d3d63	-0.06896474
192	0xbcd66108	-0.026169315
193	0xbd8db2e3	-0.069188856
194	0xbd3cdb3f	-0.046107527
195	0x3df0449c	0.11731836
196	0x3d964cc0	0.07338858
197	0x3dc2e633	0.09516563
198	0xbda806c0	-0.082044125
199	0xbb4c83ff	-0.0031206605
200	0x3e1db5b9	0.15401353
201	0xbd881df5	-0.06646339
202	0x3c9b4fab	0.018958887
203	0x3c9169a3	0.017750567
204	0x3dad2dfe	0.08456038
205	0x3d52bcfc	0.05144976
206	0xbaace5da	-0.001319106
207	0xbd6636df	-0.056204673
208	0x3e07e7c8	0.13272011
209	0xbd35691d	-0.044289697
210	0x3d41fa63	0.047357928
211	0x3d3db445	0.046314497
212	0xbd847ed2	-0.064695016
213	0x3e444fdc	0.19171089
214	0x3e11618b	0.14197366
215	0xbd696f1e	-0.056990735
216	0xbdac10f6	-0.084016725
217	0x3e1c1fba	0.15246478
218	0xbe01ec6b	-0.12687843
219	0xbc79caaf	-0.015246077
220	0x3cf35beb	0.029706916
221	0xbc2cc638	-0.010545306
222	0xbca9bbe3	-0.020719474
223	0xbd959a7a	-0.07304855
224	0x3ce8da83	0.028424507
225	0x3e594c52	0.2122052
226	0x3dceb806	0.100936934
227	0xbe1f33c7	-0.15547095
228	0x3e286224	0.16443688
229	0xbe263ec1	-0.16234876
230	0x3d74c2b7	0.059756007
231	0x3d15a7ba	0.03653691
232	0x3e424d32	0.1897476
233	0x3aea5e74	0.0017880932
234	0xbc1701d9	-0.009216749
235	0x3e142ecd	0.14470978
236	0x3d169eb6	0.036772452
237	0xbe171fb9	-0.14758195
238	0xbccc5445	-0.024942527
239	0xbd97cd99	-0.074122615
240	0x3d0211d5	0.031755287
241	0x3d071168	0.032975584
242	0x3d0e2c94	0.03471048
243	0x3e649a10	0.22324395
244	0xbd0c2306	-0.03421309
245	0x3da42476	0.08014767
246	0xbdd46032	-0.1036991
247	0xbd32713e	-0.043565027
248	0x3df5ec16	0.120079204
249	0x3b1813f8	0.0023205262
250	0xbab5ffdd	-0.0013885457
251	0xbd866e23	-0.06563976
252	0x3e132686	0.14370164
253	0xbcad7c35	-0.02117739
254	0x3e442316	0.19154009
255	0xbc5cc2fb	-0.013474221

net.fc2.bias f4 [128]
0	0xbd95be84	-0.073117286
1	0x3da50ffb	0.08059689
2	0xbe0dc88e	-0.13846037
3	0x3d5041ce	0.050844006
4	0xbca9bd3f	-0.020720122
5	0x3d913384	0.07089904
6	0x3c8437be	0.016139861
7	0x3d3c3323	0.045947205
8	0xbaf00813	-0.0018312953
9	0xbd3399bd	-0.043847788
10	0x3d2a4859	0.041572902
11	0x3d397ed2	0.04528696
12	0x3d7010f8	0.058609933
13	0x3b7674e6	0.0037606298
14	0xbb921da6	-0.004459101
15	0xbb5c776c	-0.0033640517
16	0x3d9d0944	0.07667783
17	0x3ca3c67d	0.019992108
18	0xbd80f000	-0.06295776
19	0xbd6318d4	-0.0554436
20	0xbd4ebe8e	-0.050474696
21	0xbd18d8c2	-0.03731609
22	0x3cc8eaad	0.024525965
23	0xbcafc411	-0.021455796
24	0x3c0ea106	0.008705383
25	0xbbb2c688	-0.0054557957
26	0x3d6bcd11	0.057568613
27	0x3b611ea0	0.003435053
28	0x3d21f740	0.039542437
29	0xbc0ca454	-0.008584101
30	0xbd159ba5	-0.036525387
31	0x3927ccc6	0.00016002645
32	0xbd0a4949	-0.033761296
33	0x3cbd9b85	0.023145447
34	0xbd781eba	-0.060576178
35	0xbc17d197	-0.009266279
36	0x3c2c88e2	0.010530682
37	0xbda34ecb	-0.07974013
38	0x3d4808f1	0.048836652
39	0x3d246a83	0.04014064
40	0x3d8e93ad	0.06961761
41	0xbd78cfb1	-0.060744945
42	0x3d8c29d6	0.06843917
43	0x3cb0189f	0.021496115
44	0x3d4f7b9f	0.050655004
45	0x3d0537ab	0.032523792
46	0xbbc0648a	-0.00587136
47	0xbd4ae106	-0.049531005
48	0x3bd11a91	0.006381341
49	0xbd1d20d2	-0.038361378
50	0x3c92a435	0.017900566
51	0xbd0fe1ba	-0.03512738
52	0x3ca4c776	0.020114642
53	0x3d60ee38	0.054914683
54	0xbd32f5c1	-0.0436914
55	0x3d991fd8	0.07476777
56	0x3c9da8ad	0.01924547
57	0x3cf94b15	0.03043131
58	0x3d8d6db1	0.069056876
59	0xbce3216d	-0.0277259
60	0xbc8e4de2	-0.017371122
61	0x3c456e04	0.012050156
62	0x3d8f142e	0.06986271
63	0x3c8ae342	0.016954068
64	0x3ceeb5fa	0.029139508
65	0xbc884963	-0.016636556
66	0xbd18de5d	-0.037321437
67	0x3d18ec1e	0.037334554
68	0xbcdcad1c	-0.026938014
69	0xbb590222	-0.0033112844
70	0x3c966af6	0.01836155
71	0x3d3dfefd	0.046385754
72	0xbb653fdc	-0.003498069
73	0xbda975a4	-0.08274391
74	0xbb9817bf	-0.0046415026
75	0x3d122071	0.03567547
76	0x3da88bb3	0.082297705
77	0xbc9df0db	-0.019279888
78	0xbcccf92b	-0.025021156
79	0x3c829d44	0.01594413
80	0x3c7338b7	0.014845065
81	0xbd1b2854	-0.037880257
82	0x3d1c2afe	0.038126938
83	0xbd57cbb8	-0.052684516
84	0xbba4521c	-0.005014671
85	0xbcf4dd42	-0.02989066
86	0xbc5ae080	-0.013359189
87	0x3cb7dde0	0.022444665
88	0xbdb73e81	-0.089474685
89	0xbd3a73ae	-0.045520477
90	0xbcd9f8d1	-0.026607903
91	0x3d624251	0.055239026
92	0xbd7a8ca1	-0.06116927
93	0xbcd160a8	-0.025558785
94	0xbd077cfb	-0.033078175
95	0x3b9a64a1	0.004711703
96	0xbd8374b4	-0.06418744
97	0x3de4e1fa	0.11175914
98	0xbd20e2a7	-0.039278653
99	0x3cbf5698	0.02335672
100	0xbd102ace	-0.03519707
101	0xba21938d	-0.00061636494
102	0x3d90b2df	0.07065367
103	0x3d968667	0.07349854
104	0xbb973a05	-0.0046150708
105	0xbc2214fa	-0.0098926965
106	0xbcf4eea7	-0.029898955
107	0x3d44ac33	0.048015784
108	0xbd10caf8	-0.035349816
109	0x3cadf72a	0.021236021
110	0xbd6f0b86	-0.0583606
111	0x3cfe4120	0.031036913
112	0x3d1040dd	0.03521811
113	0x3ce106b2	0.027469013
114	0x3da09026	0.07839994
115	0x3c47dbf7	0.01219844
116	0x3b7594ed	0.00374728
117	0x3c162f29	0.009166517
118	0x3bb37ddb	0.0054776496
119	0x3dd51935	0.104051985
120	0x3cf28239	0.02960311
121	0xba7789d0	-0.0009442838
122	0xbd38755d	-0.0450338
123	0xbc7ac1e3	-0.015305015
124	0x3d21d6fb	0.039511662
125	0x3cb34c17	0.021886868
126	0x3d6b318d	0.057420302
127	0x3d090637	0.033453193

net.fc3.weight f4 [64, 128]
0	0xbe262711	-0.1622584
1	0xbdfbaabe	-0.12288426
2	0x3e3e8c74	0.18608266
3	0x3e2bab96	0.16764674
4	0x3de76f43	0.11300518
5	0x3d49440d	0.049137164
6	0xbdba4616	-0.09095399
7	0xbe68161b	-0.22664683
8	0x3cbc4aef	0.02298495
9	0xbd0883ab	-0.033328693
10	0x3daf95f5	0.08573524
11	0xbd3c91f2	-0.04603762
12	0xbd876a50	-0.066120744
13	0xbd7ce059	-0.061737392
14	0x3e1b18cc	0.15146178
15	0x3dbc2355	0.091864266
16	0xbbbab1df	-0.0056974734
17	0x3e32468f	0.17409728
18	0x3e0603f1	0.13087441
19	0xbdbd131a	-0.09232159
20	0x3e3e8165	0.18604048
21	0xbd7f2d50	-0.062299073
22	0x3dff4bf2	0.12465657
23	0x3b099417	0.002099281
24	0x3d1903f2	0.03735728
25	0x3d2359e9	0.039880667
26	0x3dd6c08c	0.10485944
27	0x3cdcd5a8	0.026957348
28	0x3d89f82d	0.06736789
29	0x3e32c6f7	0.17458712
30	0xbe638927	-0.22220288
31	0x3bac61af	0.005260668
32	0x3d5197ac	0.051170036
33	0xbefb7c9c	-0.49118507
34	0x3e01d701	0.12679674
35	0xbe2a5034	-0.16632158
36	0x3cac03fc	0.020997994
37	0x3e8f456a	0.27982646
38	0xbdcf866c	-0.10133061
39	0xbde58357	-0.11206692
40	0xbdef5c5e	-0.116875395
41	0xbd544248	-0.051821023
42	0xbe2a3d7e	-0.1662502
43	0x3d830be5	0.06398753
44	0xbc58300b	-0.013195048
45	0xbdb248fd	-0.08705328
46	0x3d6b50d3	0.057450127
47	0xbe01127f	-0.12604712
48	0xbdf60ef4	-0.12014571
49	0x3d4e0ec7	0.05030706
50	0xbda13903	-0.07872202
51	0xbe1ea4b9	-0.15492524
52	0x3d482e55	0.04887231
53	0x3d04b6cd	0.032400895
54	0x3d604d0f	0.05476099
55	0xbe24bdba	-0.16088
56	0xbd8310c7	-0.063996844
57	0xbd87fc4d	-0.066399194
58	0x3dbf5e69	0.09344179
59	0x3e818e4d	0.2530388
60	0xbd78e4d6	-0.06076511
61	0x3cc71bef	0.024305312
62	0x3e109ffc	0.14123529
63	0xbc810ccb	-0.01575317
64	0x3dec98af	0.115525596
65	0x3e0a5ac0	0.13511181
66	0xbd43f82c	-0.047844097
67	0x3dae65e9	0.085155316
68	0x3d908322	0.070562616
69	0xbd4ae66e	-0.04953616
70	0x3d94546c	0.07242665
71	0x3e08b6f9	0.13351049
72	0xbe04ad4c	-0.12956733
73	0xbd92cc1e	-0.071678385
74	0xbe455332	-0.19270018
75	0xbb59a678	-0.0033210795
76	0x3e166167	0.14685594
77	0xbd921698	-0.07133216
78	0x3c98868e	0.018618848
79	0x3cf83c6b	0.030302247
80	0x3d5aad0b	0.053387683
81	0xbdd261bd	-0.10272548
82	0xbd815a74	-0.06316081
83	0x3db22774	0.08698931
84	0x3db67399	0.08908767
85	0x3e9a671a	0.30156785
86	0xbcd05170	-0.025429457
87	0x3d399ef3	0.0453176
88	0x3d79a46b	0.060947817
89	0x3eb3c7c0	0.35113335
90	0xbda10785	-0.07862762
91	0x3df0eced	0.1176394
92	0xbda5542c	-0.08072695
93	0x3dc9ca8b	0.09853085
94	0xbdc68553	-0.09693398
95	0x3d10b6f0	0.035330713
96	0xbda2b19e	-0.07944034
97	0x3dbd127b	0.092320405
98	0xbbab8d7c	-0.005235372
99	0x3db4cc22	0.08827998
100	0x3dc7128f	0.09720337
101	0x3ded9020	0.11599755
102	0xbd6d34c9	-0.057911668
103	0xbc01cd34	-0.007922459
104	0xbd9375dd	-0.07200215
105	0x3d9512c5	0.07278971
106	0x3e2094dc	0.15681785
107	0x3e0d2b43	0.13786034
108	0x3d089f8e	0.03335529
109	0x3d8276ea	0.06370337
110	0xbdb1a9eb	-0.086749874
111	0xbe2b4f5d	-0.16729493
112	0x3e54a464	0.20765835
113	0xbe8872e0	-0.26650143
114	0x3cdd749a	0.027033139
115	0x3c8cd6de	0.0171923
116	0x3c36b157	0.01115068
117	0xbe1d7d95	-0.15379937
118	0xbe21c4a7	-0.15797673
119	0x3af40dd7	0.0018619847
120	0xbd39b55c	-0.045338973
121	0x3e5a1f80	0.21301079
122	0x3e853de9	0.26023796
123	0x3e8f7c12	0.28024346
124	0xbda2844b	-0.07935389
125	0x3cdf1e22	0.027236048
126	0xbd85840c	-0.065193266
127	0x3de9a0f8	0.114076555
128	0xbd3054e4	-0.043049708
129	0x3d8987b3	0.06715336
130	0x3ace6b44	0.001574852
131	0x3d1f297b	0.03885792
132	0x3caf28ea	0.021381814
133	0xbd039306	-0.032122634
134	0x3da7929e	0.08182262
135	0xbdf94419	-0.12171192
136	0x3df44735	0.11927644
137	0x3e1fe0b7	0.15613066
138	0xbd5d65cf	-0.05405217
139	0xbc2cc429	-0.010544815
140	0xbe1d9b65	-0.1539131
141	0x3d03a9d1	0.03214437
142	0x3dc769f9	0.097370096
143	0x3d3fc4a3	0.046818387
144	0xbe1216f9	-0.14266576
145	0x3d129bae	0.035793
146	0x3d183833	0.03716297
147	0x3e6e97cf	0.23300098
148	0xbd000bca	-0.031261243
149	0x3e09feac	0.13476056
150	0x3d503b48	0.050837785
151	0xbdd0876c	-0.1018208
152	0x3db7f4d9	0.08982248
153	0x3d51dcd7	0.051236
154	0xba9b74ea	-0.0011860405
155	0xbd2cbf2e	-0.04217451
156	0x3deb74c8	0.11496884
157	0xbd57d3bf	-0.05269217
158	0x3dbf9421	0.09354425
159	0xbe2346b3	-0.15944938
160	0x3dc20a7f	0.09474658
161	0x3e88c8fb	0.26715836
162	0x3df65f5e	0.120299086
163	0xbcc853d9	-0.024454044
164	0xbd32a425	-0.04361357
165	0xbd22df85	-0.039763946
166	0xbdbd57ca	-0.0924526
167	0x3d93e34a	0.07221086
168	0xbc1d6d97	-0.009608648
169	0x3b0bb304	0.0021316418
170	0x3daf5e2c	0.08562884
171	0x3d3c5c92	0.04598672
172	0x3e1e88e2	0.15481904
173	0xbe1860a6	-0.14880618
174	0xbe448701	-0.19192125
175	0xbe5bc28d	-0.21460934
176	0x3e5f2012	0.21789578
177	0x3cf40187	0.029785885
178	0xbd5cdcf8	-0.05392167
179	0xbdefd94a	-0.117113665
180	0x3d12fa90	0.035883486
181	0x3da4057c	0.080088586
182	0x3dc3b12a	0.09555276
183	0xbd9136b0	-0.07090509
184	0xbdf0fabc	-0.11766574
185	0xbe0a498c	-0.13504618
186	0xbe84ed91	-0.259625
187	0xbdbe8ee2	-0.093045965
188	0x3dca2493	0.09870257
189	0xbd769c06	-0.06020739
190	0xbe822362	-0.2541762
191	0x3daeb1ea	0.08530028
192	0x3e60b922	0.21945623
193	0xbc3e3331	-0.011608885
194	0xbe7c9b0b	-0.24668519
195	0xbe6b1082	-0.22955516
196	0xbd9e871a	-0.07740612
197	0x3dd35443	0.10318806
198	0x3d8666bc	0.06562564
199	0xbd076359	-0.03305373
200	0x3d2e1113	0.042496752
201	0x3d8edb03	0.06975367
202	0xbd617580	-0.055043697
203	0xbe11b259	-0.1422819
204	0x3e64ae0d	0.2233202
205	0xbe65d11e	-0.22443053
206	0xbe3c2b9c	-0.1837601
207	0xbe44794a	-0.19186893
208	0xbe830c58	-0.25595355
209	0xbe908d5d	-0.28232852
210	0xbd9f5b92	-0.077811375
211	0x3dc46f05	0.09591488
212	0xbe201d96	-0.15636286
213	0xbd91afe2	-0.07113625
214	0xbdd97067	-0.10617142
215	0x3c5c4345	0.013443773
216	0xbd06ab33	-0.032878112
217	0xbe62243c	-0.22084135
218	0x3ca97f33	0.020690536
219	0xbcbebbb3	-0.023282861
220	0xbde7022d	-0.11279712
221	0xbd8553bf	-0.06510114
222	0x3d0bb0e4	0.034104243
223	0xbc24c640	-0.010057032
224	0xbe7d14be	-0.24714944
225	0x3d196714	0.03745182
226	0x3e1fec9d	0.15617605
227	0x3e03f049	0.1288463
228	0xbd838ea6	-0.064236924
229	0x3c31f1b7	0.010860852
230	0x3e71acf7	0.23601137
231	0x3d8824ba	0.0664763
232	0x3d52bb57	0.051448192
233	0xbdd2dfc4	-0.10296586
234	0xbde18434	-0.11011544
235	0x3e383de3	0.17992358
236	0x3cef5faf	0.02922043
237	0x3d8fc74c	0.07020435
238	0x3e8fff8e	0.2812466
239	0xbe93c299	-0.28859404
240	0x3bba712f	0.005689762
241	0x3db4f281	0.088353164
242	0x3d1998ff	0.037499424
243	0x3dcd77a9	0.10032589
244	0xbcc8f5c4	-0.024531253
245	0x3ddf049a	0.108895496
246	0xbd603307	-0.054736163
247	0x3d2c0113	0.041993212
248	0x3e0bb141	0.13641836
249	0x3d0f5266	0.03499069
250	0xbe2c5b0a	-0.16831604
251	0xbe415c85	-0.1888295
252	0x3c61e92c	0.013788503
253	0xbc93293d	-0.017964
254	0xbe31110b	-0.17291658
255	0xbdb26239	-0.08710141

net.fc3.bias f4 [64]
0	0x3dcf32ed	0.10117135
1	0x3be1d2c8	0.006891582
2	0xbbb2517a	-0.0054418417
3	0x3d66ae5a	0.05631862
4	0x3cc1a4da	0.023638178
5	0xbbdfa006	-0.006824496
6	0xbcb244f3	-0.021761393
7	0x3d747fba	0.059692122
8	0x3dea23d4	0.11432615
9	0x3d595356	0.05305799
10	0x3d3ac25f	0.045595523
11	0xbba18a7b	-0.0049298382
12	0xbcd82f02	-0.026389603
13	0xbdbeb6c7	-0.09312206
14	0x3e232761	0.1593299
15	0xbd1ad4bd	-0.03780054
16	0x3dd24f27	0.10269003
17	0x3e045a23	0.1292501
18	0xbe0a7e46	-0.13524732
19	0xbd6f4459	-0.05841479
20	0x3d4b3c9c	0.04961835
21	0x3d028379	0.031863663
22	0xbce9f165	-0.028557489
23	0xbc8fa86e	-0.017536368
24	0x3dc6840c	0.09693155
25	0x3d9140e3	0.07092454
26	0x3d421c96	0.047390543
27	0xbcc477b8	-0.023982868
28	0x3d48e617	0.049047556
29	0x3d0ff40f	0.03514486
30	0x3ce52b07	0.027974619
31	0xbd4968fb	-0.049172383
32	0x3d2eec6b	0.042705934
33	0xbc8b0d2c	-0.016974054
34	0xbc67821e	-0.014130143
35	0xbafb2470	-0.001916064
36	0x3c0fdf9a	0.008781338
37	0xbd4820b8	-0.048859328
38	0x3c93203f	0.017959712
39	0xbd3e875b	-0.046515804
40	0xbcae6757	-0.02128951
41	0x3c8cd5f4	0.017191865
42	0x3d3a113a	0.045426585
43	0x3baf0d66	0.0053421734
44	0xbd937f87	-0.07202058
45	0xbd372355	-0.04471143
46	0x3d356974	0.04429002
47	0xbc7b3a6f	-0.015333756
48	0x3d67e44b	0.0566142
49	0x3dded947	0.10881286
50	0xbc172b7c	-0.009226676
51	0x3d92fe74	0.07177439
52	0x3b6a04af	0.0035708358
53	0x3c5aa75f	0.013345568
54	0x3c75cefb	0.015002961
55	0xbd016094	-0.031586245
56	0x3d412ffe	0.04716491
57	0xbd914b5c	-0.07094452
58	0xbdbb36da	-0.091413215
59	0x3ac2ca5d	0.0014861334
60	0x3d7beea1	0.06150687
61	0x3dfb180d	0.12260447
62	0xbc84d6ee	-0.016215768
63	0x3d4429b6	0.04789134

net.fc4.weight f4 [2, 64]
0	0x3e1e4dd8	0.15459383
1	0xbe6d0338	-0.23145759
2	0x3ecfa7c5	0.40557685
3	0xbd9ce267	-0.0766037
4	0xbe38eb7c	-0.1805858
5	0x3e855da1	0.26047996
6	0xbc1b5f20	-0.009483129
7	0x3e9b5c04	0.3034364
8	0x3e147905	0.1449929
9	0x3ea0f43f	0.31436345
10	0xbd20f927	-0.03930011
11	0x3e3a1949	0.18173708
12	0xbe0ffc60	-0.14061117
13	0xbc67e49f	-0.014153629
14	0x3d0eaaa4	0.034830704
15	0x3a774e6a	0.0009433987
16	0x3edb112f	0.42786548
17	0x3eae6be6	0.34066695
18	0xbe2091dd	-0.15680642
19	0x3eaca026	0.33715934
20	0x3e800fdd	0.25012103
21	0xbf4a88ea	-0.79115164
22	0xbd9cc530	-0.07654798
23	0x3e68b5e4	0.22725636
24	0x3d8721e9	0.06598265
25	0x3e03896d	0.12845393
26	0x3dd83e1f	0.10558724
27	0x3ea2f30f	0.31826064
28	0xbc270d29	-0.010196009
29	0xbdbadbef	-0.0912398
30	0x3edb7abc	0.42867076
31	0xbac79543	-0.0015226979
32	0xbe399eb4	-0.18126947
33	0xbcf2c136	-0.029633146
34	0xbd205eba	-0.03915284
35	0x3c963cdf	0.018339572
36	0x3e655879	0.22397031
37	0xbe6118b4	-0.2198208
38	0xbd125696	-0.035727106
39	0xbd379093	-0.04481561
40	0xbe5d593b	-0.2161607
41	0xbd81c176	-0.06335728
42	0x3e343f21	0.17602207
43	0x3da4c31c	0.08045027
44	0xbe8bd879	-0.27313593
45	0x3eb7292b	0.35773596
46	0x3e22bce2	0.15892366
47	0xbce641c3	-0.02810753
48	0x3e4d69db	0.20059912
49	0x3ded6e56	0.115933105
50	0x3eb2bc7c	0.34909427
51	0xbd5955ff	-0.053060528
52	0x3cd07c32	0.025449846
53	0xbddfdc85	-0.10930733
54	0x3dc4ed37	0.09615558
55	0xbd7234c2	-0.059132345
56	0xbe7fdb1a	-0.24985924
57	0xbd36c360	-0.044619918
58	0x3df64aca	0.12025984
59	0x3edf7e6a	0.43651134
60	0x3ecfb169	0.4056504
61	0x3dd5bcee	0.10436426
62	0xbd85668f	-0.06513702
63	0x3ce00337	0.027345283
64	0xbdbb0e1c	-0.091335505
65	0x3d02f0d0	0.031967938
66	0xbef471c4	-0.47743046
67	0xbaeee725	-0.0018226845
68	0x3d05f076	0.032700025
69	0x3d0f7ad1	0.035029236
70	0x3e12b987	0.14328586
71	0xbdcd8722	-0.1003554
72	0x3db1bbd1	0.08678401
73	0x3d3e9ac3	0.04653431
74	0x3e0c7f28	0.13720381
75	0xbe02f5eb	-0.12789123
76	0x3e29a99a	0.16568604
77	0x3e1072f1	0.14106347
78	0xbe0e474c	-0.13894385
79	0xbeaac78c	-0.33355367
80	0xbc3a1efa	-0.011359924
81	0xbdd79b44	-0.105276614
82	0x3e028619	0.12746467
83	0xbeb0a6c1	-0.34502223
84	0x3dedc845	0.11610464
85	0x3e0b6af6	0.13615021
86	0x3e01d0b5	0.12677272
87	0x3e0ad854	0.13559085
88	0x3e00585c	0.12533706
89	0xbed5f466	-0.41788024
90	0xbeeed3a8	-0.46645856
91	0xbe049680	-0.12948036
92	0x3d222c10	0.039592803
93	0x3e232512	0.1593211
94	0xbe1a5388	-0.15070927
95	0xbb159a58	-0.0022827592
96	0xbd9dbed7	-0.077024154
97	0x3e35fd9a	0.17772523
98	0xbca425e1	-0.020037593
99	0x3e590181	0.2119198
100	0xbdc965c4	-0.098338634
101	0x3caa9689	0.020823734
102	0x3c5edadd	0.013601986
103	0xbeba775c	-0.3641919
104	0x3d9bac13	0.0760118
105	0xbd641df9	-0.055692647
106	0xbd541cb8	-0.0517852
107	0xbe61f6bc	-0.22066778
108	0x3da45d64	0.08025625
109	0xbe87f993	-0.26557598
110	0xbe03f6ba	-0.12887087
111	0xbc5ca4cf	-0.013467028
112	0xbea98bd4	-0.33114493
113	0xbe4bfd58	-0.19920862
114	0x3e06bea3	0.1315866
115	0x3e07ca78	0.1326083
116	0x3e0338af	0.12814592
117	0xbde7e135	-0.11322252
118	0xbe2d7de1	-0.1694255
119	0xbe904f8a	-0.28185683
120	0x3dd543ef	0.10413348
121	0x3cfe1e6c	0.031020366
122	0xbe09bf8d	-0.13451977
123	0xbe221700	-0.15829086
124	0xbd855c37	-0.06511729
125	0xbe6f2eb7	-0.23357664
126	0xbc150339	-0.009095007
127	0x3e0e4bc6	0.13896093

net.fc4.bias f4 [2]
0	0xbe00162f	-0.12508462
1	0xbbfb6373	-0.0076717674
