scores/checkpoint_actor_e3200_r077.pth (torch, 193791 bytes, 8 tensors)

net.fc1.weight f4 [256, 24]
-0.0066244816 -0.17604333 0.008337248 -0.19384064 0.060215924 -0.117411904 0.034614015 -0.1296378
-0.007920663 -0.22496472 -0.031569548 -0.07656036 0.12634002 0.017189927 0.0007125569 -0.0347418
-0.004377129 -0.2221035 -0.017472789 0.10274468 0.05500132 0.20040396 0.0057221157 0.102705345
-0.04802383 0.17270046 0.0005835306 0.008682354 0.01672576 -0.08924816 -0.0026274943 -0.0005095178
-0.12988745 0.16525334 0.02055076 0.04496601 0.15936753 -0.21791136 -0.010796827 0.02264628
-0.092738904 0.2595111 0.026159532 -0.009927951 0.23316935 -0.42167744 -0.06136936 -0.020124916
-0.049097188 -0.007891498 -0.03158279 0.00015125601 -0.13253142 -0.1275257 0.060862415 -0.036975503
-0.024335485 0.022984907 0.0063639735 0.061070688 0.022918185 0.088840686 0.008675736 0.040272854
0.027171837 0.05286824 -0.027362525 -0.031514153 0.054785073 0.46243203 -0.0008447459 0.014709735
0.03936226 0.06466706 0.039398074 0.016100947 0.012164027 -0.10463942 -0.03775783 0.06123945
0.03746527 0.007024093 -0.026529374 0.08647669 -0.05922539 0.09930407 0.03417789 0.029124785
0.005706219 0.0496444 -0.0035406514 0.09114911 -0.17226583 0.31196028 -0.0010667259 0.077832654
0.032647587 0.07890364 0.0026005495 0.031078339 0.2248954 0.031195981 0.04408213 0.066355385
0.010308542 0.094080254 -0.05026071 -0.008129707 0.18899839 -0.014635133 0.016421141 0.03806254
0.044345837 0.11385121 -0.007904418 0.20276771 0.055504005 -0.01171389 0.0065622204 0.13344021
-0.051090308 -0.10923513 -0.0236241 0.0831915 0.054731265 0.105068095 -0.063397884 0.023031637
-0.08055979 0.005647615 0.018318936 0.06627837 0.14951622 -0.08458076 0.029025987 0.08095729
0.004670927 0.037433445 -0.024612056 -0.02252155 0.104207665 -0.13395475 0.04871511 0.0126993405
-0.01447566 0.12657064 -0.04977328 -0.059768163 0.22785413 0.098283984 -0.015520714 -0.11269989
0.037331928 0.10897662 -0.0027215562 0.09890876 0.007593236 0.12064663 0.06445821 0.12051814
-0.011520909 0.14335513 -0.050049614 0.10435227 -0.13510832 -0.009611929 0.031176278 0.10962809
0.0059506553 0.20713507 0.039508834 0.097345226 -0.023307493 0.13332471 -0.019506037 0.10946486
-0.009537963 0.23508812 0.03170056 0.06944808 0.010049123 0.0935209 -0.023146847 0.1125111
0.014229766 0.205945 -0.039881624 0.12687609 0.06346988 0.12592372 0.044551 0.1069264
0.010098898 -0.027121967 -0.036426213 0.015785728 0.04894916 -0.2150282 -0.0751679 0.06012928
-0.023578512 -0.023579972 0.10713433 -0.013168643 0.0671815 -0.12803823 0.00075407967 -0.038524233
0.05844948 -0.02491285 -0.06934014 0.13433024 0.09770321 0.09453297 -0.09294325 0.13153222
0.016373897 0.010233295 -0.032434225 -0.22782353 -0.0413699 0.028284531 -0.007920042 -0.1884476
-0.015598743 -0.06190381 0.035453483 0.046834722 0.037737727 -0.0642728 0.026389426 -0.028945541
-0.07335711 0.013842437 -0.009531762 -0.1707745 0.10496413 -0.052462503 0.003984769 -0.14380993
-0.060038693 -0.089825414 0.05025913 0.014991829 0.00043530244 0.2127461 -0.016672662 0.042898662
-0.02018405 -0.03822565 -0.015225229 -0.011395258 0.106325656 -0.042092472 0.027318876 0.05001481
00000000: 2e12 d9bb b444 34be f498 083c 297e 46be
00000010: f9a4 763d a775 f0bd 6dc7 0d3d c5bf 04be
00000020: abc5 01bc 275d 66be 124f 01bd aecb 9cbd
00000030: 475f 013e e4d1 8c3c e2ca 3a3a 6b4d 0ebd
00000040: 056e 8fbb 1a6f 63be 1823 8fbc ce6b d23d
00000050: 1049 613d b236 4d3e 9680 bb3b 2e57 d23d
00000060: a3b4 44bd 64d8 303e 13f8 183a 6f40 0e3c
00000070: 7604 893c bdc7 b6bd 0a32 2cbb 2991 05ba
00000080: 3701 05be 2c38 293e 115a a83c 472e 383d
00000090: 3e31 233e 2824 5fbe 2de5 30bc b184 b93c
000000a0: e5ed bdbd a4de 843e 844c d63c d8a8 22bc
000000b0: f2c3 6e3e 1be6 d7be 705e 7bbd 02dd a4bc
000000c0: 221a 49bd 574b 01bc f55c 01bd 7a9a 1e39
000000d0: 51b6 07be 1996 02be de4a 793d a073 17bd
000000e0: 365b c7bc d84a bc3c e188 d03b 4225 7a3d
000000f0: ebbe bb3c 1bf2 b53d ad24 0e3c 26f5 243d
00000100: 7997 de3c 5e8c 583d 6027 e0bc fc14 01bd
00000110: 5066 603d e4c3 ec3e f071 5dba 1a01 713c
00000120: 523a 213d 2a70 843d e05f 213d 22e6 833c
00000130: a14b 473c 314d d6bd f4a7 1abd 38d6 7a3d
00000140: 2f75 193d 5d2a e63b 2154 d9bc b11a b13d
00000150: 5396 72bd ef5f cb3d 1dfe 0b3d 1a97 ee3c
00000160: 3cfb ba3b ed57 4b3d 460a 68bb 62ac ba3d
00000170: 7466 30be 42b9 9f3e 62d1 8bba ba66 9f3d
00000180: 7ab9 053d 3b98 a13d fb6d 2a3b 0098 fe3c
00000190: fb4a 663e b78e ff3c 778f 343d 55e5 873d
000001a0: 29e5 283c 26ad c03d 2dde 4dbd 7632 05bc
000001b0: cb88 413e 32c8 6fbc a185 863c 77e7 1b3d
000001c0: fba3 353d d32a e93d 8881 01bc 57a2 4f3e
000001d0: 2b58 633d 9eeb 3fbc e507 d73b 8da4 083e
000001e0: 1244 51bd abb6 dfbd 5487 c1bc 4e60 aa3d
000001f0: e42d 603d f12d d73d c0d6 81bd d8ac bc3c
00000200: 88fc a4bd a10f b93b 9811 963c f4bc 873d
00000210: c81a 193e ad38 adbd e8c7 ed3c f0cc a53d
00000220: 930e 993b d053 193d 399f c9bc 1d7f b8bc
00000230: d46a d53d 6f2b 09be 7f89 473d e510 503c
00000240: 522b 6dbc bc9b 013e 11df 4bbd 76cf 74bd
00000250: 9852 693e 1d49 c93d 984a 7ebc 33cf e6bd
00000260: 5de9 183d 222f df3d 235c 32bb ad90 ca3d
00000270: aed0 f83b 9515 f73d aa02 843d 37d2 f63d
00000280: 32c2 3cbc b0cb 123e d300 4dbd a5b6 d53d
00000290: d659 0abe 5a7b 1dbc 6565 ff3c b184 e03d
000002a0: b7fd c23b 371b 543e 04d4 213d ef5c c73d
000002b0: 5bef bebc 4686 083e 20cb 9fbc 1d2f e03d
000002c0: 1e45 1cbc f1ba 703e 72d8 013d cc3a 8e3d
000002d0: 14a5 243c e387 bf3d 759e bdbc 386c e63d
000002e0: f723 693c 3fe3 523e ea5a 23bd ceeb 013e
000002f0: 7ffc 813d 26f2 003e 1c7b 363d 3afc da3d
00000300: d975 253c e32e debc a733 15bd 1251 813c
00000310: ea7e 483d 5a30 5cbe a1f1 99bd 1f4a 763d
00000320: b927 c1bc c92a c1bc 3e69 db3d 4bc1 57bc
00000330: 7496 893d 741c 03be 6ead 453a 96cb 1dbd
00000340: b968 6f3d 0916 ccbc 3402 8ebd de8d 093e
00000350: 9f18 c83d 809a c13d 0859 bebd 62b0 063e
00000360: 8d22 863c 8da9 273c c0d9 04bd 924a 69be
00000370: 7c73 29bd f6b4 e73c 10c3 01bc 68f8 40be
00000380: df91 7fbc d98e 7dbd ac37 113d c4d5 3f3d
00000390: e092 1a3d 75a1 83bd a32e d83c 331f edbc
000003a0: 413c 96bd 64cb 623c 1c2b 1cbc 83df 2ebe
000003b0: 6ff7 d63d ece2 56bd aa92 823b e942 13be
000003c0: 22eb 75bd 63f6 b7bd 84dc 4d3d 4aa0 753c
000003d0: 4e39 e439 1dda 593e 1b95 88bc 82b6 2f3d
000003e0: 0559 a5bc 8092 1cbd 3d73 79bc 2db3 3abc
000003f0: 44c1 d93d 2869 2cbd d6cb df3c 54dc 4c3d

net.fc1.bias f4 [256]
0.1945275 -0.086699985 -0.03374787 -0.29857582 0.09030714 -0.04083358 0.19887386 -0.08725357
-0.16350535 0.052368738 -0.16328931 -0.0590516 0.08193692 -0.036862154 0.24264929 -0.114468634
0.095496275 -0.021678112 0.035093255 -0.04285624 -0.028172683 0.06551303 0.051616378 0.18032327
-0.24700895 -0.03864129 -0.029549316 -0.05740582 -0.18027404 -0.074065894 0.12803638 0.21628687
0.08006913 0.2760518 -0.036718816 0.10357828 0.085252725 -0.16844833 -0.10913224 -0.0020736828
-0.14429669 -0.18554538 -0.10588613 -0.034447327 -0.11327188 -0.2446656 0.24215436 0.21092781
0.24224216 0.28530833 0.17984414 -0.03073304 -0.15650657 0.13441357 -0.036071155 -0.12987769
0.08042175 0.116166614 -0.14496338 0.15688552 -0.16696979 0.010179718 0.021034772 -0.09484481
-0.23509307 -0.12396977 0.17746937 0.047804546 -0.21202412 0.06640066 0.019940462 0.1591658
0.04638279 0.13476156 0.12343002 0.19942829 -0.13600564 -0.1252719 0.13091172 0.015008628
-0.34118795 -0.08420177 0.12604836 -0.023532236 -0.09263802 0.050897613 0.15156402 -0.25278395
-0.006820895 -0.05961106 -0.17970425 -0.10812928 0.06370132 -0.083110176 -0.22945829 -0.21410266
-0.033039726 0.018259268 -0.036270697 0.24125208 0.23772557 -0.10859285 0.015980195 0.15928061
0.053299937 -0.07144748 -0.15187904 0.1626515 0.18640576 -0.0036387946 -0.1876801 0.026757067
-0.06467364 0.10223056 -0.10228689 0.014428196 -0.020731496 -0.040339567 -0.044759843 -0.20595582
0.16854407 0.100005 0.07646249 0.14771132 -0.081703685 0.129188 0.085851565 0.0033020386
0.0029631036 0.002586152 -0.13288699 0.025619224 -0.11143222 0.080618225 -0.17805564 -0.09450232
0.27618966 -0.18293561 -0.1261775 0.007879496 0.18549617 0.1805288 -0.05970522 0.10294717
0.11498574 0.06882449 -0.028915184 0.05552808 0.13152729 -0.13374235 0.07777813 0.16724183
-0.057461664 -0.026458735 -0.044555876 -0.18917486 -0.14366059 0.19335546 -0.21675752 0.14605115
-0.1483715 0.080916315 0.047603652 0.2287604 -0.080597244 0.057409775 -0.076704636 -0.25226256
-0.13209179 -0.007784873 -0.1066195 -0.15360597 0.011950252 0.0358369 0.24504012 -0.0876155
0.1425336 0.07242061 -0.24769711 0.091809615 -0.0626183 0.049388304 -0.2758033 -0.13274917
-0.186097 -0.19736215 0.0809209 0.2111742 -0.092305124 -0.08014455 -0.0026317039 0.036864445
-0.17361978 -0.22038887 -0.37274238 -0.0065681064 0.029837068 0.004902357 0.088790655 -0.047830615
0.052078817 0.14874688 -0.0562552 0.016346263 -0.09570972 0.11449201 0.101868495 -0.23536915
0.0036055148 -0.040062364 -0.09134179 0.21589279 0.11437268 -0.0761142 -0.048928738 -0.14439303
0.3220379 -0.030737659 0.0001622296 0.13919117 0.15567045 0.1225398 0.118537076 -0.0554199
0.021598447 0.016730458 -0.19153634 0.11541076 -0.03402547 -0.16897492 -0.040658813 0.22564393
0.30614766 0.19992693 0.21681003 0.25446343 -0.23045059 -0.2125188 0.16933128 -0.10126273
0.1615925 0.08163302 -0.122152835 -0.08654585 0.07387677 -0.09521196 0.055933785 -0.026007388
-0.08148317 0.095491596 -0.02015835 0.04233697 -0.13919607 0.062976815 0.1977359 0.09121287
00000000: 3832 473e c38f b1bd 353b 0abd eede 98be
00000010: f3f2 b83d 1d41 27bd 97a5 4b3e 00b2 b2bd
00000020: f26d 27be 9a80 563d 5035 27be 17e0 71bd
00000030: 8bce a73d c5fc 16bd 0e79 783e 886e eabd
00000040: 8d93 c33d 4c96 b1bc f2bd 0f3d 068a 2fbd
00000050: 66ca e6bc b22b 863d b26b 533d aaa6 383e
00000060: eaef 7cbe 5446 1ebd 6811 f2bc 5d22 6bbd
00000070: c299 38be dcaf 97bd f81b 033e 4e7a 5d3e
00000080: 49fb a33d a956 8d3e 7866 16bd d920 d43d
00000090: fb98 ae3d b87d 2cbe b980 dfbd a0e6 07bb
000000a0: 83c2 13be 9cff 3dbe d4da d8bd a418 0dbd
000000b0: 16fb e7bd 9e89 7abe 50f7 773e 76fd 573e
000000c0: 540e 783e ef13 923e 1029 383e dbc3 fbbc
000000d0: 4243 20be b6a3 093e 59bf 13bd a8fe 04be
000000e0: 29b4 a43d c3e8 ed3d 4871 14be 99a6 203e
000000f0: 21fa 2abe d5c8 263c 1d51 ac3c ff3d c2bd
00000100: 3dbc 70be dde3 fdbd 88ba 353e b3ce 433d
00000110: da1c 59be 12fd 873d 2e5a a33c 5cfc 223e
00000120: e1fb 3d3d effe 093e e1c8 fc3d ee36 4c3e
00000130: 1045 0bbe 4747 00be b90d 063e c0e6 753c
00000140: 30b0 aebe fa71 acbd d212 013e adc6 c0bc
00000150: 01b9 bdbd 047a 503d 9933 1b3e e66c 81be
00000160: d081 dfbb ba2a 74bd 6404 38be e272 ddbd
00000170: d675 823d ab35 aabd 1df7 6abe ba3d 5bbe
00000180: aa54 07bd 7694 953c 9590 14bd c90a 773e
00000190: 556e 733e ee65 debd e6e8 823c 751a 233e
000001a0: 0951 5a3d 0e53 92bd 2e86 1bbe 1d8e 263e
000001b0: 27e1 3e3e d878 6ebb 362f 40be a331 db3c
000001c0: 9d73 84bd 415e d13d ca7b d1bd 3d64 6c3c
000001d0: 19d5 a9bc 1a3b 25bd 1956 37bd 15e6 52be
000001e0: d196 2c3e 6ccf cc3d 5e98 9c3d a341 173e
000001f0: 4354 a7bd dc49 043e f2d2 af3d 0467 583b
00000200: a130 423b 6e7c 293b 8713 08be 68df d13c
00000210: 9336 e4bd 2b1b a53d 3854 36be 6f8a c1bd
00000220: bb68 8d3e 7953 3bbe ad34 01be 0019 013c
00000230: b5f2 3d3e 8bdc 383e 768d 74bd f7d5 d23d
00000240: a57d eb3d dbf3 8c3d 89df ecbc 6971 633d
00000250: 17af 063e c1f3 08be 244a 9f3d 7141 2b3e
00000260: ec5c 6bbd fdbf d8bc 3980 36bd 0eb7 41be
00000270: c31b 13be f9fe 453e aff5 5dbe 6f8e 153e
00000280: b3ee 17be 74b7 a53d 0cfc 423d 2b40 6a3e
00000290: 2b10 a5bd 8326 6b3d 5217 9dbd 8f28 81be
000002a0: 1243 07be 3f18 ffbb 535b dabd e24a 1dbe
000002b0: fdca 433c b7c9 123d cceb 7a3e c16f b3bd
000002c0: 54f4 113e 4251 943d 50a4 7dbe ae06 bc3d
000002d0: 063e 80bd 644b 4a3d 1736 8dbe 66ef 07be
000002e0: 3690 3ebe 4e19 4abe dbb9 a53d 0d3e 583e
000002f0: 780a bdbd d322 a4bd aa78 2cbb 2cff 163d
00000300: 62c9 31be 9fad 61be 17d8 bebe 4539 d7bb
00000310: de6c f43c f3a3 a03b e0d7 b53d 09ea 43bd
00000320: 9950 553d 1a51 183e da6b 66bd 99e8 853c
00000330: 7503 c4bd c97a ea3d 6ea0 d03d 9c04 71be
00000340: 804a 6c3b 6f18 24bd 6811 bbbd 0013 5d3e
00000350: 393c ea3d c3e1 9bbd 8069 48bd c4db 13be
00000360: 27e2 a43e 8bcd fbbc 2d1c 2a39 2188 0e3e
00000370: 1368 1f3e 26f6 fa3d 91c3 f23d faff 62bd
00000380: 3aef b03c 500e 893c 1a22 44be 7a5c ec3d
00000390: 4b5e 0bbd c307 2dbe db89 26bd 340f 673e
000003a0: 63bf 9c3e a5b9 4c3e 7303 5e3e 0849 823e
000003b0: 3dfb 6bbe 879e 59be 2e65 2d3e d662 cfbd
000003c0: 8178 253e 362f a73d 442b fabd f33e b1bd
000003d0: b44c 973d 7dfe c2bd d31a 653d 720d d5bc
000003e0: a6e0 a6bd 1991 c33d 2023 a5bc 8869 2d3d
000003f0: 6a89 0ebe fdf9 803d 487b 4a3e d0cd ba3d

net.fc2.weight f4 [128, 256]
0.0938539 0.194845 0.014437932 0.0789841 0.061783955 -0.06351986 -0.07605212 -0.041383322
-0.03704651 -0.052284483 0.07358154 0.069286756 -0.14420748 0.0062164436 -0.032334775 -0.108347096
0.030398404 -0.09205334 0.07448534 -0.009623906 0.13708079 -0.017770924 0.009149267 -0.05920884
0.06916022 -0.07506349 -0.19427979 -0.02905534 0.046379842 -0.1563277 0.13950367 0.09228041
0.083651595 0.08384932 0.033145174 -0.040393293 -0.07599125 0.08681254 0.039632123 -0.011336682
-0.19814122 0.0837869 -0.016143225 -0.02295636 0.13597704 0.0032656076 0.029105874 -0.19815908
-0.0168569 -0.094991915 0.1536467 -0.044843525 -0.019158963 0.09070314 0.0049208 0.028907355
0.079074524 -0.01947711 -0.013055471 0.05203199 -0.092244074 0.03613424 -0.002007216 -0.113688156
-0.042294167 0.114913836 -0.018172365 0.02537625 0.09236951 0.18911983 -0.08776483 0.09851072
0.10084597 0.015184535 0.010711258 0.064455174 0.016840322 0.0069930675 -0.042141393 0.028834624
0.062976316 0.10068443 -0.03323902 -0.15304887 0.15707211 -0.0814401 0.14579616 -0.103297524
-0.1698971 0.04468766 -0.0015455002 0.11451802 -0.21439373 0.013858114 -0.07281409 -0.08557847
0.11424576 0.20767763 0.097060524 -0.0012942748 -0.18924783 0.16087075 0.15377419 0.12104163
0.055229448 0.03603879 -0.016389985 -0.10158214 0.09921192 -0.06264262 0.1552434 0.04731194
-0.23416246 0.05213207 -0.11870019 -0.19882773 0.0068228836 0.14618886 -0.013599617 0.024173811
-0.060457844 -0.06503846 0.15118004 0.036633663 -0.019375507 -0.16515404 -0.0783333 0.09122042
0.06645722 -0.1357049 0.06457355 -0.31650174 0.015169039 0.06747486 0.016267257 0.1593442
0.006583229 0.074432984 -0.114115596 -0.047318697 0.17028403 0.22118843 0.043671273 0.15057944
0.025747355 0.043466933 0.012195558 -0.022484874 -0.009882224 0.080435745 0.077166535 -0.062888876
-0.20494643 0.07292866 -0.11633747 0.03521938 -0.10994973 0.01863392 -0.012240217 0.010170374
-0.12032112 -0.034470942 -0.08257926 -0.029266419 0.16558471 -0.054080043 -0.02730637 -0.082205005
-0.004585831 0.018616334 -0.043943122 -0.054757673 0.13463087 0.005029683 -0.12432034 0.030410463
-0.09748312 0.015968887 2.6363356e-05 -0.006431601 0.019343603 -0.0063972967 -0.08588263 0.07656171
-0.019534552 0.058112994 0.19181658 0.061939217 -0.13096824 -0.0385878 0.015471055 0.10588612
0.039155133 -0.13095754 0.019771202 0.10906686 -0.06752413 0.029389402 -0.14287443 -0.051735245
-0.036202285 0.15097253 -0.12588477 -0.004139776 -0.032965727 -0.047940694 0.047299873 0.00052770326
0.0045936196 0.04650721 -0.14454263 0.062950425 0.07337079 0.0915701 0.043510176 -0.052784864
0.018317154 -0.029941678 0.024844335 -0.021000706 -0.0055039898 0.00805345 0.03722157 0.03639201
0.047748238 0.10775143 0.03336848 -0.12926973 -0.010357294 0.15154113 -0.10863559 0.008190965
0.121231295 -0.050926324 -0.16724224 0.02118759 0.06391681 0.07418085 0.16601299 0.044229902
0.091556445 -0.07143056 0.08010305 -0.030235406 -0.011916474 0.015486751 0.047673658 0.016827336
0.10835695 -0.059229128 0.031365722 -0.07982307 -0.02926085 -0.011441954 -0.061053663 -0.14128147
00000000: 7936 c03d 7385 473e 138d 6c3c 6ac2 a13d
00000010: 2c11 7d3d b316 82bd 37c1 9bbd 8f81 29bd
00000020: 15be 17bd 4128 56bd ebb1 963d 37e6 8d3d
00000030: 20ab 13be 4fb3 cb3b 7871 04bd 15e5 ddbd
00000040: 1306 f93c 7686 bcbd c58b 983d 96ad 1dbc
00000050: e85e 0c3e 5494 91bc cfe6 153c f884 72bd
00000060: e0a3 8d3d e3ba 99bd 48f1 46be 7705 eebc
00000070: caf8 3d3d 5e14 20be 0dda 0e3e 83fd bc3d
00000080: 8751 ab3d 31b9 ab3d 3cc3 073d 7073 25bd
00000090: 4da1 9bbd c6ca b13d 4b55 223d 7ebd 39bc
000000a0: 88e5 4abe 7798 ab3d cc3e 84bc fa0e bcbc
000000b0: 913d 0b3e ce03 563b 716f ee3c 37ea 4abe
000000c0: 7b17 8abc 1f8b c2bd 8f55 1d3e d8ad 37bd
000000d0: 42f3 9cbc 91c2 b93d aa3e a13b 1ecf ec3c
000000e0: d3f1 a13d 768e 9fbc 9de6 55bc 7f1f 553d
000000f0: 76ea bcbd 7f01 143d 7f8b 03bb 56d5 e8bd
00000100: a63c 2dbd f257 eb3d 36de 94bc dae1 cf3c
00000110: 3a2c bd3d a1a8 413e 0cbe b3bd fdbf c93d
00000120: 5588 ce3d 8ec8 783c 467e 2f3c 1301 843d
00000130: b7f4 893c 1a26 e53b 749c 2cbd 9736 ec3c
00000140: baf9 803d a333 ce3d a325 08bd d8b8 1cbe
00000150: 83d7 203e 11ca a6bd 974b 153e a78d d3bd
00000160: 81f9 2dbe 680a 373d 6292 caba 6c88 ea3d
00000170: 088a 5bbe 250d 633c 8e1f 95bd c443 afbd
00000180: aef9 e93d 72a9 543e abc7 c63d a8a4 a9ba
00000190: 2fca 41be 4dbb 243e fb76 1d3e ade4 f73d
000001a0: 4638 623d 699d 133d 4a44 86bc 4c0a d0bd
000001b0: 9e2f cb3d c64a 80bd 20f8 1e3e 2aca 413d
000001c0: 49c8 6fbe 7088 553d 1619 f3bd 7f99 4bbe
000001d0: 7f92 df3b 88b2 153e eed0 5ebc 2808 c63c
000001e0: a5a2 77bd e232 85bd f1ce 1a3e 2e0d 163d
000001f0: 62b9 9ebc 241e 29be 366d a0bd c6d1 ba3d
00000200: b91a 883d 3af6 0abe 233f 843d 840c a2be
00000210: 9087 783c 4230 8a3d e942 853c 202b 233e
00000220: 21b8 d73b 5270 983d 70b5 e9bd 40d1 41bd
00000230: f05e 2e3e 387f 623e a6e0 323d 7f31 1a3e
00000240: 1eec d23c 620a 323d e1cf 473c 3332 b8bc
00000250: 0de9 21bc 7fbb a43d 7d09 9e3d e2cb 80bd
00000260: 7add 51be 9f5b 953d 5742 eebd 3242 103d
00000270: 532d e1bd 2aa6 983c 318b 48bc a4a1 263c
00000280: eb6a f6bd 6731 0dbd 511f a9bd 21c0 efbc
00000290: 0a8f 293e 0983 5dbd 9cb1 dfbc 195b a8bd
000002a0: bd44 96bb 4881 983c b4fd 33bd 9549 60bd
000002b0: addc 093e 0ad0 a43b aa9b febd 5d1f f93c
000002c0: 3ba5 c7bd 2fd1 823c e026 dd37 2ec0 d2bb
000002d0: 7a76 9e3c 6aa0 d1bb 3be3 afbd 63cc 9c3d
000002e0: ed06 a0bc e407 6e3d 916b 443e fab3 7d3d
000002f0: 8a1c 06be 3e0e 1ebd 4f7a 7d3c d2da d83d
00000300: 2261 203d bc19 06be 37f7 a13c 725e df3d
00000310: 174a 8abd 0bc2 f03c ad4d 12be 56e8 53bd
00000320: d948 14bd 8b98 1a3e f0e7 00be f5a6 87bb
00000330: 1207 07bd 765d 44bd 83bd 413d 9155 0a3a
00000340: 1386 963b 587e 3e3d fc02 14be 27ec 803d
00000350: 6d43 963d 1b89 bb3d ba37 323d f134 58bd
00000360: db0d 963c 4048 f5bc 5986 cb3c ac09 acbc
00000370: d05a b4bb 9ef2 033c a575 183d ca0f 153d
00000380: a893 433d c8ac dc3d 63ad 083d 495f 04be
00000390: a4b1 29bc 992d 1b3e 567c debd 6633 063c
000003a0: 1d48 f83d 1f98 50bd 8d41 2bbe 9991 ad3c
000003b0: d1e6 823d 21ec 973d 4fff 293e 6a2a 353d
000003c0: f281 bb3d 2f4a 92bd 110d a43d 3eb0 f7bc
000003d0: 513d 43bc 24bc 7d3c 7445 433d 7bd9 893c
000003e0: 40ea dd3d 3e9a 72bd 5879 003d 477a a3bd
000003f0: 73b4 efbc 0977 3bbc 6813 7abd 17ac 10be

net.fc2.bias f4 [128]
0.039205175 -0.000986797 0.037265602 -0.08258761 -0.07648844 -0.04298892 0.06989044 -0.056396764
0.10646214 0.0013299967 0.024788078 -0.047360692 -0.06328453 0.00801324 -0.075957164 -0.24974592
0.06834786 0.061585143 -0.0151736885 0.0067601562 -0.020284355 0.005952675 -0.13140923 0.039215315
-0.020021372 -0.030044334 -0.01732548 0.018416295 0.00872865 0.034906168 -0.09158284 0.008986527
0.04668182 -0.05303946 0.058442578 -0.046310287 -0.061711237 0.0227515 -0.01109939 -0.036253456
0.12874015 0.121718146 0.045448165 0.05522741 0.03762949 0.049857076 0.06190666 -0.029377833
0.023680246 -0.10113466 -0.033068236 0.00584238 0.07514307 0.04051845 -0.1890383 -0.08928296
0.0016968114 -0.030750778 -0.03660656 -0.051304076 0.07362075 0.020925984 -0.10009382 0.02812195
-0.15159251 -0.011974921 -0.057125375 -0.038172126 -0.032707546 0.011901315 0.026489913 -0.01855776
0.047712673 0.0062534306 0.0042502335 0.017255187 0.032310143 0.060865656 -0.036680635 0.06368376
0.029957188 0.08590813 -0.13129434 0.100905485 0.086863905 0.0051931683 0.066108726 0.13784878
0.035416223 -0.018402275 0.08232 -0.025187055 -0.0049644234 0.07219714 0.008255799 -0.004827023
-0.004635184 -0.022016427 -0.014086807 0.14544015 0.03829662 0.022969136 -0.027122928 0.10901364
-0.048872888 0.094816424 -0.032974068 -0.0024918306 -0.0022036713 -0.11546305 -0.09074055 0.07396311
-0.016175397 0.027232654 -0.017478652 0.06255254 0.052649427 -0.0843041 -0.06563858 -0.029200085
0.02324955 0.0063056424 -0.09765629 -0.05254817 -0.056096878 0.05739176 0.010410788 0.0010705531
00000000: 9b95 203d 6a57 81ba d1a3 183d b123 a9bd
00000010: f9a5 9cbd 2615 30bd b822 8f3d 4b00 67bd
00000020: d308 da3d 4953 ae3a 5e10 cb3c 49fd 41bd
00000030: 529b 81bd f749 033c 6e8f 9bbd 65bd 7fbe
00000040: f6f9 8b3d b440 7c3d 109b 78bc 4d84 dd3b
00000050: 602b a6bc a80e c33b 2490 06be 3da0 203d
00000060: dc03 a4bc 891f f6bc 2aee 8dbc c5dd 963c
00000070: 9d02 0f3c c5f9 0e3d c98f bbbd 3a3c 133c
00000080: 7035 3f3d e83f 59bd 7c61 6f3d dbaf 3dbd
00000090: ecc4 7cbd 5b61 ba3c 37da 35bc 817e 14bd
000000a0: 75d4 033e 5d47 f93d db27 3a3d 2336 623d
000000b0: 6121 1a3d ef36 4c3d d791 7d3d c8a9 f0bc
000000c0: 13fd c13c b01f cfbd 8f72 07bd 7071 bf3b
000000d0: 9ce4 993d adf6 253d 4293 41be fcd9 b6bd
000000e0: 8b67 de3a 0ee9 fbbc c3f0 15bd 3924 52bd
000000f0: 7ac6 963d f86c ab3c fdfd ccbd 0160 e63c
00000100: 113b 1bbe 7632 44bc 4cfc 69bd 605a 1cbd
00000110: 59f8 05bd bcfd 423c 6001 d93c 7206 98bc
00000120: 5d6e 433d 94e9 cc3b 8b45 8b3b c05a 8d3c
00000130: a457 043d 444e 793d 6f3e 16bd a26c 823d
00000140: c768 f53c 9af0 af3d 0672 06be 89a7 ce3d
00000150: b4e5 b13d 742b aa3b 0364 873d 3b28 0d3e
00000160: 9a10 113d 5ec0 96bc 6397 a83d 1555 cebc
00000170: 9aac a2bb 18dc 933d 5543 073c 012c 9ebb
00000180: bee2 97bb cb5b b4bc 5acc 66bc 43ee 143e
00000190: ebdc 1c3d c529 bc3c e730 debc 8b42 df3d
000001a0: f02e 48bd 1d2f c23d d10f 07bd fb4d 23bb
000001b0: 786b 10bb e477 ecbd 2ed6 b9bd f979 973d
000001c0: 4482 84bc 0417 df3c 642f 8fbc 8c1b 803d
000001d0: eda6 573d a1a7 acbd 856d 86bd 0435 efbc
000001e0: d775 be3c 909f ce3b 0500 c8bd c03c 57bd
000001f0: d7c5 65bd 9f13 6b3d 0292 2a3c cd51 8c3a

net.fc3.weight f4 [64, 128]
0.1273956 0.12289973 -0.017529046 0.1777181 -0.003472966 -0.12898695 0.024210928 0.19774811
0.028011978 -0.042432103 -0.06230899 -0.11249502 -0.13434286 -0.0034452754 0.054545473 -0.15626504
0.12630515 0.030803006 0.018845744 0.09283178 0.044904865 -0.0112042 -0.24935783 -0.00985644
-0.3467643 -0.29317528 -0.10711903 -0.14472148 0.03354207 0.1390747 -0.14047115 -0.08927106
0.091095604 0.02722317 0.046578776 0.07457403 -0.06983065 -0.09545913 0.05275559 0.5076594
0.12355998 0.07127844 0.031023258 0.2947024 0.030245824 0.048668355 0.10899893 0.0054786806
-0.09660784 -0.11741283 -0.058499973 -0.016059604 0.08926628 0.047261924 -0.2557501 -0.10017617
0.054589674 0.011383822 -0.0014154668 0.18483524 -0.10582865 -0.086042374 0.03237166 0.49329683
-0.39703038 0.14326708 0.08965177 -0.029693687 0.060343973 -0.07341676 0.015147421 0.0815128
0.01139093 -0.0065950323 0.12437068 -0.0074066017 -0.020529186 0.14088506 0.10275388 -0.08110838
-0.11556228 0.017744916 0.09888441 0.023055788 0.13933182 -0.058302723 0.092517085 0.03924576
0.10638349 0.058758996 -0.4976847 -0.005365198 0.033857286 -0.010907011 0.0025262672 -0.1409407
0.05900029 -0.05915927 0.080574945 0.08170477 0.17939962 -0.0076548364 0.038919613 -0.3922991
-0.061761376 -0.09308041 0.13354336 -0.08795329 0.024739105 -0.06901463 -0.088994786 0.03997012
0.06941383 -0.017343428 0.27770013 0.076578386 -0.12195805 0.10427279 0.07145359 0.16847388
0.26472676 -0.046957303 -0.08129748 0.0012860271 0.0105577065 0.0014781407 -0.1268748 -0.042350505
-0.25694677 0.024688767 0.19743441 -0.056250162 0.06968415 0.01903834 -0.16001643 0.011425752
-0.13459872 0.1317715 -0.07477819 0.06587568 0.16260858 -0.067738876 -0.0074690636 0.14105007
-0.1018318 0.1565747 -0.013220064 0.17604288 -0.034467816 0.26487008 0.1905929 -0.23304218
0.22966447 0.092392996 -0.1727275 0.28718242 0.015154795 0.037501838 -0.024455823 -0.0020739152
-0.12976985 0.019235535 0.13675657 0.24267639 0.16990037 0.075796835 0.041510668 -0.24850896
-0.29072908 0.093774445 0.09667826 -0.08261704 0.21167284 -0.0067324145 0.039501574 -0.12192736
0.086226515 0.24596581 -0.04592423 -0.038304426 -0.023929685 0.09197161 0.33563438 -0.06381972
-0.09411825 0.06449281 0.0021289967 -0.124330506 0.02728929 0.17828348 0.1291453 -0.34801206
0.5899429 -0.13586968 -0.24943304 0.08119555 0.11748913 0.09156042 -0.042194072 -0.2794675
-0.0032272155 -0.11489687 0.06317742 0.085176386 0.01970852 0.11797061 0.056712963 -0.00085932104
0.32369283 0.10221344 0.06360817 -0.14257962 -0.13340874 0.18060277 0.030937217 -0.040485542
0.110811695 -0.08734237 0.28531155 0.016313987 -0.04645728 0.10554932 0.1391085 0.095117204
0.044927023 0.18125017 -0.14844507 -0.054542955 -0.19746447 -0.07091086 0.06119 0.28726113
0.043903157 0.08075704 0.12474688 0.006846764 0.09098119 0.06499984 0.21882895 0.088647515
-0.08629411 -0.11883236 -0.14952147 -0.017659998 -0.10502276 0.09456577 -0.06763762 -0.037158616
-0.1346033 -0.029371856 -0.07513017 -0.09804357 0.069416694 -0.0020588993 0.056845203 -0.058105018
00000000: fe73 023e dbb2 fb3d 1399 8fbc bcfb 353e
00000010: b39a 63bb 2815 04be ff55 c63c 7b7e 4a3e
00000020: 6079 e53c 49cd 2dbd b637 7fbd ca63 e6bd
00000030: 2d91 09be 21ca 61bb 136b 5f3d f103 20be
00000040: 2356 013e 9656 fc3c 6462 9a3c 971e be3d
00000050: 2aee 373d d291 37bc a957 7fbe e87c 21bc
00000060: 178b b1be 121b 96be 3961 dbbd de31 14be
00000070: 6963 093d 9969 0e3e abd7 0fbe bfd3 b6bd
00000080: 5590 ba3d 2003 df3c 63c9 3e3d 45ba 983d
00000090: 5f03 8fbd 1480 c3bd 3f16 583d f7f5 013f
000000a0: 040d fd3d 6efa 913d 7d24 fe3c 3ce3 963e
000000b0: 17c6 f73c 7858 473d d53a df3d 8186 b33b
000000c0: 55da c5bd 2376 f0bd ab9d 6fbd 6e8f 83bc
000000d0: 3dd1 b63d b895 413d adf1 82be 2a29 cdbd
000000e0: 6c99 5f3d 3683 3a3c 2f87 b9ba 7345 3d3e
000000f0: b1bc d8bd fc36 b0bd 2598 043d 6791 fc3e
00000100: 9147 cbbe 9bb4 123e 599b b73d 2d40 f3bc
00000110: 3e2b 773d 875b 96bd e32c 783c 2ff0 a63d
00000120: 06a1 3a3c 241b d8bb 0eb6 fe3d 14b3 f2bb
00000130: d32c a8bc 2c44 103e a070 d23d 261c a6bd
00000140: ebab ecbd c95d 913c e983 ca3d 7edf bc3c
00000150: 00ad 0e3e d6ce 6ebd 9979 bd3d 29c0 203d
00000160: 96df d93d 46ad 703d 87d0 febe 8bce afbb
00000170: f0ad 0a3d 52b3 32bc bb8f 253b c252 10be
00000180: 4aaa 713d fe50 72bd 7a04 a53d d554 a73d
00000190: 89b4 373e 6cd5 fabb 2c6a 1f3d 6ddb c8be
000001a0: 7ff9 7cbd f1a0 bebd 97bf 083e db20 b4bd
000001b0: aaa9 ca3c 8b57 8dbd e642 b6bd b5b7 233d
000001c0: d728 8e3d ce13 8ebc b62e 8e3e 21d5 9c3d
000001d0: 24c5 f9bd f98c d53d 4356 923d 6b84 2c3e
000001e0: 448a 873e 4d56 40bd 4b7f a6bd e98f a83a
000001f0: 3bfa 2c3c 2cbe c13a 78eb 01be b977 2dbd
00000200: 878e 83be 1940 ca3c 3f2c 4a3e 9266 66bd
00000210: 90b6 8e3d 4bf6 9b3c 59db 23be 1433 3b3c
00000220: 3fd4 09be 1cef 063e 4f25 99bd d4e9 863d
00000230: dd82 263e aeba 8abd 0cbf f4bb 6e6f 103e
00000240: 318d d0bd 1e55 203e f898 58bc 9644 343e
00000250: 202e 0dbd 0d9d 873e c92a 433e 9ca2 6ebe
00000260: 2a2d 6b3e 8a38 bd3d 7adf 30be 9309 933e
00000270: d14b 783c 879b 193d 9457 c8bc 86ea 07bb
00000280: 63e2 04be d793 9d3c ea09 0c3e 2980 783e
00000290: 5dfa 2d3e 5f3b 9b3d 1707 2a3d 2279 7ebe
000002a0: 71da 94be d10c c03d 40ff c53d 1f33 a9bd
000002b0: c4c0 583e 969b dcbb 67cc 213d 0db5 f9bd
000002c0: 8797 b03d 76de 7b3e 0c1b 3cbd 1ae5 1cbd
000002d0: 3008 c4bc 9d5b bc3d 45d8 ab3e eab3 82bd
000002e0: 12c1 c0bd ce14 843d a386 0b3b fea0 febd
000002f0: ca8d df3c f28f 363e aa3e 043e a32e b2be
00000300: 7f06 173f 6c21 0bbe 606b 7fbe da49 a63d
00000310: 249e f03d 0884 bb3d b1d3 2cbd 5d16 8fbe
00000320: b17f 53bb 0d4f ebbd 2a63 813d f570 ae3d
00000330: c373 a13c 939a f13d da4b 683d 0f44 61ba
00000340: 11bb a53e 4855 d13d 0045 823d 6400 12be
00000350: 4d9c 08be efef 383e 0c70 fd3c 2bd4 25bd
00000360: 3ef1 e23d 8ee0 b2bd 5b14 923e e9a4 853c
00000370: fd49 3ebd 3e2a d83d 7572 0e3e cfcc c23d
00000380: 6605 383d a599 393e fc01 18be 6f68 5fbd
00000390: 2034 4abe b739 91bd 5ea2 7a3d e413 933e
000003a0: ccd3 333d f263 a53d 4b7b ff3d d25a e03b
000003b0: 5954 ba3d a31e 853d b214 603e d48c b53d
000003c0: f7ba b0bd 615e f3bd 281c 19be b3ab 90bc
000003d0: 2c16 d7bd b3ab c13d 9885 8abd a233 18bd
000003e0: 73d5 09be 3f9d f0bc d9dd 99bd 11cb c8bd
000003f0: 572a 8e3d 99ee 06bb 84d6 683d 87ff 6dbd

net.fc3.bias f4 [64]
-0.06529031 -0.08019826 -0.05750474 -0.04316306 -0.01697253 0.014196525 0.047635283 0.037855703
0.04632777 0.08112731 -0.051522166 0.19735168 0.010405498 0.07528612 -0.12804772 -0.0020898187
0.02099306 0.076560706 -0.12156636 -0.020465376 -0.01613486 0.026562987 -0.13431136 -0.012884991
0.033788554 0.032301284 -0.06282859 0.12013378 -0.0027519471 0.1359036 -0.042969245 0.025348268
0.024977406 -0.0063470583 0.056321938 -0.0749531 -0.107746 -0.21071675 0.011905616 -0.017573277
-0.06480317 0.06599761 -0.0039227363 0.116860345 -0.0676218 0.017193343 -0.04360562 0.12736309
0.15883452 -0.0014947572 0.06507172 -0.0019091613 0.12170799 -0.021446936 -0.16309084 -0.014827892
-0.07854294 -0.06785386 0.058248665 0.028376115 0.067884795 -0.109455936 0.0011087169 -0.096605435
00000000: edb6 85bd fc3e a4bd 178a 6bbd c0cb 30bd
00000010: fa09 8bbc 8b98 683c 371d 433d 950e 1b3d
00000020: 30c2 3d3d 1326 a63d e808 53bd 8f16 4a3e
00000030: d27b 2a3c 9c2f 9a3d f11e 03be 57f5 08bb
00000040: a3f9 ab3c dccb 9c3d c9f7 f8bd 01a7 a7bc
00000050: 412d 84bc 9f9a d93c eb88 09be 921b 53bc
00000060: de65 0a3d 5a4e 043d 47ac 80bd b308 f63d
00000070: 035a 34bb 502a 0b3e 8500 30bd 2ca7 cf3c
00000080: 6b9d cc3c fcfa cfbb d5b1 663d 0381 99bd
00000090: efa9 dcbd 22c6 57be c60f 433c d5f5 8fbc
000000a0: 86b7 84bd c129 873d 4c8a 80bb 7a54 ef3d
000000b0: 4c7d 8abd 0ed9 8c3c ce9b 32bd 786b 023e
000000c0: 84a5 223e bbeb c3ba 5244 853d d33c faba
000000d0: 0a42 f93d 7cb1 afbc 4901 27be b0f0 72bc
000000e0: 1fdb a0bd f7f6 8abd 2796 6e3d 0775 e83c
000000f0: 2f07 8b3d 6f2a e0bd 5e52 913a 12d9 c5bd

net.fc4.weight f4 [2, 64]
-0.055694748 0.3590822 0.026876185 0.020582529 0.08892649 -0.9454913 -0.5500143 -0.48593992
-0.0039611487 -0.049808342 0.24000843 0.114161104 -0.7219446 0.01515395 -0.17224582 0.19193408
0.141121 -0.021977609 0.1674923 -0.31276655 -0.06794486 0.15045811 0.31573132 -0.1428181
-0.032624874 0.15977173 0.046914626 0.017928166 -0.07689738 0.051841695 -0.15649885 -1.1359591
-0.089331396 -0.003920878 0.16878377 -0.06622571 0.4099139 0.82097584 0.16747239 -0.08252103
-0.16242981 -0.09313566 -0.022605883 -0.08205985 -0.047936246 0.04478144 -0.81846577 0.10591115
0.12941854 0.08505556 -0.0027033065 0.059087604 -0.05672629 -0.11155084 0.19888379 -0.3413518
-0.013603724 -0.023213983 -0.25717583 -0.42247075 -0.3201318 0.5682471 -0.041406766 0.26067716
7.120661e-05 0.12955245 -0.054507613 -0.116191305 -0.29187346 0.09495957 -0.0040080156 -0.052986052
-0.10930799 0.11756816 -0.28578368 0.1413033 -0.24110831 -0.21848863 -0.23641422 -0.11843022
-0.006530781 -0.3440016 -0.850721 0.16530716 0.0703766 -0.96753263 -0.21958464 -0.15856083
0.0668838 -0.6565007 0.2684991 -0.19294804 0.07004088 -0.634915 -0.2721769 -0.11388742
0.22325805 -0.18128668 0.1916468 -0.031307016 0.15899996 0.13792989 -0.078203045 -0.015921384
0.11174659 0.012214889 -0.072794564 -0.37669405 0.09848502 0.3569139 -0.016726 0.02171381
0.12451063 -0.25469777 -0.18670674 0.012069748 -0.3932212 -0.19793865 -0.18238536 -0.3025234
0.053322706 -0.31232098 -0.42954564 -0.06959839 -0.065905735 0.09309918 0.04032996 -0.07379101
00000000: 2d20 64bd 9fd9 b73e 722b dc3c b19c a83c
00000010: 171f b63d b80b 72bf bdcd 0cbf 1ecd f8be
00000020: 86cc 81bb d503 4cbd c5c4 753e 4ccd e93d
00000030: 5cd1 38bf 4648 783c 3561 30be 5e8a 443e
00000040: 0682 103e 630a b4bc 1a83 2b3e f022 a0be
00000050: ad26 8bbd b111 1a3e 89a7 a13e e83e 12be
00000060: a9a1 05bd 339b 233e 8d29 403d 17de 923c
00000070: 607c 9dbd f557 543d 3c41 20be 1c67 91bf
00000080: 61f3 b6bd b57a 80bb a7d5 2c3e 58a1 87bd
00000090: 3ce0 d13e 792b 523f e27d 2b3e c900 a9bd
000000a0: 0054 26be e9bd bebd f92f b9bc ff0e a8bd
000000b0: cc58 44bd be6c 373d f986 51bf f2e7 d83d
000000c0: 4b86 043e 9c31 ae3d f529 31bb d805 723d
000000d0: d459 68bd c474 e4bd 31a8 4b3e aac5 aebe
000000e0: 27e2 5ebc 402b bebc 8dac 83be 164e d8be
000000f0: 51e8 a3be a478 113f 249a 29bd 7a77 853e
00000100: c254 9538 66a9 043e 6043 5fbd b5f5 edbd
00000110: 7070 95be 2a7a c23d ac55 83bb e707 59bd
00000120: dedc dfbd 93c7 f03d 3d52 92be d0b1 103e
00000130: 19e5 76be 7cbb 5fbe 9216 72be 8b8b f2bd
00000140: 2900 d6bb fa20 b0be dac8 59bf 4846 293e
00000150: 9b21 903d 38b0 77bf ccda 60be c55d 22be
00000160: 60fa 883d 6e10 28bf b778 893e 2c94 45be
00000170: 9871 8f3d ca89 22bf c55a 8bbe cf3d e9bd
00000180: c29d 643e 37a3 39be 0f3f 443e c93b 00bd
00000190: e3d0 223e 7e3d 0d3e eb28 a0bd 906d 82bc
000001a0: 65db e43d f520 483c 5115 95bd 0bde c0be
000001b0: 84b2 c93d 6bbd b63e f704 89bc 29e1 b13c
000001c0: 6eff fe3d bf67 82be 0d30 3fbe 31c0 453c
000001d0: 4a54 c9be 6eb0 4abe 3ac3 3abe 59e4 9abe
000001e0: e968 5a3d 89e8 9fbe 68ed dbbe 9a89 8ebd
000001f0: 96f9 86bd c8aa be3d 0731 253d be1f 97bd

net.fc4.bias f4 [2]
0.012265674 0.031071993
00000000: f7f5 483c b18a fe3c
