scores/checkpoint_env_solved_actor.pth (torch, 193791 bytes, 8 tensors)

net.fc1.weight f4 [256, 24]
-0.08818412 0.07115461 -0.018278848 0.057839174 -0.017670356 0.18223786 0.06559233 -0.0028674803
0.0034504752 0.05348544 -0.055521905 -0.064835176 -0.031517867 0.05934713 0.046753537 -0.031282708
-0.064496584 -0.00073651574 0.05624011 -0.06268802 0.04512847 0.0042964458 -6.142743e-05 -0.056763425
-0.01204518 -0.08940831 0.05265396 -0.015205275 0.01171193 -0.28610685 -0.00682896 -0.05966029
-0.03535916 0.0053946027 -0.005378242 -0.014733168 -0.026008924 -0.3822536 0.054516535 -0.028399743
0.0076639988 -0.08631283 -0.032953348 0.0009976146 -0.13112235 -0.28840312 -0.030683048 0.061914697
-0.008617592 0.06148982 0.06264083 -0.12918866 0.0028714857 -0.05783563 0.06767935 -0.09321294
-0.0032411783 0.006864303 0.0025879485 -0.15249163 0.062890574 -0.055998936 -0.032897893 -0.16750798
0.03841675 0.090938084 -0.039983142 -0.1160394 0.009658479 -0.035069585 0.004073207 -0.14265051
0.0030844405 -0.016399795 0.016770585 0.07879853 0.008265687 0.07899864 -0.023312429 0.012916845
-0.028521003 -0.062095404 0.025557015 0.07644884 -0.008518613 -0.063110724 -0.020664457 -0.02579165
-0.09814007 -0.089255415 0.015825722 -0.005298836 0.038980063 -0.11912434 0.05138595 0.06897974
-0.02453824 -0.05699895 0.071839996 0.04797482 -0.085491575 -0.06531651 0.08812708 0.021147829
0.045357797 0.03408553 -0.034550488 0.09214464 -0.031148309 -0.020448372 -0.020271353 0.113533005
0.00022780096 -0.034187846 -0.0037045048 0.11992944 -0.043209117 -0.0734249 -0.028729334 0.1591854
0.05613211 0.016567841 -0.03324432 0.06268659 -0.0019599416 -0.028560663 -0.035348468 0.01933592
0.04078468 -0.022799965 0.029701788 -0.021851186 0.07310168 0.0259493 -0.004478525 -0.04646743
-0.024074828 -0.02702654 0.074305736 0.06891228 0.10415931 0.16250421 0.023530163 0.029774092
-0.09928865 -0.02484752 0.023149177 -0.07307981 0.01780491 -0.1571766 0.0130740525 -0.015223699
-0.06049674 0.006488793 -0.07596585 -0.03647037 -0.04912061 -0.30358693 0.025640933 0.009738877
-0.066553004 -0.05574855 0.04872385 0.07587891 -0.149248 -0.32665527 0.008799265 0.047723636
-0.04792308 -0.0024696311 0.004993638 0.032301303 0.21197665 -0.0023177268 -0.00066203094 0.019921197
-0.009851674 0.081324555 0.01659251 0.0011053513 0.14973767 0.056309532 -0.016084865 -0.016668273
-0.1086385 0.03565001 0.043247603 -0.063906625 0.1429609 0.13428469 -0.027995994 0.0021614144
-0.06037559 0.025691764 0.03622284 -0.04287049 -0.030371306 -0.031300854 -0.015131101 0.041333236
-0.0035512093 -0.016437031 0.017037226 0.048670344 0.06692716 0.027502237 0.015829902 0.087074146
0.00046271167 0.06301591 0.032692134 0.09675636 0.06334253 0.082430445 0.062402807 0.083503015
-0.104421094 0.012069606 0.022030247 0.0863426 0.04092187 -0.023225298 -0.053770125 0.12811269
0.010637405 -0.064680085 0.021521317 0.019555151 -0.00017749466 0.024776924 0.024218122 0.085229136
-0.07074789 0.047477476 0.03484863 0.03547214 -0.04140526 0.22630668 0.08165052 -0.023122199
-0.0718331 -0.01723075 -0.026621636 -0.058876883 -0.02110807 0.12955874 -0.022550277 -0.047840107
-0.006446043 -0.06372594 -0.045553356 -0.0095411055 -0.06614476 0.2085984 0.010300891 -0.053789157
00000000: e099 b4bd 82b9 913d 86bd 95bc c5e8 6c3d
00000010: 6cc1 90bc 909c 3a3e 4655 863d 56ec 3bbb
00000020: 5e21 623b 8c13 5b3d f06a 63bd 4ec8 84bd
00000030: e118 01bd fa15 733d a380 3f3d 4c22 00bd
00000040: c916 84bd bc12 41ba 085c 663d 9462 80bd
00000050: a1d8 383d 33c9 8c3b 9ad2 80b8 c480 68bd
00000060: 2659 45bc b41b b7bd aeab 573d 8c1f 79bc
00000070: 65e3 3f3c 997c 92be 78c5 dfbb 595e 74bd
00000080: c4d4 10bd 35c5 b03b f73b b0bb 6363 71bc
00000090: ab10 d5bc beb6 c3be bb4c 5f3d 94a6 e8bc
000000a0: 4822 fb3b c8c4 b0bd 17fa 06bd 64c2 823a
000000b0: f044 06be 93a9 93be 045b fbbc 449a 7d3d
000000c0: cd30 0dbc c0dc 7b3d d649 803d 084a 04be
000000d0: 892f 3c3b 0ee5 6cbd 799b 8a3d 6de6 bebd
000000e0: f369 54bb f2ed e03b 929a 293b c426 1cbe
000000f0: c6cc 803d 245f 65bd f1bf 06bd 3687 2bbe
00000100: e25a 1d3d bf3d ba3d 5dc5 23bd 11a6 edbd
00000110: 993e 1e3c 20a5 0fbd 8978 853b fa12 12be
00000120: 5324 4a3b dd58 86bc 7762 893c 2061 a13d
00000130: ce6c 073c 0aca a13d b5f9 bebc 2da1 533c
00000140: e1a4 e9bc c057 7ebd f25c d13c 3691 9c3d
00000150: a791 0bbc 3240 81bd 8248 a9bc 0349 d3bc
00000160: a9fd c8bd 8bcb b6bd f2a4 813c dca1 adbb
00000170: 8fa9 1f3d 76f7 f3bd 137a 523d 4045 8d3d
00000180: 6b04 c9bc bb77 69bd d920 933d 3f81 443d
00000190: 3516 afbd aac4 85bd f87b b43d 363e ad3c
000001a0: 19c9 393d 459d 0b3d d084 0dbd 54b6 bc3d
000001b0: bd2a ffbc 5883 a7bc 1c10 a6bc fe83 e83d
000001c0: dbdd 6e39 8e08 0cbd 47c7 72bb 919d f53d
000001d0: 0bfc 30bd cb5f 96bd c859 ebbc 7f01 233e
000001e0: c9ea 653d 48b9 873c 322b 08bd d461 803d
000001f0: 5d72 00bb 0df8 e9bc 8ec9 10bd 5d66 9e3c
00000200: d60d 273d fec6 babc 2a51 f33c 4201 b3bc
00000210: 55b6 953d a093 d43c 97c0 92bb a254 3ebd
00000220: 9338 c5bc c366 ddbc 9b2d 983d e221 8d3d
00000230: 7a51 d53d 8167 263e 54c2 c03c cce8 f33c
00000240: d957 cbbd 078d cbbc 58a3 bd3c deaa 95bd
00000250: 9adb 913c e7f2 20be 8d34 563c d26c 79bc
00000260: 6ecb 77bd f19f d43b fc93 9bbd f461 15bd
00000270: b132 49bd bf6f 9bbe ef0c d23c d08f 1f3c
00000280: f14c 88bd 9758 64bd a992 473d 6766 9b3d
00000290: 78d4 18be 5c3f a7be cb2a 103c dc79 433d
000002a0: fe4a 44bd 89d9 21bb aca1 a33b 5f4e 043d
000002b0: 6810 593e 01e5 17bb 258c 2dba c731 a33c
000002c0: ea68 21bc 7d8d a63d 04ed 873c 6fe1 903a
000002d0: d554 193e d3a4 663d 68c4 83bc e78b 88bc
000002e0: dd7d debd bf05 123d 6624 313d 7ae1 82bd
000002f0: 5864 123e ed81 093e db57 e5bc 84a6 0d3b
00000300: 654c 77bd 8977 d23c 675e 143d f898 2fbd
00000310: 3fcd f8bc 5335 00bd 70e8 77bc 0a4d 293d
00000320: 68bb 68bb f4a6 86bc a791 8b3c 8e5a 473d
00000330: 1b11 893d 5f4c e13c b6ad 813c ee53 b23d
00000340: 1c98 f239 7c0e 813d 30e8 053d 3328 c63d
00000350: bab9 813d 4bd1 a83d 169a 7f3d a103 ab3d
00000360: bada d5bd 99bf 453c c778 b43c 64d4 b03d
00000370: b19d 273d fb42 bebc 103e 5cbd f92f 033e
00000380: 8348 2e3c fe76 84bd 794d b03c 2032 a03c
00000390: dc1d 3ab9 faf8 ca3c 1565 c63c 9d8c ae3d
000003a0: 45e4 90bd be77 423d 70bd 0e3d 3c4b 113d
000003b0: 9098 29bd f0bc 673e 6338 a73d c46a bdbc
000003c0: 3b1d 93bd 8027 8dbc 9e15 dabc e328 71bd
000003d0: d5ea acbc 0cab 043e 5cbb b8bc fdf3 43bd
000003e0: 5439 d3bb bf82 82bd 2896 3abd 4c52 1cbc
000003f0: e776 87bd d29a 553e 11c5 283c 0552 5cbd

net.fc1.bias f4 [256]
0.15904017 -0.07682193 0.0053869444 -0.1482454 0.12012568 0.15810491 -0.15410103 0.023261867
-0.21191107 -0.16563244 0.16193143 0.067304835 0.020110236 0.034756616 -0.14124843 0.1266769
0.0761368 0.031623688 -0.0082188975 -0.21144275 -0.04385418 -0.021193659 -0.122480296 0.09587299
0.09282105 -0.13802809 -0.09731318 -0.00181553 0.1539191 -0.026296763 -0.19573206 -0.009983157
0.09214583 0.119295105 0.09437417 -0.0011764261 -0.015411452 0.17735103 -0.0056341155 0.10393806
0.19361687 -0.01696643 0.1200786 0.14274076 -0.00033314608 -0.06734595 -0.1316861 -0.06340923
0.033347417 0.008988879 -0.010750976 0.11639136 0.12451527 -0.042863313 -0.060129512 0.004403935
0.02205525 -0.21494085 0.11368544 0.195594 0.17048566 0.057894267 0.17842352 -0.111164354
0.09093761 -0.09885635 -0.15218996 -0.12719752 0.07655327 -0.19800323 0.16774955 -0.0802069
0.2223305 -0.10378543 0.09579019 0.22451581 0.22388434 -0.15552634 0.15514943 0.04891022
0.15728706 0.0382559 -0.14375466 -0.0049424456 0.07166123 0.16936785 0.042064868 -0.054977987
0.084276766 -0.1553681 -0.11418509 0.11106365 0.1557192 -0.036608394 0.02570435 0.03718152
-0.10820819 -0.15784273 0.19044438 -0.1450538 -0.056035914 0.0349136 0.084097855 0.051120557
-0.033264678 0.06796655 -0.097123556 0.051886793 0.15570876 0.074918926 -0.08939853 0.08718846
0.087309375 -0.2081743 0.09826046 -0.22126013 0.16464825 0.044083122 0.0969714 -0.019751623
0.22231653 -0.1862587 0.004253782 -0.01653049 -0.06558872 -0.14415868 0.11455472 -0.11697983
0.19785167 -0.11522901 0.12800582 0.22098377 -0.15079232 -0.15544309 -0.16446921 -0.21020177
0.048791174 0.19369793 -0.031058062 -0.002426391 0.12658997 0.16859087 0.031659625 -0.047823746
0.14051822 0.11160888 -0.119805396 -0.2478912 -0.006561983 0.2515806 -0.0028190736 0.0063249036
0.06127242 -0.0107191475 0.20444149 0.0034669517 -0.18411902 0.13916756 0.021270508 0.219118
0.12482953 -0.040396195 -0.09457866 0.07233173 -0.1407139 0.02430803 0.16512173 -0.037277963
0.18469122 -0.14872493 0.0354233 0.11895351 0.011105288 0.11707048 -0.14403807 -0.14778836
0.027916012 0.20862393 0.028297637 -0.044252425 -0.0072645647 0.18698397 0.16290839 -0.0037268254
-0.1474725 0.18087621 0.051153176 0.13246486 -0.1890048 0.069846824 -0.16142768 0.07920563
-0.07449326 -0.1582735 -0.0024480228 -0.014113115 0.01849076 0.0872121 -0.11129217 -0.0461768
0.026276475 -0.027944017 -0.15607516 0.119784705 0.0051726364 0.12366709 0.19681364 0.17708328
-0.06609374 0.16771045 0.06567132 0.004699333 -0.011251823 0.03917217 0.02323769 -0.05196026
0.10938777 -0.1022421 0.010044079 0.06277153 -0.05137924 0.13909183 -0.1426251 0.105193384
-0.16691773 -0.0910085 -0.038436625 -0.078923516 -0.000110840156 -0.07732426 0.09269666 0.11393046
0.030542511 0.19291389 0.11446824 0.13616483 -0.07885573 -0.059020154 0.1214008 0.042046793
0.01803721 0.0064809513 -0.10590689 -0.10183664 -0.034249835 0.09760942 -0.061733942 0.109674595
0.12327469 -0.08800689 -0.17346527 -0.16440107 0.14181921 0.14100578 -0.13289121 -0.09431987
00000000: 6ddb 223e d154 9dbd f784 b03b a4cd 17be
00000010: 7404 f63d 41e6 213e a9cc 1dbe ac8f be3c
00000020: 37ff 58be 8d9b 29be 5ad1 253e 1ed7 893d
00000030: 39be a43c f45c 0e3d 6ea3 10be 97b7 013e
00000040: 9ced 9b3d d787 013d 8ea8 06bc 7384 58be
00000050: 71a0 33bd 539e adbc f3d6 fabd 0f59 c43d
00000060: f618 be3d 3c57 0dbe 224c c7bd 14f7 edba
00000070: f89c 1d3e 4f6c d7bc fc6d 48be 6590 23bc
00000080: f4b6 bc3d fe50 f43d 3f47 c13d 4f32 9aba
00000090: 5180 7cbc 829b 353e 639e b8bb 7add d43d
000000a0: 8043 463e 2ffd 8abc c5eb f53d a22a 123e
000000b0: 1caa aeb9 acec 89bd b9d8 06be b3dc 81bd
000000c0: 4d97 083d 1746 133c dd24 30bc 985e ee3d
000000d0: dd01 ff3d 7191 2fbd 5d4a 76bd e24e 903b
000000e0: 36ad b43c 7419 5cbe e9d3 e83d cb49 483e
000000f0: cb93 2e3e 8a22 6d3d a8b4 363e 23aa e3bd
00000100: 7f3d ba3d 3375 cabd afd7 1bbe 1140 02be
00000110: f6c7 9c3d 5cc1 4abe 8ac6 2b3e 8443 a4bd
00000120: 9baa 633e 758d d4bd a62d c43d 79e7 653e
00000130: f041 653e 4c42 1fbe 7edf 1e3e 1556 483d
00000140: dc0f 213e 38b2 1c3d 6c34 13be 3df4 a1bb
00000150: 1fc3 923d c46e 2d3e 364c 2c3d 9930 61bd
00000160: 4c99 ac3d d118 1fbe dfd9 e9bd 5775 e33d
00000170: db74 1f3e aff2 15bd ee91 d23c a64b 183d
00000180: 419c ddbd 86a1 21be da03 433e fc88 14be
00000190: ea85 65bd 9001 0f3d 7f3b ac3d ca63 513d
000001a0: 8b40 08bd 0c32 8b3d b7e8 c6bd 3f87 543d
000001b0: 1e72 1f3e 186f 993d 9416 b7bd dd8f b23d
000001c0: 42cf b23d a52b 55be c83c c93d 0492 62be
000001d0: 8d99 283e 8190 343d f198 c63d 28ce a1bc
000001e0: f2a6 633e 9aba 3ebe 4f63 8b3b f36a 87bc
000001f0: 6153 86bd 559e 13be aa9b ea3d 1f93 efbd
00000200: a199 4a3e 30fd ebbd f513 033e 9249 623e
00000210: 4d69 1abe 792c 1fbe 9e6a 28be 223f 57be
00000220: 41d9 473d c058 463e 7a6d febc 1604 1fbb
00000230: cda0 013e 16a3 2c3e 86ad 013d d5e2 43bd
00000240: 02e4 0f3e 3293 e43d 885c f5bd 31d7 7dbe
00000250: e705 d7bb 2ccf 803e 35c0 38bb 2341 cf3b
00000260: caf8 7a3d 5d9f 2fbc 1c59 513e cc35 633b
00000270: b289 3cbe f181 0e3e 7d3f ae3c 7860 603e
00000280: a0a6 ff3d 7b76 25bd 75b2 c1bd a822 943d
00000290: 4e17 10be a221 c73c ac15 293e c7b0 18bd
000002a0: b21f 3d3e 594b 18be 0618 113d e69d f33d
000002b0: f4f2 353c a6c2 ef3d b77e 13be d555 17be
000002c0: 1fb0 e43c 83a1 553e 72d0 e73c 0842 35bd
000002d0: 960b eebb ba78 3f3e 75d1 263e c13d 74bb
000002e0: 0803 17be 9d37 393e fe85 513d dea4 073e
000002f0: 798a 41be da0b 8f3d 4c4d 25be 9036 a23d
00000300: ec8f 98bd 7312 22be 026f 20bb b23a 67bc
00000310: ef79 973c 429c b23d 26ed e3bd e223 3dbd
00000320: c341 d73c daea e4bc 2bd2 1fbe af51 f53d
00000330: 387f a93b 2c45 fd3d 8489 493e 5255 353e
00000340: 285c 87bd 4abc 2b3e af7e 863d ddfc 993b
00000350: 9159 38bc ff72 203d f85c be3c 48d4 54bd
00000360: b206 e03d 4e64 d1bd ec8f 243c 5c8e 803d
00000370: 0a73 52bd 176e 0e3e 500c 12be a16f d73d
00000380: 7bec 2abe aa62 babd b96f 1dbd a7a2 a1bd
00000390: db72 e8b8 2e5c 9ebd bfd7 bd3d 5f54 e93d
000003a0: 4a34 fa3c 388b 453e 536e ea3d cb6e 0b3e
000003b0: 1d7f a1bd 1ebf 71bd fca0 f83d 4239 2c3d
000003c0: c5c2 933c 295e d43b b6e5 d8bd ba8f d0bd
000003d0: 8e49 0cbd 73e7 c73d bbdc 7cbd 139d e03d
000003e0: 7177 fc3d f53c b4bd e1a0 31be c158 28be
000003f0: 0e39 113e d263 103e a214 08be c72a c1bd

net.fc2.weight f4 [128, 256]
0.04652336 0.1201405 0.0612466 -0.03556799 0.1090856 -0.10739625 0.012983496 -0.1713387
0.03147305 -0.00082409714 -0.1830844 -0.05336178 -0.11668964 -0.022690283 -0.062898524 0.073271565
-0.12475087 0.024163678 0.014403221 -0.0534192 0.036668625 0.121540815 -0.26842415 0.036440074
-0.10186773 0.0031881472 -0.098228715 -0.058194336 0.059001967 -0.053112052 -0.06635303 0.09116779
0.045264564 -0.1655812 -0.016764222 0.09822791 0.021167288 0.12832 -0.10601236 -0.019108666
0.101296805 -0.0050244904 -0.08553655 -0.10546725 0.037671965 0.0886567 -0.072796345 0.034625866
-0.013552627 0.023303691 -0.01971893 -0.10566159 -0.0030555923 -0.19437739 0.05547623 0.044466358
0.006318911 0.05726741 0.029274544 -0.044239096 -0.07238399 0.08918489 0.074249625 0.11603582
-0.050155107 -0.09910438 -0.0062805763 0.05003377 -0.022202827 -0.020856716 0.034936585 -0.060515106
0.06527415 -0.06729848 0.07486798 0.030762661 -0.099306904 0.017949115 0.052121367 -0.0021135004
-0.033577275 -0.052318968 0.079822004 0.041045465 0.008249533 -0.025041576 0.031573925 -0.024602808
-0.010648372 0.059691954 0.04560818 -0.08856975 0.11373867 -0.13266645 -0.0040909685 0.0706414
0.023025235 -0.22927576 0.057340603 0.05173393 0.014568032 0.14456975 0.04544017 -0.008713435
0.049987253 0.09793001 0.0650877 -0.020026559 -0.10553188 -0.039663002 -0.10880858 -0.12046288
0.10788347 0.071786284 0.04073503 0.07336164 0.02236581 -0.076677285 -0.27962 -0.05250165
-0.20720842 0.07119593 -0.059304126 -0.037762173 -0.03972385 -0.06751089 0.050139952 -0.17220858
0.062800154 0.043668337 -0.14103423 0.0801115 0.02915648 0.01900488 0.08499209 0.015113695
0.077489264 0.028117398 0.09802063 0.037685055 0.08939901 0.03149782 0.08713705 -0.20896187
-0.049694967 0.039784383 -0.05807631 0.017891143 -0.09362881 -0.16088359 -0.010156904 -0.016907122
-0.031048844 -0.020802427 -0.089794934 0.042401742 0.005490635 -0.07537107 -0.14255923 -0.09278679
-0.0070344107 0.03355671 -0.09147883 -0.11100383 -0.010881341 -0.05804643 0.075897984 0.056003332
-0.04829038 -0.012620577 0.09073304 0.044933055 -0.14924453 -0.08024181 0.05531115 0.028530069
-0.06816677 -0.06369813 -0.052843347 -0.031454816 0.015486808 0.018272744 0.045929216 0.04158775
0.069992416 0.087305635 -0.07444861 0.072431274 -0.009486188 0.03764914 0.022558492 -0.0016938968
0.020414306 -0.13733235 0.034875702 -0.024203297 -0.054458413 -0.07258355 0.07109249 -0.0288589
0.0044129593 -0.06907347 0.05417088 0.07215264 -0.20499471 0.043512013 -0.009441414 -0.10117831
-0.12634458 0.111182 0.022588264 -0.1643338 0.0007405716 0.064368725 0.04099226 0.012811364
-0.0030543522 0.044938155 0.021192973 0.10171863 -0.017643698 0.04486737 0.014585793 -0.054708026
0.0074972613 0.04792329 -0.0728025 0.037155643 0.04781342 0.01956854 0.118141085 0.028724087
0.008971923 0.03844738 -0.063271716 0.046624538 -0.101955526 0.04266413 -0.07785974 -0.07241233
0.025925182 -0.11824317 0.11055617 -0.0018813829 0.051608708 0.052536204 -0.016884323 -0.07827083
-0.03135803 -0.035255745 0.094800964 0.046286903 -0.061056655 0.060894858 0.025277698 -0.050226983
00000000: 478f 3e3d 390c f63d b7dd 7a3d beaf 11bd
00000010: 4568 df3d 91f2 dbbd bbb8 543c 6a73 2fbe
00000020: e3e9 003d 3908 58ba 7a7a 3bbe e291 5abd
00000030: fafa eebd f9e0 b9bc f1d0 80bd 670f 963d
00000040: 627d ffbd e8f2 c53c 7dfb 6b3c 17ce 5abd
00000050: d731 163d 64ea f83d e46e 89be 3042 153d
00000060: 07a0 d0bd 3cf0 503b 232c c9bd 2f5d 6ebd
00000070: 0cac 713d 068c 59bd 19e4 87bd 2eb6 ba3d
00000080: 5667 393d 1e8e 29be 1f55 89bc b72b c93d
00000090: 0567 ad3c 5166 033e 021d d9bd c789 9cbc
000000a0: b374 cf3d 7ba4 a4bb c92d afbd 37ff d7bd
000000b0: eb4d 1a3d a591 b53d 4016 95bd dad3 0d3d
000000c0: d60b 5ebc 62e7 be3c 9889 a1bc 1b65 d8bd
000000d0: 5540 48bb de0a 47be 0b3b 633d 5b22 363d
000000e0: de0e cf3b 3b91 6a3d 2bd1 ef3c 0e34 35bd
000000f0: 0f3e 94bd 91a6 b63d 3010 983d 30a4 ed3d
00000100: 716f 4dbd 3df7 cabd 4bcd cdbb 36f0 4c3d
00000110: b4e2 b5bc b4db aabc aa19 0f3d b0de 77bd
00000120: 74ae 853d c9d3 89bd 6254 993d fa01 fc3c
00000130: 6b61 cbbd 060a 933c 377d 553d a782 0abb
00000140: 5388 09bd 6a4c 56bd b879 a33d 4a1f 283d
00000150: 0d29 073c fe23 cdbc a953 013d d48b c9bc
00000160: 8276 2ebc 8d7f 743d a5cf 3a3d 0f64 b5bd
00000170: d2ef e83d b7d9 07be 880d 86bb 70ac 903d
00000180: 6b9f bc3c 44c7 6abe fbdd 6a3d f5e6 533d
00000190: c1ae 6e3c 180a 143e 791f 3a3d ccc2 0ebc
000001a0: 6fbf 4c3d 878f c83d b34c 853d bd0e a4bc
000001b0: 1921 d8bd ac75 22bd 08d7 debd 3eb5 f6bd
000001c0: 02f2 dc3d b004 933d c6d9 263d a13e 963d
000001d0: 8138 b73c fb08 9dbd 5a2a 8fbe f80b 57bd
000001e0: 722e 54be 2ccf 913d e2e8 72bd 82ac 1abd
000001f0: 7ab5 22bd 2643 8abd 8d5f 4d3d 7257 30be
00000200: 5e9d 803d 92dd 323d 476b 10be 8011 a43d
00000210: 92d9 ee3c 1fb0 9b3c 5510 ae3d 6e9f 773c
00000220: b1b2 9e3d 7556 e63c 0abf c83d a55b 1a3d
00000230: d416 b73d dc03 013d e974 b23d 1afa 55be
00000240: f38c 4bbd f3f4 223d 6de1 6dbd 7290 923c
00000250: 76c0 bfbd abbe 24be 2569 26bc ce80 8abc
00000260: 255a febc da69 aabc 68e6 b7bd 73ad 2d3d
00000270: c9ea b33b 265c 9abd 0cfb 11be 0007 bebd
00000280: ea80 e6bb c372 093d 4159 bbbd fa55 e3bd
00000290: a747 32bc 18c2 6dbd 6770 9b3d c063 653d
000002a0: 22cc 45bd 89c6 4ebc 3ed2 b93d b90b 383d
000002b0: 8fd3 18be d155 a4bd f28d 623d e4b7 e93c
000002c0: 059b 8bbd 2a74 82bd 4472 58bd c4d6 00bd
000002d0: 61bc 7d3c b9b0 953c 4620 3c3d eb57 2a3d
000002e0: 2f58 8f3d 4ccd b23d 8378 98bd d956 943d
000002f0: f56b 1bbc fc35 1a3d 96cc b83c bf05 deba
00000300: e73b a73c daa0 0cbe d3d9 0e3d fe45 c6bc
00000310: c90f 5fbd afa6 94bd f098 913d 8069 ecbc
00000320: 969a 903b 6476 8dbd 49e2 5d3d c3c4 933d
00000330: 22ea 51be a739 323d 29b0 1abc 9336 cfbd
00000340: 7960 01be 63b3 e33d 060b b93c 1f47 28be
00000350: eb22 423a c0d3 833d 80e7 273d c1e6 513c
00000360: 872b 48bb 1211 383d e39c ad3c db51 d03d
00000370: 8489 90bc d9c6 373d 40f9 6e3c 8615 60bd
00000380: 96ab f53b 364b 443d 7a19 95bd 8430 183d
00000390: 01d8 433d 344e a03c f4f3 f13d c74e eb3c
000003a0: f9fe 123c 007b 1d3d 9a94 81bd 5ff9 3e3d
000003b0: 0fce d0bd 95c0 2e3d ed74 9fbd ea4c 94bd
000003c0: 0c61 d43c 7a29 f2bd 466b e23d bc98 f6ba
000003d0: a763 533d 3430 573d fe50 8abc 754c a0bd
000003e0: 4771 00bd 5468 10bd 0227 c23d 5697 3d3d
000003f0: 8b16 7abd e36c 793d 2d13 cf3c cfba 4dbd

net.fc2.bias f4 [128]
-0.024856685 -0.018910315 0.050946813 0.06288379 -0.018902514 -0.05410077 -0.04766127 0.008308466
0.011053367 0.02211083 0.0062658996 -0.0069747963 0.038567092 0.06809252 -0.006840902 0.036886446
0.0675442 -0.014320337 0.09911063 -0.016757468 0.013761523 0.004116788 0.019722892 0.016016781
0.039296225 0.014818921 -0.054401997 0.014371688 -0.017960541 0.0563762 -0.02793739 0.08264051
-0.02162199 0.06968025 0.017895356 0.0111780055 0.051106606 -0.027552499 0.053454023 -0.010671177
0.09155278 0.089871526 -0.004453558 -0.04914528 0.038541224 -0.046119224 -0.048234064 0.04307798
0.07155184 0.009501435 0.017824782 -0.026508318 -0.05643655 0.065943666 0.0014960769 0.06963588
0.010321736 -0.045991756 -0.04893904 -0.022677673 0.08464254 0.09109538 -0.005654088 0.070623614
0.03110992 0.028480226 0.112781815 0.0717083 -0.040861767 0.00041466416 0.111914545 0.031176
0.034154393 0.038148146 0.006971221 0.04907779 -0.006162804 -0.030518137 -0.04557473 0.058100037
-0.0022049746 -0.022449275 -0.031100377 -0.013579878 0.056680106 -0.016800057 0.0038529073 0.0103504285
-0.00050758896 0.05600302 -0.04306431 0.101091035 0.06376446 0.054832485 -0.043607377 0.015814483
0.0047904993 -0.044596236 0.057560667 -0.0327002 0.004856541 0.054560196 0.047107413 0.057645883
-0.028089376 0.06234276 -0.048191253 -0.017341342 0.00087202 -0.05152996 0.0075983517 0.010526667
0.0142794 -0.03830612 0.076359674 0.039246064 0.039562143 0.046443377 0.0010236613 -8.150471e-05
0.07082804 -0.029603077 0.05659131 0.013132205 -0.040356793 0.010033024 -0.048142374 0.006657685
00000000: 3fa0 cbbc cee9 9abc 9bad 503d 37c9 803d
00000010: 72d9 9abc c598 5dbd 7738 43bd 3b20 083c
00000020: 2e19 353c c521 b53c 2d52 cd3b d58c e4bb
00000030: 87f8 1d3d 1774 8b3d a529 e0bb 3e16 173d
00000040: 9d54 8a3d d99f 6abc 84fa ca3d f546 89bc
00000050: 0378 613c 1fe6 863b e791 a13c a035 833c
00000060: 14f5 203d 0fcb 723c a1d4 5ebd 3a77 6b3c
00000070: fc21 93bc bbea 663d f4dc e4bc 6d3f a93d
00000080: 9920 b1bc 85b4 8e3d 4899 923c f423 373c
00000090: 2955 513d c7b5 e1bc 9bf2 5a3d 29d6 2ebc
000000a0: 0680 bb3d 900e b83d 27ef 91bb 904c 49bd
000000b0: 67dd 1d3d 83e7 3cbd 1591 45bd 8972 303d
000000c0: c589 923d e8ab 1b3c 4705 923c f927 d9bc
000000d0: 032a 67bd 790d 873d 0318 c43a 429d 8e3d
000000e0: 801c 293c da61 3cbd 4e74 48bd 87c6 b9bc
000000f0: 1159 ad3d 3790 ba3d ee45 b9bb 1da3 903d
00000100: 3bda fe3c 5d4f e93c 27fa e63d cddb 923d
00000110: ab5e 27bd 4867 d939 7433 e53d d064 ff3c
00000120: 7ae5 0b3d 3b41 1c3d d76e e43b cb05 493d
00000130: 59f1 c9bb 2c01 fabc 91ac 3abd 4efa 6d3d
00000140: 5681 10bb 8be7 b7bc 38c6 febc 237e 5ebc
00000150: 6629 683d 46a0 89bc 0f81 7c3b d894 293c
00000160: b80f 05ba 6c63 653d 3464 30bd d108 cf3d
00000170: f196 823d 0798 603d a69d 32bd 608d 813c
00000180: 9ff9 9c3b 8baa 36bd bcc4 6b3d a5f0 05bd
00000190: 9e23 9f3b 837a 5f3d b4f3 403d 171e 6c3d
000001a0: b11b e6bc 1f5b 7f3d 3164 45bd 6e0f 8ebc
000001b0: 4698 643a 1411 53bd 98fb f83b 0b78 2c3c
000001c0: 25f4 693c e1e6 1cbd 7662 9c3d 7bc0 203d
000001d0: ea0b 223d 693b 3e3d 602c 863a 82ed aab8
000001e0: 4b0e 913d 2782 f2bc 4acc 673d 7628 573c
000001f0: 2a4d 25bd 8d61 243c f030 45bd b628 da3b

net.fc3.weight f4 [64, 128]
0.13343382 0.12138115 -0.11086928 -0.12390645 0.08359268 0.14330572 -0.018559882 0.26838565
0.16078687 -0.058659513 0.11873962 0.03970358 0.029982794 0.041958816 0.06500419 -0.013604851
0.0204261 0.06036111 -0.016692977 0.1597537 -0.13685994 0.28219074 0.0784937 -0.13315517
0.0991028 0.11758262 0.022440594 0.04572902 -0.09398662 0.0731742 0.08229706 -0.049630515
0.25315216 -0.110019065 0.10401582 0.097735725 -0.07214987 -0.04381929 -0.046952527 -0.012142574
-0.098756574 -0.13324337 0.271821 0.091566704 0.07427287 0.116319485 0.042835347 0.07116475
-0.07934329 0.10688794 -0.005021586 -0.14582959 0.12510355 0.047928285 0.08298712 -0.10696689
0.085333 0.12219575 -0.1122877 0.19948211 -0.14873089 0.074085176 -0.01819672 0.058786724
0.0601815 0.00082959293 -0.04208482 -0.06278524 0.14398439 -0.1519952 0.027490173 0.204222
0.08475012 -0.13962995 0.013279543 0.08324009 0.067968905 0.022085331 -0.033290632 -0.08930601
0.04628887 0.08369776 0.02184569 0.16590299 0.11146155 0.034801453 -0.053120494 0.2794743
-0.05995011 0.056751616 0.026023751 0.07221391 0.045989662 0.14075074 -0.05426683 0.0646484
-0.029829526 0.01388111 0.23601922 0.101443246 0.01732265 0.1408189 -0.0084508415 0.00397755
-0.04755262 0.04663855 0.20526356 -0.010885196 0.10958128 0.04325402 -0.08406281 -0.11574267
-0.10659939 0.11855542 -0.12003437 -0.014368732 0.004740211 -0.048558876 -0.08336469 -0.031479254
0.13565469 0.1528431 0.060907733 -0.082609296 0.019030625 -0.13371612 0.08845213 0.0680619
0.04010187 -0.0014509698 0.104240745 -0.09374103 0.105639085 0.12669429 0.14191635 0.20487168
0.13243991 0.11264549 -0.10447177 0.060640376 0.09820539 0.013256741 0.051111743 -0.012889293
-0.18496306 0.14910966 0.1481318 0.16735311 -0.14670077 0.09643135 -0.11804098 -0.005971627
0.11474128 -0.09459103 0.03414638 0.0044454 0.041119035 -0.079221085 0.08341123 0.011505874
0.19348133 -0.10972979 0.09600542 -0.12900943 -0.109024726 0.11730717 -0.020511756 -0.005541097
0.060428586 -0.2090802 0.101984814 0.05370666 0.080621615 0.0406648 0.054040138 -0.046165276
0.12392545 -0.027682442 -0.1624984 -0.16966595 0.22336885 0.041331276 0.10995607 0.031906404
-0.024320403 -0.15303048 -0.064730965 0.017466124 -0.06312969 -0.0857651 -0.027919756 -0.0021338554
0.064042635 0.10310772 -0.0068201027 -0.06949228 0.07925225 -0.027320398 0.0039569824 0.11481043
-0.11258887 -0.18028145 -0.004583885 -0.122862205 0.13315861 -0.0013638994 0.16760464 -0.092307046
0.017434146 0.12245358 0.091321915 0.086917445 0.08773132 -0.09991003 -0.043580472 0.16478312
-0.08406618 0.12580113 0.013035328 -0.02161139 -0.02064627 0.05705776 0.01875374 0.06382893
0.061396968 -0.04061236 -0.030073928 -0.009576084 -0.1542639 0.058052424 -0.031254582 -0.0147172
0.017001841 0.026596475 0.13337529 -0.17253295 0.091103464 0.0062125972 -0.14587997 0.04977488
-0.0021977765 -0.058101457 -0.10434235 -0.12555332 0.09607344 0.10773298 -0.15126517 -0.15596198
-0.07824088 0.22924347 0.05848294 -0.12805736 0.15130827 -0.11912695 -0.0073722512 -0.037756737
00000000: e0a2 083e ae96 f83d 6f0f e3bd aac2 fdbd
00000010: a432 ab3d bcbe 123e e50a 98bc d869 893e
00000020: 50a5 243e f544 70bd c22d f33d 39a0 223d
00000030: 7a9e f53c 02dd 2b3d eb20 853d e2e6 5ebc
00000040: a354 a73c 363d 773d b6bf 88bc 7996 233e
00000050: 0325 0cbe 4e7b 903e 4ec1 a03d d459 08be
00000060: 69f6 ca3d 28cf f03d 56d5 b73c 5a4e 3b3d
00000070: 0f7c c0bd 5bdc 953d 5c8b a83d 5e49 4bbd
00000080: 299d 813e ad51 e1bd 3f06 d53d ab29 c83d
00000090: 50c3 93bd db7b 33bd 4b51 40bd a6f1 46bc
000000a0: e340 cabd f370 08be 1f2c 8b3e 5387 bb3d
000000b0: 601c 983d e938 ee3d 1e74 2f3d d3be 913d
000000c0: bc7e a2bd 10e8 da3d 1e8c a4bb 5a54 15be
000000d0: 251b 003e 7350 443d 27f5 a93d 7511 dbbd
000000e0: 11c3 ae3d c441 fa3d 18f7 e5bd 0a45 4c3e
000000f0: e94c 18be f8b9 973d 4a11 95bc 59ca 703d
00000100: e080 763d 0a79 593a 2261 2cbd 8c95 80bd
00000110: a570 133e a1a4 1bbe 1233 e13c 921f 513e
00000120: 7991 ad3d 27fb 0ebe 7192 593c c879 aa3d
00000130: 4833 8b3d 4cec b43c c25b 08bd 12e6 b6bd
00000140: 6699 3d3d bb69 ab3d bcf5 b23c 79e2 293e
00000150: f445 e43d f88b 0e3d e094 59bd 4117 8f3e
00000160: 3f8e 75bd 6274 683d c32f d53c e3e4 933d
00000170: a85f 3c3d f620 103e e546 5ebd 6166 843d
00000180: 0d5d f4bc 986d 633c 06af 713e 7ac1 cf3d
00000190: 3be8 8d3c d432 103e 6675 0abc 1c56 823b
000001a0: 89c6 42bd 1008 3f3d 9c30 523e d257 32bc
000001b0: 266c e03d 212b 313d 1f29 acbd 7e0a edbd
000001c0: c850 dabd 2fcd f23d 94d4 f5bd d56a 6bbc
000001d0: c653 9b3b ace5 46bd 1bbb aabd 64f0 00bd
000001e0: 10e9 0a3e e782 1c3e 637a 793d 102f a9bd
000001f0: 1de6 9b3c e1ec 08be 6426 b53d 0a64 8b3d
00000200: dc41 243d 782e beba 2c7c d53d 4cfb bfbd
00000210: 4e59 d83d 26bc 013e 8552 113e e2c9 513e
00000220: 549e 073e aeb2 e63d 4cf5 d5bd 0b62 783d
00000230: e81f c93d cd32 593c 8c5a 513d 9d2d 53bc
00000240: f566 3dbe 34b0 183e ddaf 173e 9d5e 2b3e
00000250: ba38 16be cd7d c53d 78bf f1bd a3ad c3bb
00000260: 7afd ea3d f1b8 c1bd 13dd 0b3d b8aa 913b
00000270: 6f6c 283d aa3e a2bd 82d3 aa3d 2283 3c3c
00000280: f81f 463e 03ba e0bd 7d9e c43d 0c1b 04be
00000290: 5b48 dfbd be3e f03d 4508 a8bc 1792 b5bb
000002a0: f783 773d 1f19 56be 6add d03d 84fb 5b3d
000002b0: f21c a53d 2290 263d 3159 5d3d cd17 3dbd
000002c0: a0cc fd3d 4ac6 e2bc fb65 26be e9bc 2dbe
000002d0: ceba 643e fc4a 293d a630 e13d 4ab0 023d
000002e0: 953b c7bc 06b4 1cbe ab91 84bd 1e15 8f3c
000002f0: 244a 81bd 9da5 afbd f9b7 e4bc 27d8 0bbb
00000300: c928 833d 242a d33d 2b7b dfbb f851 8ebd
00000310: 014f a23d 07cf dfbc 93a9 813b bb21 eb3d
00000320: fe94 e6bd b39b 38be 6a34 96bb 2e9f fbbd
00000330: bb5a 083e dfc4 b2ba 8da0 2b3e 7a0b bdbd
00000340: 0ed2 8e3c f1c8 fa3d fc06 bb3d c601 b23d
00000350: 7aac b33d a19d ccbd 7081 32bd e8bc 283e
00000360: e42a acbd 03d2 003e 2192 553c 5f0a b1bc
00000370: 5e22 a9bc 66b5 693d 71a1 993c beb8 823d
00000380: 637b 7b3d 2559 26bd 995d f6bc 02e5 1cbc
00000390: 5bf7 1dbe 61c8 6d3d ce04 00bd 6920 71bc
000003a0: 7247 8b3c dae0 d93c 8893 083e 7aac 30be
000003b0: 7494 ba3d 0b93 cb3b 8f61 15be bfe0 4b3d
000003c0: 9208 10bb cbfb 6dbd 71b1 d5bd 0d91 00be
000003d0: 27c2 c43d 1ca3 dc3d 42e5 1abe 7fb4 1fbe
000003e0: c13c a0bd cdbe 6a3e cf8b 6f3d 7821 03be
000003f0: 8ef0 1a3e d5f8 f3bd ed92 f1bb cfa6 1abd

net.fc3.bias f4 [64]
0.005836776 -0.080430575 0.101330504 0.001725106 0.056535315 -0.07156521 -0.010622708 0.0010405527
-0.027307566 0.04872189 0.041108396 0.0006174374 0.02366011 0.04746181 0.057933696 -0.010149216
0.09681606 0.0073554325 0.081863455 0.09342849 0.026251685 -0.048685938 0.033709876 -0.036307998
0.007222524 0.04644557 0.0027352718 -0.07470559 0.06232515 0.09406741 -0.028584203 0.12768918
0.053838033 -0.034012668 -0.030629754 -0.0076514296 -0.058152672 -0.051957335 -0.0029634368 -0.0819799
0.12475778 -0.0071082944 -0.028930908 0.12172194 -0.04781027 -0.10606133 0.071901515 0.089624345
-0.0804442 -0.016257199 -0.013178983 0.077232435 0.021292245 0.0062033534 0.034534343 -0.025488703
0.031968437 0.04137017 0.059006363 0.031306777 -0.02451675 -0.053284343 0.03956074 0.06109375
00000000: 6d42 bf3b c9b8 a4bd 5e86 cf3d f41c e23a
00000010: 9391 673d c890 92bd de0a 2ebc 2863 883a
00000020: 1eb4 dfbc 9b90 473d 4761 283d 86db 213a
00000030: d9d2 c13c 5167 423d e24b 6d3d e648 26bc
00000040: 8047 c63d d705 f13b 07a8 a73d 7057 bf3d
00000050: c60d d73c e86a 47bd 5e13 0a3d b2b7 14bd
00000060: ecaa ec3b b63d 3e3d 3f42 333b 3fff 98bd
00000070: a848 7f3d 6aa6 c03d 6b29 eabc f4c0 023e
00000080: 4585 5c3d de50 0bbd 40eb fabc d8b8 fabb
00000090: 7f31 6ebd 37d1 54bd 3836 42bb 14e5 a7bd
000000a0: 0281 ff3d b2ec e8bb 8300 edbc 5a49 f93d
000000b0: b4d4 43bd af36 d9bd 1a41 933d f88c b73d
000000c0: eebf a4bd d12d 85bc a9ec 57bc 0a2c 9e3d
000000d0: 136d ae3c 8045 cb3b e273 0d3d afcd d0bc
000000e0: 56f1 023d c473 293d a8b0 713d 893b 003d
000000f0: 5ad7 c8bc af40 5abd 710a 223d 713d 7a3d

net.fc4.weight f4 [2, 64]
0.06946842 0.06331923 0.036524702 0.07066063 0.01478675 0.045049287 0.06484185 0.097961456
0.09142029 -0.07904372 0.066630706 0.036488533 0.016394136 0.060978636 0.03986065 0.05152414
-0.067501284 -0.085393995 0.06807231 0.04357048 0.11275999 0.074692555 0.107859604 0.02162451
-0.07627065 -0.07322752 0.10444176 0.08515347 0.046526004 0.073302716 0.04365891 0.002388359
0.09595049 0.045162257 -0.053292155 0.06516185 0.10101991 0.48256853 0.021072665 0.042896863
0.018957015 -0.06327703 -0.06179393 -0.10011198 0.09968745 0.059168514 0.052490465 0.06773137
0.09278669 0.06106025 -0.059834193 0.054567724 0.016076878 0.114731014 0.038356017 0.089722194
0.099316016 -0.06781668 0.07061069 0.04251822 0.05714678 0.06701937 0.10532103 0.0024460696
0.031845074 0.05929588 -0.18211302 -0.049403436 -0.12195428 0.037030783 0.019527715 0.05424306
-0.0034669882 0.0061772913 0.01948368 -0.20465529 -0.13805598 -0.08033488 -0.09493089 -0.06775191
-0.018766128 0.011523847 -0.06415644 -0.19367507 0.11228466 0.03767436 -0.12800093 -0.110761896
0.0011571238 -0.055332493 0.14690806 -0.1163624 0.021234564 0.059860628 -0.11029031 -0.1585582
-0.056788214 0.13135557 0.056605104 -0.022000682 0.093361 0.0015730582 -0.08165674 -0.006139598
-0.16700478 -0.04559919 0.046160907 0.028524319 -0.009299759 -0.17668322 0.042439017 0.036014307
-0.013114425 -0.15483819 -0.045648612 0.025681205 0.14093676 0.039952643 0.013469476 0.07473989
0.028851353 0.027598415 0.022987232 -0.13659686 -0.029853096 0.018195478 -0.051884577 -0.0025339774
00000000: 7645 8e3d 83ad 813d ed9a 153d 85b6 903d
00000010: 2044 723c 9a85 383d cecb 843d 04a0 c83d
00000020: 903a bb3d ade1 a1bd ae75 883d 0075 153d
00000030: ff4c 863c bcc4 793d ec44 233d fa0a 533d
00000040: 1d3e 8abd 0ce3 aebd 7f69 8b3d f676 323d
00000050: b6ee e63d 69f8 983d 7fe5 dc3d e225 b13c
00000060: c933 9cbd 4ff8 95bd 90e5 d53d f164 ae3d
00000070: 0d92 3e3d bc1f 963d afd3 323d 0486 1c3b
00000080: b181 c43d 0ffc 383d e048 5abd 9373 853d
00000090: 87e3 ce3d 3913 f73e 95a0 ac3c 9fb4 2f3d
000000a0: be4b 9b3c 6397 81bd a21b 7dbd 8307 cdbd
000000b0: ef28 cc3d af5a 723d 3e00 573d bfb6 8a3d
000000c0: f306 be3d 501a 7a3d b314 75bd 6882 5f3d
000000d0: a8b3 833c 18f8 ea3d 331b 1d3d 45c0 b73d
000000e0: 3266 cb3d 79e3 8abd 569c 903d 9627 2e3d
000000f0: be12 6a3d 7441 893d 8db2 d73d 3d4e 203b
00000100: fb6f 023d 3de0 723d d67b 3abe 425b 4abd
00000110: 2ac3 f9bd 97ad 173d 96f8 9f3c f92d 5e3d
00000120: 6936 63bb e06a ca3b 3d9c 9f3c 2891 51be
00000130: 8c5e 0dbe 9d86 a4bd 206b c2bd 83c1 8abd
00000140: 6cbb 99bc 84ce 3c3c 7464 83bd c252 46be
00000150: 80f5 e53d 6e50 1a3d ad12 03be 22d7 e2bd
00000160: a2aa 973a 53a4 62bd 116f 163e 694f eebd
00000170: 1cf4 ad3c 6b30 753d e3df e1bd 155d 22be
00000180: c29a 68bd 1382 063e c1da 673d c63a b4bc
00000190: 0d34 bf3d 132f ce3a a63b a7bd ae2e c9bb
000001a0: 4d03 2bbe 37c6 3abd 3813 3d3d d5ab e93c
000001b0: 045e 18bc 72ec 34be 89d4 2d3d bd83 133d
000001c0: e3dd 56bc e78d 1ebe 0afa 3abd 6461 d23c
000001d0: ba51 103e 62a5 233d 14af 5c3c 3a11 993d
000001e0: ac59 ec3c 1216 e23c b84f bc3c 0ce0 0bbe
000001f0: 7b8e f4bc af0e 953c ec84 54bd 1611 26bb

net.fc4.bias f4 [2]
-0.08564867 -0.16789044
00000000: 9268 afbd 79eb 2bbe
