scores/checkpoint_env_solved_critic_PER.pth (torch_old, 192933 bytes, 7 tensors)

obs_net.fcs1.weight f4 [256, 24]
000000 2d 26 f5 3e 4e 38 b0 3e d8 59 fa bc 5a 26 bc be
       0.47880688 0.34417957 -0.030560419 -0.3674801
000010 3b 62 89 be fd 2d 3c be aa d2 7c bc 04 bc a5 be
       -0.26832756 -0.18376918 -0.015431086 -0.32370007
000020 13 14 c9 3e 70 ed 84 3e 6e f6 84 3d f9 87 9e be
       0.39273128 0.259624 0.06492315 -0.30963114
000030 f1 34 5f be 6b 13 f4 be b1 72 3d 3d 28 21 9f be
       -0.2179754 -0.47671065 0.046251956 -0.31079984
000040 34 92 ba 3e 85 4c 70 3e 16 3b bd 3b fc 05 b5 3d
       0.3643967 0.2346669 0.005774866 0.08839032
000050 e4 23 7d bd 8a 04 92 bf f7 74 80 bd 13 db a9 3d
       -0.061801806 -1.1407635 -0.06272309 0.08293738
000060 e6 5a 8c 3e 0c 94 25 3c dd c6 ca bd ee 3a 9d bd
       0.274131 0.010106098 -0.099012114 -0.076772556
000070 f1 fe 17 be 18 0b 8e bf d9 47 c1 bc 8b 25 02 bd
       -0.14843346 -1.1097136 -0.02359383 -0.031774085
000080 b6 a2 a9 3e 8e 42 ec 3d 47 48 ed bd 3f bb 01 3d
       0.3313195 0.11536132 -0.115860514 0.031672712
000090 1a 63 50 be c8 f7 47 bf f1 4c 6e bd 48 95 97 3d
       -0.20350304 -0.7811246 -0.058178846 0.0740152
0000a0 73 2a b1 3e 38 2a 12 3e 3b d8 e8 3d 99 1d bd bd
       0.346027 0.14273918 0.11369368 -0.09234161
0000b0 3e 9a 5a be 10 7a 1c bf 01 fb 62 3d 8e 79 74 bd
       -0.21347901 -0.6112375 0.055415157 -0.059686236
0000c0 d8 b0 a0 3e e8 11 df 3d 63 7f 4a bd 59 68 8c be
       0.3138492 0.10892087 -0.04943789 -0.2742336
0000d0 fe ce 9f bd 3f 0b 40 be 40 2a 10 be 73 d0 9a be
       -0.078031525 -0.1875429 -0.14078617 -0.3023716
0000e0 65 3d c9 3e f2 7e 95 3d 01 bf 4f 3c 05 71 a5 be
       0.39304653 0.072996035 0.012679816 -0.3231279
0000f0 44 7c 87 bd 9c 0a 83 be a9 7c 38 3d f0 4a a8 be
       -0.06615499 -0.25594032 0.04504076 -0.32869673
000100 11 f2 fe 3e 7c 64 90 3c 5e 03 00 3d 0f fb 33 be
       0.49794057 0.01762604 0.03125321 -0.1757624
000110 d9 74 55 bd 24 87 1c bf 6f 72 bd 3d 1e 90 10 be
       -0.052113388 -0.6114371 0.09250342 -0.14117476
000120 91 bd b4 3e 47 d2 a1 3d a2 7d 93 bc 7e e5 46 be
       0.35300878 0.07901435 -0.018004242 -0.19423482
000130 0f d4 d9 bd a3 8d 6b bd a9 33 01 3c c9 2a 8f be
       -0.1063615 -0.057508122 0.007885852 -0.2796233
000140 1b 20 4c 3f f0 3f 1c 3d 41 19 93 3d f4 ea d1 be
       0.7973649 0.038146913 0.07182551 -0.40999568
000150 2e d7 f8 bb 70 4a 47 bd ff 11 66 3b 89 d8 f4 be
       -0.007594011 -0.048654974 0.0035105941 -0.47821453
000160 6f 66 5b 3f 01 4a 86 bd ef 39 2e bd 6e 5d 77 3d
       0.85703176 -0.06557084 -0.04253572 0.060391836
000170 5b ce 30 3e 32 f1 56 be ce 6f 3d bd bf 00 04 3e
       0.17266218 -0.20990446 -0.046249203 0.1289091
000180 45 0b b4 bc b7 75 2e 3e 3d 1b 57 bb cf c2 1f 3e
       -0.02197803 0.17037092 -0.0032822632 0.15601657
000190 ee 42 1a bf 4a d7 bf 3c c8 54 ac 3c b0 16 18 3e
       -0.60258377 0.023418088 0.02103652 0.14852405
0001a0 ec 21 47 3e 4d d3 a3 3e 48 5c 14 3d 6c d3 9a bd
       0.19446534 0.31997147 0.03622082 -0.07559857
0001b0 af 2f 3c be e9 44 4a 3e ed 42 0a bd 27 2d 00 bc
       -0.18377565 0.1975285 -0.03375523 -0.007823265
0001c0 98 08 9c 3e 74 3b d2 3e b5 4c 5d bd 38 ef 56 3c
       0.30475307 0.41060984 -0.05402823 0.013118558
0001d0 d2 17 2f 3e fa 90 f3 3e 0a 77 a6 bc aa cf 91 bd
       0.1709893 0.47571546 -0.020320434 -0.07119687
0001e0 fe 69 07 3c af b5 90 3e 46 68 a0 bd 6c 4c c1 3b
       0.008265017 0.28263614 -0.078323886 0.005899003
0001f0 06 e9 3f bd db 98 da bd 16 0e a8 bd e7 d6 4f bd
       -0.046853088 -0.10673686 -0.08205812 -0.050742056
000200 10 fc 75 3d 18 42 ae 3e 91 e4 77 bc 2e a2 23 be
       0.06005484 0.340348 -0.015130178 -0.15979835
000210 1b c9 92 3c 30 6a 93 bf b6 4c 6d bb f1 69 12 be
       0.01791816 -1.1516781 -0.0036209053 -0.14298226
000220 f2 98 d8 bd 67 63 ab 3e 6d 8e 9e bc ec 13 d6 3d
       -0.10576047 0.33474275 -0.019355023 0.104530185
000230 28 49 85 bd b2 8c 40 bf 32 37 a3 3c ae 08 be 3d
       -0.06508094 -0.75214684 0.01992378 0.09278999
000240 b0 ba f5 bc e6 1c a4 3e dd b5 01 3d ac 54 36 3d
       -0.029996246 0.32053298 0.03166758 0.044514343
000250 c5 19 80 be c4 28 0f 3f 55 a7 08 bd e0 1e 6f bd
       -0.2501966 0.5592158 -0.033362705 -0.058379054
000260 fc 1d a5 bc 12 fb 98 3e af a2 45 bc 35 90 82 b9
       -0.0201559 0.2987905 -0.012062713 -0.00024902975
000270 fd bd cc 3d c2 d3 60 bd af a4 70 3b dd 4f 10 3c
       0.09997175 -0.054889448 0.0036719253 0.008808103
000280 d7 f1 ef 3d 5a e0 85 3e 3b ad ec 3c 5b e2 c2 3c
       0.11716049 0.2614773 0.028891196 0.023789575
000290 d5 1f 34 3f 7e 01 8f be c8 48 36 bd 74 23 43 3d
       0.7036107 -0.27930826 -0.044503003 0.047641233
0002a0 30 cd e6 3e 72 f4 13 3f 18 02 81 3b ab 9e 36 3d
       0.4507842 0.5779487 0.003937017 0.04458491
0002b0 0b 80 5f be 38 dd b7 bf 3c 3f 58 bc 1f e2 85 3d
       -0.21826188 -1.4364386 -0.01319867 0.0653727
0002c0 ad 70 0a be ad 34 7d 3c 50 4f 86 bb e8 e7 e1 3d
       -0.13519545 0.015454453 -0.0040988103 0.11030561
0002d0 ae 20 8a 3e 07 d0 06 3f 7d 37 4d 3c 55 35 08 3e
       0.26978058 0.52661175 0.0125254365 0.13301595
0002e0 0e d9 14 3d 63 4d a8 3d d7 99 3c bd 24 12 81 bd
       0.036339812 0.08217885 -0.04604515 -0.06302288
0002f0 d7 bb 8c 3e c4 9c 10 3f eb d7 3b bd 36 40 37 3c
       0.2748706 0.56489205 -0.045860212 0.011184743
000300 f0 1e 59 3d b5 06 23 3f 36 8f 14 bd 82 35 61 3d
       0.05300802 0.6368211 -0.03626939 0.05498267
000310 6f a2 0b 3e db 85 90 3c 73 be 24 bc db 99 28 3c
       0.13636182 0.017641952 -0.010055172 0.010290588
000320 75 b0 56 3e 7a dd 07 3f 59 0f eb bc 65 a3 f9 bd
       0.2096575 0.5307232 -0.028693842 -0.12189368
000330 c5 a3 0e 3e b3 64 66 bc b1 1f c7 bc 2a ec 24 be
       0.1392966 -0.0140620945 -0.024307104 -0.16105714
000340 9f 98 67 3e 26 66 2c 3f ab 7e aa bd db a3 9d 3e
       0.22616814 0.67343366 -0.08324941 0.30789074
000350 71 d8 9f 3e 62 06 a0 bf e4 3e dc bc 40 02 b5 3e
       0.3121982 -1.2501948 -0.026885457 0.3535328
000360 00 9d c9 3d 1a bb 72 3e 63 26 b2 bc 6a 3b c5 3d
       0.098443985 0.23704186 -0.02174682 0.09630473
000370 46 ba 46 be 99 b2 fd bd 10 fd 89 bc 3f bd 8a 3d
       -0.19406995 -0.123875804 -0.016844302 0.06774377
000380 cc 30 2e 3e 02 d5 82 3e a3 69 1d bc 59 fa 08 be
       0.17010802 0.25553137 -0.009607705 -0.1337675
000390 cb fa 27 be 8e ee c8 be 09 8a 58 bd 2d 2e aa bd
       -0.16404264 -0.39244503 -0.052866016 -0.083095886
0003a0 80 4b 7d 3e d8 00 64 3e b4 d4 93 bd 10 56 aa be
       0.24735832 0.22265947 -0.07218304 -0.33268785
0003b0 80 62 2e be 31 1d 22 be e6 ab 69 bd 81 5d ab be
       -0.17029762 -0.15831448 -0.0570487 -0.33469775
0003c0 d2 68 74 3d 27 b6 a6 3e 8d 6d 86 bd ac 58 9f be
       0.059670277 0.32560846 -0.06563864 -0.3112234
0003d0 85 d4 3c 3e fa c3 da 3e e5 0d c3 bc a4 3c a7 be
       0.18440445 0.42727643 -0.023810336 -0.32663453
0003e0 54 70 47 3e 48 89 d7 3e ba c8 3c 3d 10 31 2f 3d
       0.19476444 0.42096925 0.046089865 0.0427714
0003f0 cf 3b 13 3e 14 7c 5d be 10 5a 39 3d 72 4c c6 3d
       0.14378284 -0.21629363 0.045251906 0.096825495

obs_net.fcs1.bias f4 [256]
000000 fa ee 9b be 36 bb d1 be ae 19 0a bf 4a ab 13 bf
       -0.30455762 -0.40963143 -0.53945434 -0.5768324
000010 24 7b 05 3d 8a f7 d1 be fb 9b 8d bf 41 70 e2 be
       0.03258814 -0.4100917 -1.1063226 -0.44226268
000020 5b 8e 53 bf 05 a2 09 bf e9 2f 11 bf 9e d9 1e be
       -0.8263909 -0.5376285 -0.5671373 -0.15512702
000030 3d f8 a1 be 2e 58 46 be 6a 22 bf 3d b3 95 05 bf
       -0.31634703 -0.19369575 0.09332736 -0.5218155
000040 14 74 0a be 17 9a ba be 1a 71 c3 3d 3f f3 d7 be
       -0.13520843 -0.36445686 0.09543057 -0.4217777
000050 c7 fe 53 bf 9c f5 c5 3e 55 cb 96 be d0 24 b6 be
       -0.82810634 0.38663948 -0.29452005 -0.3557496
000060 93 1d 7c 3d ee bb 10 bf ae 1a 8e bd bb 73 88 be
       0.06155164 -0.5653676 -0.069386825 -0.26650795
000070 f7 24 01 bf bf e3 2c be 4e f6 25 bf f7 45 4a be
       -0.5044703 -0.16883753 -0.64828956 -0.19753252
000080 37 92 19 bf 75 d2 bf bd 05 13 8e 3c 2d 62 2c be
       -0.5998873 -0.09366313 0.017343054 -0.16834326
000090 d7 6f 06 bf f9 76 cf bd 84 e0 c4 be 3b 4f 16 be
       -0.52514404 -0.10130114 -0.38452542 -0.14678662
0000a0 ae 12 bc be 66 bd 4a be e2 92 1d 3e 4d 88 b5 3e
       -0.36733 -0.19798812 0.15388063 0.35455552
0000b0 5c 90 7a 3d 77 ec 2d 3e 55 22 45 be cc 19 7d be
       0.061172828 0.16984735 -0.19251378 -0.24716872
0000c0 77 c1 87 be 45 2f e9 be ac b2 7f bf 96 9b b7 bd
       -0.2651479 -0.45543876 -0.99882007 -0.089652225
0000d0 a1 af 47 be d1 9c 14 bf 27 2c 11 bf c7 d8 45 be
       -0.19500591 -0.5805178 -0.56707996 -0.19320975
0000e0 e5 05 b8 3e d8 45 3f bf 45 6d 17 bf 08 8f 36 bf
       0.35941997 -0.7471595 -0.5915111 -0.71312
0000f0 f0 4c 60 be 64 8f 31 bf ea 5b 89 be 2d 80 f7 be
       -0.2190435 -0.6935942 -0.26827937 -0.48339978
000100 22 d4 90 bd f3 77 f6 be 49 10 bf 3d 8d bb f8 bd
       -0.07071711 -0.4813839 0.09329278 -0.121451475
000110 72 95 30 bf 02 40 0f 3d 9a cb 1c bf 60 eb 26 3e
       -0.68978035 0.034973152 -0.6124817 0.16300726
000120 ad b7 44 3f e7 fc 44 bf e8 ff 62 be ac 40 34 bf
       0.76842767 -0.769484 -0.22167933 -0.7041118
000130 fe cf e5 be b3 ab 6f be da 6d 10 bf 3b 74 d1 bd
       -0.44885248 -0.23405342 -0.5641762 -0.10227247
000140 3a 82 08 bf 0b 35 e4 be 9f e8 42 be 8f 8a 08 bf
       -0.5332371 -0.4457172 -0.1903405 -0.53336424
000150 a8 8a a8 be 5e b1 2c bf 76 ff 8b be 99 10 ef bd
       -0.32918286 -0.6745814 -0.2734334 -0.116730876
000160 49 0b a9 3d 5f 5f df be d4 49 4f bf 0c 86 b0 3e
       0.082541056 -0.4362745 -0.8097203 0.3447727
000170 ff b2 b2 3d ec 9c 68 3e 62 9b 6b be ed 82 b9 3d
       0.08725547 0.22716111 -0.23008493 0.09058175
000180 49 ec 5b 3c c5 b9 c5 3e c1 6e 7c be 8f 4b 9a be
       0.013423034 0.38618293 -0.24651624 -0.30135772
000190 98 38 cc be 83 b5 3d be 34 87 11 bf 8a 64 dd bd
       -0.39886928 -0.18526272 -0.5684693 -0.10810192
0001a0 4e 57 37 bf 66 23 03 bf a1 51 bc be aa 7a 58 3d
       -0.7161759 -0.5122589 -0.36781028 0.052851357
0001b0 71 d2 48 be b8 a1 18 bc 5c f6 9a be 17 9c c0 be
       -0.19611527 -0.0093159005 -0.30266082 -0.37619087
0001c0 a6 f6 56 bf d2 f7 17 bf cd 0c 03 3e a1 c2 22 bf
       -0.83970106 -0.5936252 0.12797852 -0.6357823
0001d0 e2 81 09 bf b9 e0 fe be 9c c5 e5 be 6a d3 49 be
       -0.5371381 -0.49780825 -0.44877326 -0.19709554
0001e0 2f 83 a0 bc 82 29 29 be 4a 35 01 3d 54 d9 8d be
       -0.019593803 -0.1651974 0.03154496 -0.2770487
0001f0 7e 02 76 be 05 77 4f be ff fd a2 bd bd 80 50 3e
       -0.24024388 -0.20260246 -0.07958602 0.2036161
000200 ce 93 a0 be 40 6e 8c be 5c cd d5 be 82 e9 0d bf
       -0.31362766 -0.27427864 -0.4175824 -0.5543443
000210 16 1d ac be 30 c4 96 3d 8c a8 0b bf 88 56 02 bf
       -0.3361594 0.073616385 -0.5455406 -0.50913286
000220 0f a6 66 3c cc 21 03 bf 1f 04 58 bf 0a a1 3e be
       0.014077677 -0.51223445 -0.8438129 -0.18616119
000230 05 b0 58 be 3a da 3c bf ae 52 cd bd 37 ec 13 bf
       -0.21160896 -0.7377049 -0.100255355 -0.5778231
000240 19 8d a0 be 24 6f 4c be 0c 1a c9 bd 26 03 6b be
       -0.3135765 -0.19964272 -0.09819421 -0.2295042
000250 e4 75 67 be 77 62 04 bf e5 46 d4 be 49 cf 76 be
       -0.22603565 -0.51712745 -0.41460338 -0.2410251
000260 bb 4e 95 be e0 9c f0 be 70 ad 54 be b1 79 ab be
       -0.2916163 -0.46994686 -0.20769286 -0.3349128
000270 32 bc 1e bf c2 84 94 3e 23 c1 b6 be d8 1c 00 bf
       -0.62005913 0.29007536 -0.35694227 -0.5004401
000280 75 a9 bb 3c 8e 6a 99 bc 6d 1e ef be d9 3e a9 be
       0.022907952 -0.018727567 -0.467029 -0.3305576
000290 f7 a0 6b be 6f d4 0a 3e f0 98 2e bf 41 ed 5a 3e
       -0.23010622 0.135576 -0.68202114 0.21379568
0002a0 49 9d 9a be bd 2d 5b be fb 24 fa be 41 b5 23 3d
       -0.30198124 -0.21404167 -0.4885634 0.03996778
0002b0 04 7b d7 be 6b 84 6a be 7f 1d d6 bd 64 29 8c be
       -0.4208604 -0.22902076 -0.10454845 -0.2737533
0002c0 3f 28 da be 5b a1 c6 be d3 14 48 bf 86 eb 22 be
       -0.4260883 -0.3879498 -0.78156775 -0.15910158
0002d0 59 67 1e be 07 bf c4 be eb 36 bd be 85 1c e3 be
       -0.15469112 -0.38426992 -0.36955962 -0.44357696
0002e0 8f 9a 79 bf 17 1f b1 be 12 31 c0 3e 57 11 ce be
       -0.9750146 -0.34594032 0.37537438 -0.40247604
0002f0 09 59 10 bd 85 4c b3 bd ca 43 45 bd af 7b ea be
       -0.03524116 -0.08754829 -0.04816035 -0.45797488
000300 78 d2 d0 be 7e 05 13 3d b5 be 81 bf 5e a8 5d be
       -0.40785575 0.03589391 -1.0136324 -0.21646258
000310 5a c5 fa 3e 35 f8 cb be 1c 3e e0 be 37 bc c0 bd
       0.48978692 -0.39837804 -0.43797386 -0.09410899
000320 60 fb d3 be 91 b5 1f 3d b7 5e 24 3e b6 2f 5b be
       -0.4140272 0.038991515 0.16051756 -0.21404919
000330 07 17 cc be 59 d5 30 bf 5e 0a 23 be 41 01 e1 3e
       -0.39861318 -0.6907554 -0.15921924 0.4394627
000340 17 01 ee be f3 c5 48 be 0d 90 a9 be 85 90 f2 be
       -0.46485206 -0.19606762 -0.33117715 -0.47375885
000350 3a 8d ad 3d 5b ee 08 bf c3 e9 1d be 8b da 0f bf
       0.084742025 -0.534887 -0.15421204 -0.56192845
000360 ed 36 0c be 89 ed 59 bd fc 6f 26 be 9d 0d 4a be
       -0.13692828 -0.053205047 -0.16253656 -0.19731756
000370 c9 66 f9 be b4 0f 42 be b3 33 17 3d 47 3e 91 3c
       -0.4871123 -0.18951303 0.03691454 0.017729891
000380 82 68 23 bf e2 19 ba be 16 0f 16 bf c3 50 cd be
       -0.6383134 -0.36347872 -0.5861677 -0.4010068
000390 1b 75 0e bf 12 e7 94 be 1f 59 34 bf d3 c6 8f be
       -0.5564744 -0.29082543 -0.7044849 -0.28081378
0003a0 57 78 a6 be 12 64 27 bf 08 f4 99 3e a4 20 c4 bc
       -0.32513687 -0.6538707 0.30068994 -0.023941346
0003b0 a0 19 54 bf d9 b4 c6 be e4 8f f8 be 7d 34 80 bd
       -0.828516 -0.3880985 -0.4854728 -0.06260011
0003c0 9a f2 4d bf ca 5d 7e be 5d 4d 88 be 1b a4 52 3d
       -0.80448306 -0.24840465 -0.26621523 0.051426034
0003d0 b5 79 64 3e c3 e1 cf bd be 0b 51 be dc 8f c3 be
       0.22312053 -0.101504825 -0.20414636 -0.38195693
0003e0 04 44 80 be 03 f9 21 bf df 77 0e bf 65 ce 6b be
       -0.25051892 -0.63270587 -0.5565166 -0.23027952
0003f0 2f ce 36 bf 7e 6f 70 be 3b 11 af be 8e 01 3c be
       -0.7140836 -0.23480031 -0.34192833 -0.18359968

out_net.fc2.weight f4 [128, 258]
000000 30 aa 75 bd 5d 41 64 bd 23 f5 22 3c 93 5f c5 ba
       -0.059976757 -0.055726398 0.00994614 -0.001505839
000010 2c 5f 04 bd 68 dc 78 bd 69 7f 0f 3d 36 d9 0d 3d
       -0.032317325 -0.06075707 0.035033617 0.034630977
000020 be 40 d5 bd 05 44 b4 bd ef ef 57 3b 1d 5d 69 3c
       -0.10412739 -0.08802036 0.0032949408 0.014243391
000030 94 31 fd 3c 44 6e a0 bd 0e 3e 90 bc 31 5c 9d bd
       0.03090743 -0.078335315 -0.017607715 -0.076836
000040 55 2c ce bd ed 4e 0e bd 4c 3b 5a bd f5 73 e2 bd
       -0.100670494 -0.03474324 -0.053279206 -0.11057273
000050 f9 f6 bc bd de 78 8d bd 68 26 b1 bc 76 5c d4 3c
       -0.09226794 -0.06907819 -0.021624759 0.025922995
000060 ea 6c 39 3d 57 ab 30 bc b4 de cb 3c c8 1a da bd
       0.045269884 -0.010783038 0.024886467 -0.10649639
000070 46 ac 19 bd f4 64 8e bc 11 aa 7b 3d 52 87 d4 bd
       -0.03751781 -0.017382123 0.061441485 -0.10377373
000080 4b bd 41 bd 03 9e ec bd 6d 0f 99 bd a5 56 c7 bd
       -0.047299664 -0.11553576 -0.07473645 -0.09733323
000090 2b bc b1 bd a1 b0 e0 bd 99 44 27 bd d4 0f c7 bd
       -0.08678468 -0.10971189 -0.040836904 -0.09719816
0000a0 7f 7c 01 3d aa 0b ff bd c1 a0 52 bd a3 b2 a3 bd
       0.03161287 -0.124533966 -0.051422838 -0.079930566
0000b0 75 03 c6 bd c7 22 b7 bd 78 d6 73 bd 2e b4 7d bd
       -0.09668628 -0.0894218 -0.059530705 -0.06193941
0000c0 8d 09 f9 bd 78 13 56 3d 1d dd 55 bd 58 2d 89 bd
       -0.12160025 0.05226466 -0.052212823 -0.06698102
0000d0 62 5b 89 3c 95 9f 43 3d b1 06 82 bc f5 58 8c bd
       0.016767208 0.04775961 -0.015872331 -0.06852905
0000e0 d0 44 9b bc 22 83 39 bd 6a f3 8f 3d 3a 5d 79 bd
       -0.01895371 -0.045291074 0.070288494 -0.060879923
0000f0 ef f2 69 bd 4e 20 05 3d 5c 66 f1 3c cc 9e 90 3d
       -0.057116445 0.03250151 0.029467754 0.07061538
000100 96 d0 26 bd 54 3e 00 3d 41 37 30 bd 26 65 7d bd
       -0.040726267 0.03130944 -0.043021444 -0.06186404
000110 7d 38 99 bd 8d d2 1a bd 9e 8e 81 3d be d5 ab bd
       -0.074814774 -0.037798453 0.0632603 -0.083903775
000120 a1 0c 93 bc d0 ac 1c 3d 92 3c 38 bd 06 1d a1 bd
       -0.017950358 0.038250744 -0.04497964 -0.07866864
000130 ed a3 9f bd bc 13 fd 3c b0 7a ee 3c a8 eb 3f 3d
       -0.07794938 0.0308932 0.029111236 0.0468556
000140 9c b9 ff bb f4 14 3b 3d 8f 37 2a bc 76 34 9f bc
       -0.007804109 0.04567428 -0.010389223 -0.019434195
000150 3f 50 c2 bd ce 4e b9 bc f8 07 af bd 16 8a 49 bb
       -0.09487962 -0.022620585 -0.08546442 -0.0030752472
000160 ac 54 9a bd 89 2e 8c 3d 9a b3 35 bd b8 98 c8 bd
       -0.07535681 0.068448134 -0.044360735 -0.09794754
000170 93 09 8b bd 63 ed ea 3c 0a f9 56 3d f5 2d a9 bc
       -0.067889355 0.028677648 0.052483596 -0.020651797
000180 c1 8f cc 3c f9 98 0b 3d 46 5c 77 bd 5a 6a 94 bd
       0.024970891 0.034081433 -0.060390733 -0.072468475
000190 e1 ef 5e bc 26 d4 ce bc b2 fc 20 bc b6 70 6a bd
       -0.013606996 -0.025247645 -0.009825872 -0.057236396
0001a0 0d 50 b7 bb 60 15 e5 bc be 02 46 3d 41 1d 1d bd
       -0.0055942596 -0.027964294 0.04834246 -0.038357977
0001b0 1e cf 59 bb a6 ef b9 bc 57 dc c2 bd 2f 45 bf bd
       -0.0033235024 -0.022697281 -0.09514683 -0.093393676
0001c0 bf 30 b9 bd 92 71 c6 3b ca 17 8d bd 84 f4 a2 3d
       -0.09042501 0.006056019 -0.06889303 0.07956794
0001d0 d4 0c cb 3c 57 fd 25 bc 1c 5e 31 3d 97 42 c5 bd
       0.02478639 -0.010131202 0.04330264 -0.09631842
0001e0 73 87 9a bd 77 ec d2 bd b4 b4 2f bc 2f 0f 13 bc
       -0.07545366 -0.10299008 -0.010724235 -0.008975788
0001f0 e9 3f 47 bd 49 1d 54 bd 82 f8 c6 3c 2d 03 e9 3c
       -0.048644934 -0.05178574 0.02428842 0.028443897
000200 94 eb 90 bd cc b8 28 bd 2e 2b d9 bd 6a cf fd bb
       -0.07076183 -0.04119186 -0.10603939 -0.007745673
000210 b3 41 3d 3d 81 61 02 bd 1a 14 47 3d 01 f1 0d be
       0.046205234 -0.03183127 0.048603155 -0.13861467
000220 06 b8 6d bd e9 79 86 bd c4 f0 4d bc a9 75 1a 3d
       -0.058036827 -0.06566221 -0.01256961 0.037709866
000230 63 95 55 bd 12 4d 42 3d 6c 99 13 3c e9 84 29 bd
       -0.05214442 0.04743678 0.009008747 -0.04138652
000240 77 1e ba 3c 28 ab a3 3d 60 54 92 3c 45 f6 83 3d
       0.022719605 0.0799163 0.017862499 0.064434566
000250 e6 19 cf bc 28 60 a1 bd 28 5e 1e 3d 0c d3 d2 bd
       -0.025280904 -0.078796685 0.038664013 -0.1029416
000260 6f 2d 94 bd fa ea 73 3d ca 8b 89 3d 3b 1d 48 bd
       -0.07235228 0.059550263 0.06716116 -0.048856
000270 e6 81 ac 3c 32 78 82 3c 87 cb a5 bd e4 16 9d bd
       0.021058034 0.015926454 -0.080954604 -0.07670382
000280 60 f3 68 3d c4 fc 85 bc 5c e7 06 bb a8 71 2e bd
       0.056872725 -0.01635588 -0.0020584678 -0.04258886
000290 74 ce b0 bd aa fb 71 bd 26 93 85 3d 8c 4a fd bc
       -0.08633128 -0.059077896 0.06522207 -0.030919336
0002a0 bd 04 0e be e1 4c 10 bd c5 c5 a9 bd 0b 16 8f 3a
       -0.13868995 -0.035229567 -0.08289675 0.0010916603
0002b0 58 d1 5a bd b1 f7 1b bd 73 7b c5 bd 82 57 9c bd
       -0.053422302 -0.038078014 -0.09642687 -0.07633878
0002c0 44 2d a0 bd 0b 2f 39 3d 29 22 d6 3b 59 d7 dc bd
       -0.07821134 0.04521088 0.006534834 -0.10783262
0002d0 95 fc a2 3d 74 c4 74 bd 70 20 6e 3d 1f 0c ad bd
       0.079583324 -0.059757665 0.058136404 -0.084495775
0002e0 4c d2 5d 3b 49 2c 79 3d 65 80 91 bd 73 ad 55 bd
       0.003384727 0.06083325 -0.071045674 -0.052167367
0002f0 d8 43 87 bd bc b9 83 bd 04 5e 59 bc 6f df 38 bd
       -0.06604737 -0.064319104 -0.013267044 -0.045134958
000300 1a 72 1c 3d 7b b6 7b 3c b1 46 84 bc 62 0e 04 bd
       0.038194753 0.015363331 -0.01614699 -0.03224028
000310 b0 4f 41 bd b4 d5 28 3d f9 25 05 bc 99 a2 b3 bd
       -0.047195137 0.04121943 -0.008126729 -0.087712474
000320 f5 de 58 3c a2 69 a4 bd a5 4a a3 3d 1f 88 ae bd
       0.013236751 -0.0802796 0.07973222 -0.08522057
000330 b7 3b 41 bc 34 f0 ee bd cd 7b 83 bd 03 b0 75 bb
       -0.011794022 -0.11666909 -0.064200975 -0.0037488944
000340 08 26 9a 3d 4c b7 cc bd 8f 6d 5f bd 44 49 84 3c
       0.07526785 -0.099958986 -0.054547843 0.016148217
000350 e5 0b 9c 3d 68 61 59 bb 2f ac 8e bd e7 d3 d9 bd
       0.07619456 -0.003316963 -0.06966435 -0.1063612
000360 2a 6d 1b 3d 0c 39 99 3d 9c a5 34 bb 95 49 da bd
       0.037945904 0.07481584 -0.0027564531 -0.10658566
000370 e1 ca 8b bb 8d 0a 03 ba eb 9f a0 3c 79 77 b1 bc
       -0.0042661284 -0.00049988256 0.019607505 -0.021663414
000380 1d 41 02 3d 6b 9a 5e bd 69 1b c2 bd 98 f8 91 3d
       0.031800378 -0.054346483 -0.09477884 0.071274936
000390 d2 98 c5 bd dd 8c d9 3c ab 03 c6 bc b6 af 06 3d
       -0.09648289 0.026556427 -0.02417167 0.032882415
0003a0 5c 1e 81 bd 15 c0 5c bd 32 64 10 3d 10 28 ee 3c
       -0.06304619 -0.05389412 0.035251804 0.029071838
0003b0 96 7f ad bb 98 98 00 3d 30 2c 9a bd 03 ac 20 3d
       -0.0052947504 0.031395525 -0.07527959 0.039226543
0003c0 be 3a c5 bc e7 34 87 3d 92 d2 63 bc 51 fb 2c bd
       -0.024075862 0.06601887 -0.013905184 -0.04223186
0003d0 30 78 c2 3b 9a 3d d8 ba 01 d2 ee bd f0 f1 92 bd
       0.0059347376 -0.0016497851 -0.11661149 -0.07175052
0003e0 e6 1c 22 3b 4b 1f 6b bd b9 30 cf bd 39 87 0b 3d
       0.0024736463 -0.05740289 -0.10116715 0.034064505
0003f0 7e b4 b2 bd 27 d8 3e bd 0c 35 ad 3b f1 82 05 bd
       -0.087258324 -0.046592858 0.0052858647 -0.03259558

out_net.fc2.bias f4 [128]
000000 8e 20 38 bd 75 83 e8 bc 7d 40 8c 3d bc fd 10 3e
       -0.04495292 -0.028382996 0.06848238 0.14159292
000010 a3 3c 66 be 55 e5 b6 bd 26 c8 27 be d1 79 2d 3e
       -0.22484069 -0.0893046 -0.16384944 0.16941
000020 ea 8d 1b be 6d 66 a8 3d f0 a8 ae be 67 74 f6 bb
       -0.15190855 0.08222661 -0.34113264 -0.0075212005
000030 99 1f 37 3e eb 6c ee 3d 46 b2 8b be 65 64 86 bd
       0.17883147 0.11641868 -0.2728445 -0.065621175
000040 9e 8f 04 3e bc b2 08 bf e8 50 58 bd 01 2c 3a 3d
       0.1294541 -0.53397727 -0.052811533 0.04545212
000050 42 93 b0 3d 8c 40 e1 be 62 c8 49 3e 62 b0 27 3e
       0.08621837 -0.43994558 0.19705346 0.16375878
000060 b9 fc 22 be 49 58 db bd ad 47 e6 bc 9e 90 f8 3e
       -0.15916719 -0.107101984 -0.02811035 0.48547834
000070 99 1e a1 3c 57 01 3f 3d 4d 5a 0a 3e e9 a4 b6 be
       0.01966791 0.046632137 0.1351101 -0.3567269
000080 1d 7d 92 bd 8e fb 8a bd 0c 36 a1 3e 38 c6 1d bf
       -0.0715277 -0.067862615 0.31486547 -0.6163058
000090 03 bf 9a 3e e5 a3 89 3d a0 c4 90 bd 67 3c 20 bf
       0.30223855 0.067207135 -0.07068753 -0.62592167
0000a0 e5 79 d7 3e d0 90 a1 bd c4 f7 2a 3d b8 7c 69 be
       0.42085186 -0.07888949 0.041740194 -0.22801483
0000b0 62 c9 b6 be fb a3 e9 3c c3 a5 c3 3e 47 9a 4d bf
       -0.35700518 0.028520575 0.38212404 -0.80313534
0000c0 3c 4a 2f 3e 4a 8e db bd 5f 50 a9 be 6c 9e 04 3e
       0.17118162 -0.10720499 -0.3306913 0.12951058
0000d0 c2 0d 5a 3e 06 55 a2 be 23 ba b8 3e c9 f9 0e be
       0.2129431 -0.31705493 0.3607951 -0.13962473
0000e0 35 cc e0 3d aa 7e 91 3b f9 2f 92 be ec 88 42 3e
       0.109764494 0.0044401484 -0.28552225 0.18997544
0000f0 a4 3e ff bd cc a5 a3 3c 2d c1 1b bc 5e 23 22 bf
       -0.124631196 0.019976519 -0.009506506 -0.63335216
000100 c3 7e 89 3b f0 99 34 be 8f f9 67 3c 21 42 8c 3d
       0.0041960194 -0.17636847 0.0141586205 0.068485506
000110 05 a5 1b bf 82 60 b2 bd 45 0e 55 3c 11 14 5b 3e
       -0.60798675 -0.08709814 0.01300389 0.21394373
000120 c4 db e4 be a9 e3 45 bf ba 38 3a be bd fe 88 3e
       -0.44698918 -0.77300507 -0.18185702 0.2675685
000130 03 e1 92 3e e3 f4 49 be bc 2f db bd 86 7c 06 be
       0.28687295 -0.19722323 -0.10702464 -0.1313344
000140 5f 0c f4 bd 93 c5 c2 3e 8d 33 b7 b7 63 42 d2 bd
       -0.11916422 0.38041362 -2.1839305e-05 -0.102665685
000150 df c9 53 bb 29 1b 29 bd 93 0d f0 3d 1b cc 24 3e
       -0.003231637 -0.041285668 0.11721339 0.16093485
000160 9f bb 56 be 9d cd d7 be 83 02 02 be 09 33 29 3e
       -0.2097001 -0.42149058 -0.1269627 0.16523375
000170 48 ca 5d 3d 7f 7a 9c 3e 10 1b a4 3c a3 0d 76 3e
       0.05414799 0.30562207 0.020032436 0.2402864
000180 c6 57 93 bb 2b 72 9b 3c 1f 48 ac bd 76 61 ee 3d
       -0.0044965474 0.018975338 -0.084121935 0.11639683
000190 50 6f 4b 3d 2b 44 8c 3d 82 3d 7c bd 4a e6 c4 3d
       0.049666703 0.068489395 -0.061582096 0.09614237
0001a0 f0 8b 18 3e 37 7d 2e bf f0 4a 70 3e ba c5 e3 bc
       0.14897132 -0.6815981 0.23466086 -0.027804244
0001b0 b5 fa 1e be c5 be a8 3c bd 32 f3 bc 4e a3 25 3e
       -0.15525325 0.020598779 -0.02968728 0.16175577
0001c0 11 b5 23 bd 2e 1c 64 be 41 67 8d 3d 85 72 1b 3e
       -0.0399676 -0.22276375 0.0690446 0.15180404
0001d0 4d f5 00 bf 5b 42 76 be 6c 78 d2 3d d4 92 7b be
       -0.503743 -0.2404875 0.10276875 -0.24567729
0001e0 33 f7 7b bd 4c 31 a2 3b ee 49 9c be 48 c5 cd be
       -0.061515044 0.0049497243 -0.30525154 -0.40189576
0001f0 f3 90 ef 3c bb 93 62 bd 6c b1 1b be 29 55 86 bd
       0.029243922 -0.055316668 -0.152044 -0.06559212

out_net.fc3.weight f4 [64, 128]
000000 3c 73 7d 3d b1 53 06 bd bd 09 13 be 9b bb 36 be
       0.061877474 -0.032794658 -0.14359184 -0.17845003
000010 ca a3 dc be f6 68 e1 bc 7a 83 2f bf 38 9c 13 bf
       -0.4309371 -0.02751587 -0.6855999 -0.57660246
000020 ea d4 98 bc 2f 8d db bc dc a2 27 3d 77 d5 3a 3d
       -0.018656213 -0.02680072 0.0409268 0.045613732
000030 6b 4f 1a be a6 24 84 3e ba 2b 93 3e 21 fb 8e be
       -0.15069358 0.2580921 0.28744298 -0.2792597
000040 3f de 1f be 76 2b 97 be 20 d6 30 be b1 df 8d bd
       -0.15612124 -0.29525346 -0.17269182 -0.069274314
000050 2d 29 db bd 87 98 58 bf 2d 44 b1 be 99 75 bc be
       -0.10701213 -0.8460774 -0.34622326 -0.3680847
000060 2f 92 53 3d 51 2a 83 3d c1 c4 17 3e 39 cf 95 3d
       0.051653083 0.064045556 0.1482115 0.07314915
000070 d1 ef 22 bf 82 4f a1 be c4 e2 33 3e 8d 52 b0 be
       -0.6364718 -0.31505972 0.17566973 -0.3443798
000080 13 0c 0e bf 96 8d d6 bd f7 a0 89 3e 2f e8 84 3e
       -0.55487174 -0.10476224 0.2688062 0.25958392
000090 7f 32 f9 be fa cf 89 3e fd a5 bc 3c c2 5e 53 be
       -0.48671338 0.26916486 0.023028368 -0.20641616
0000a0 91 a4 41 bd 8a 61 87 be f9 bf 75 bd a6 6a cb be
       -0.047276083 -0.26441604 -0.059997533 -0.39729804
0000b0 14 3f 39 be 34 ab 6c be 2b cf 63 be 2c f1 d6 bd
       -0.18090469 -0.23112184 -0.22246997 -0.10495219
0000c0 15 10 1c 3e 46 fb 3d be 95 f1 87 3e ac 11 1b be
       0.1524051 -0.18552884 0.265515 -0.1514346
0000d0 11 5d b8 3c d7 4d 68 bd 11 fd 16 bf 79 11 87 be
       0.022505315 -0.05671486 -0.589799 -0.26380518
0000e0 19 4e 40 3e 9d 08 1e bd e8 53 49 be 04 89 e2 3e
       0.18779792 -0.038582433 -0.19660914 0.4424516
0000f0 fc da da be 42 83 e1 be c2 22 19 be 08 c2 a0 be
       -0.42745197 -0.44045454 -0.14954665 -0.31398034
000100 1e 1a 8d bc a0 d6 38 3e 21 14 75 bd ca 07 ae bd
       -0.017224368 0.18050623 -0.05983365 -0.084975794
000110 35 2b 3b be 89 67 2c 3c 98 08 c7 be 57 5f 04 be
       -0.18278201 0.010522732 -0.38873744 -0.12926994
000120 20 48 8e be 95 b3 38 bf 41 c1 30 be 70 e2 01 bf
       -0.27789402 -0.7214902 -0.1726122 -0.5073614
000130 d7 0f 13 bd f4 74 49 be fb 47 8a bc 99 32 f6 be
       -0.035903778 -0.1967352 -0.016880026 -0.48085478
000140 78 7e 9b 3d 5f 7b a4 be 25 ec 82 3e c8 24 16 bd
       0.075924814 -0.32125375 0.2557079 -0.03665617
000150 3c 45 cf 3d 0d bd 53 be 23 3e ca be 01 6c 85 bd
       0.10120627 -0.20677586 -0.39500532 -0.06514741
000160 5f f7 20 bf 7f 8f eb be 5c 89 c9 be 21 b6 be be
       -0.6287746 -0.46007916 -0.3936261 -0.37248328
000170 42 1f 89 3e 4a b3 8c be fd f5 89 be ff 99 ee be
       0.2678166 -0.27480537 -0.26945487 -0.46601865
000180 9a f8 8c 3d 34 02 9d 3e 46 a0 d8 3d 0d 38 a9 bd
       0.068833545 0.30665743 0.10577445 -0.08262644
000190 75 56 83 bc 07 90 6d 3e 74 f2 b8 3c 24 20 bf bd
       -0.016032437 0.23199473 0.022576548 -0.09332302
0001a0 38 aa 6e be 2e 12 0e bf 4d a4 29 be 4e e1 f5 3d
       -0.23307121 -0.5549649 -0.16566582 0.12005864
0001b0 86 8e 18 be 99 98 72 be c5 ae a7 bb ad a0 93 bb
       -0.14898118 -0.23691024 -0.0051172697 -0.004505238
0001c0 48 34 a1 bd a1 6f 0b be a3 23 d8 be 06 3b 06 bf
       -0.078713 -0.13616802 -0.4221469 -0.5243381
0001d0 81 22 fe bd 38 5d 00 be 5b d2 94 be b3 4a 1d be
       -0.12408925 -0.1253556 -0.29066738 -0.15360527
0001e0 5a 39 f2 bb 3c be f1 bc 32 ee 27 bf 5a d1 3c be
       -0.0073920907 -0.029509656 -0.6559783 -0.18439236
0001f0 da 9a 61 be de 46 4f bc 15 59 85 3d 99 3a 08 3e
       -0.22031727 -0.012651173 0.06511132 0.13303603
000200 13 2b 62 bd 06 f2 39 bd cb 0c 79 3e 72 bc b4 3e
       -0.05521686 -0.045396827 0.24321286 0.35300022
000210 ce 42 7a bb 76 0e c0 bd b7 17 8f bd 4b ca 93 be
       -0.0038186791 -0.09377758 -0.06986945 -0.28865275
000220 9d 4c 31 be 57 ea fc 3d 5a 9d 6d bd 77 df 13 bd
       -0.17314382 0.12349384 -0.05801139 -0.036101785
000230 f7 ca 57 be 34 2d 79 3e 17 b8 d9 3d aa 87 6d be
       -0.21073519 0.2433365 0.106308155 -0.23196283
000240 37 f7 db bc ac 60 7c bd 3d ce 35 3e 97 20 a3 be
       -0.02685128 -0.06161563 0.17754455 -0.31860802
000250 24 b1 9c bc f2 66 9f bd e5 c1 96 be 5e 47 8d bc
       -0.019127436 -0.07783307 -0.29444805 -0.017245945
000260 2e 40 35 be 3f 08 a0 bd 60 44 ab 3c e0 b7 4f 3d
       -0.17700264 -0.07814073 0.020906627 0.050712466
000270 9e 26 c8 be c9 5e 61 be 36 45 1a 3e a8 41 e2 bd
       -0.39091963 -0.22008814 0.15065464 -0.11047679
000280 17 b8 07 bf d4 f1 70 bc 5f 74 bf be da 56 3b 3e
       -0.53015274 -0.014706094 -0.37393472 0.1829485
000290 db 52 0a be e2 3a 59 3e fe 5b 01 3d 79 39 73 3e
       -0.1350817 0.21213868 0.03158187 0.23752393
0002a0 e9 2e 8d bc 2b 41 68 be b9 e2 ac 3e 05 d1 eb be
       -0.017234283 -0.2268111 0.33766726 -0.46057907
0002b0 90 73 01 be 9b eb b9 3e bc c2 01 3e c0 92 52 bd
       -0.1264174 0.36312565 0.12671942 -0.051409483
0002c0 d8 94 86 3e 41 c1 e8 bd ed c0 12 be 84 1a 8a bc
       0.26285434 -0.11364985 -0.14331408 -0.016858347
0002d0 c0 c6 81 bc a0 b3 75 3e 55 0d af be e1 54 ad be
       -0.015841842 0.23994303 -0.3418986 -0.3385382
0002e0 20 1f 9f bd 99 cf 6c 3d 96 18 3e bd e1 09 71 3d
       -0.077696085 0.057815168 -0.046410166 0.058847312
0002f0 54 63 a8 bd d8 44 3c bf db 29 b4 be a2 0d 9b 3d
       -0.0822207 -0.7354255 -0.35188183 0.0757096
000300 65 7f 1b bd 2e f9 14 3e 99 c3 fa 3c a6 7b 66 be
       -0.03796329 0.1454818 0.030610846 -0.22508106
000310 55 de 28 3d 63 2e ed bd 1b 4e 2c be b8 c1 b5 bb
       0.041227657 -0.11581113 -0.1682667 -0.0055467747
000320 8a a5 cd 3d 91 74 31 3d 54 c9 6a be 42 8a e7 bb
       0.1004134 0.043324057 -0.22928363 -0.007066042
000330 3c e9 90 be fb 20 f0 bf 7a 7b 9e bc 63 67 0e 3d
       -0.28302944 -1.8760065 -0.019345988 0.034766566
000340 51 82 44 bd c4 c6 75 be 4d 50 b2 be 97 6d 78 3d
       -0.047975842 -0.24001604 -0.3482689 0.060651388
000350 b7 9d ff bd ae a8 76 be ac f7 85 be a5 f8 ee be
       -0.124812536 -0.24087784 -0.2616552 -0.46674076
000360 d1 2c 1d bf c4 f8 45 bd 21 46 81 bf 54 f4 60 3e
       -0.6139651 -0.048332945 -1.0099527 0.21968204
000370 63 b7 66 be 0a 90 66 be dd f9 83 bf 89 fd 5b 3d
       -0.22530894 -0.22515884 -1.0310627 0.053708587
000380 ee 12 7d be 60 c5 a9 bd d5 dc ee 3d d4 ed 8d 3d
       -0.24714252 -0.082895994 0.11663214 0.06930128
000390 e7 71 9b be f2 e4 a5 3e cd f3 1c 3f 15 e6 7d be
       -0.30360338 0.32401234 0.6130951 -0.247948
0003a0 fc 2d 0b 3e 6c 3f 78 be 0e 49 f7 bd a7 20 51 be
       0.1359176 -0.24242944 -0.12074481 -0.20422612
0003b0 50 a4 0c 3e c2 c1 b7 bd d5 5f 42 bf f6 78 29 bf
       0.13734555 -0.08972503 -0.7592748 -0.66200197
0003c0 25 59 36 3e c4 36 8a 3e cd 28 e7 bd c9 b7 bf 3e
       0.17807443 0.26994908 -0.11287079 0.37444904
0003d0 d7 58 56 be 89 fc ef 3c 4a 68 93 3c fd 3f ce bc
       -0.20932327 0.029295223 0.017994065 -0.025176996
0003e0 cc 37 85 3d c1 2b b4 be 0d 96 8c be 90 f8 04 bf
       0.06504783 -0.35189632 -0.2745823 -0.51941776
0003f0 a0 90 e7 bd 1c d5 16 3d ac 16 9a 3d 04 5c 56 3e
       -0.11306882 0.03682433 0.075238556 0.20933539

out_net.fc3.bias f4 [64]
000000 37 83 1e 3e 79 ac 40 3d 7b 16 af 3e ca 56 52 3f
       0.15479742 0.047039483 0.3419684 0.8216368
000010 2d 84 36 3f 23 95 10 3f 1e 28 9f 3e 6d 76 a2 be
       0.71295434 0.56477565 0.31085294 -0.31730977
000020 9f 39 e7 be 45 9f 13 3d e0 1a 06 3e c4 39 08 be
       -0.4516115 0.036040563 0.1309619 -0.13303286
000030 3c f2 af 3e 9b 6d d4 3e d0 74 1f 3e 70 6f 87 bd
       0.34364498 0.41489872 0.15571904 -0.06613052
000040 d0 62 f3 3e 24 d7 48 be d4 b6 95 be d6 2f 25 be
       0.47536325 -0.1961332 -0.2924105 -0.16131529
000050 0f 93 21 3e 60 65 bf 3e 06 83 2c be 03 73 a2 3d
       0.15778755 0.3738203 -0.16846856 0.07932093
000060 2c d9 b3 ba b3 64 bb 3e 72 8a d7 3e 73 68 91 3e
       -0.0013721338 0.36600265 0.42097813 0.284
000070 67 09 81 bd 65 c4 b2 be a6 61 37 be 81 a3 6f be
       -0.063006215 -0.34915462 -0.17908344 -0.23402216
000080 6d 0b 63 3e 68 d3 21 be 17 dc 4d 3d 94 9c 74 3e
       0.22172327 -0.15803301 0.050258722 0.23887855
000090 e0 6e 7b 3e f8 01 1e be c3 3c 15 be 02 54 ce bd
       0.24554014 -0.15430439 -0.1457396 -0.10074617
0000a0 85 8e 5d be 7c 86 78 be 66 89 0e 3f ec ea 0a 3f
       -0.21636398 -0.24270052 0.55678403 0.5426471
0000b0 02 cf 34 3d ba 86 b1 be ec 64 ea 3d 12 81 57 3e
       0.04414273 -0.346731 0.114450306 0.2104533
0000c0 63 d1 28 3c 10 87 3e 3d 47 f9 cc bb 86 a8 b5 3e
       0.010303828 0.046515524 -0.006255302 0.35480136
0000d0 71 ef 52 3d 8e 6c ee bb e7 1b ec be e9 0d f7 bc
       0.05149788 -0.0072761243 -0.46115038 -0.030158
0000e0 4b b7 06 be ae 20 23 bf d4 2a c2 3e 5a b5 70 3e
       -0.13155858 -0.6372174 0.379233 0.2350668
0000f0 bc 91 58 3f 38 f7 f3 3e 61 09 e3 3e 33 c0 0a be
       0.84597373 0.4764955 0.44343093 -0.1354988

out_net.fc4.weight f4 [1, 64]
000000 e5 56 5f 3d 94 ef 2a 3d 5e 4f 39 3c e5 8b 17 3d
       0.05452623 0.041732386 0.0113104265 0.03699865
000010 90 ea d2 3c 9d b4 75 3c 44 b7 20 3d 99 67 ee 3c
       0.025746614 0.014996675 0.039237276 0.029102134
000020 39 23 6a bd 4a 48 1b bd 78 2e aa 3c 4b 8a 60 3d
       -0.057162497 -0.037910737 0.020774111 0.054819386
000030 41 e8 17 3d e4 7d 75 3c 2e 4a 18 3c e0 a2 08 3d
       0.03708673 0.014983628 0.00929503 0.033358455
000040 7a e1 4e bd a4 5d 4b 3d 14 1d 5a 3c d1 0a ae bc
       -0.050508 0.04964985 0.013312597 -0.021245392
000050 78 5e 76 3c dd aa e2 bc 55 3c 6a bd 08 5a 13 3d
       0.015037172 -0.027669365 -0.057186443 0.035974532
000060 2a ec 16 3d 58 c5 cd 3c ef d1 18 3c fa 50 59 bd
       0.036846317 0.025118515 0.009327396 -0.05305574
000070 5c 8a 1d 3d 50 e7 96 bc 4a 78 1a 3d 9f 06 c7 3c
       0.038462028 -0.018420845 0.037712373 0.02429515
000080 5a db 4b 3c 75 f8 7d bd 6f 96 df 3d 7f ce a3 3c
       0.012442434 -0.062004525 0.10917365 0.019995926
000090 e0 6a 54 3c 91 9a 0f 3d ed 21 08 bd 1c af 54 bd
       0.012964934 0.035059515 -0.03323548 -0.05192481
0000a0 61 7a 81 3c 99 88 d5 3d 71 5f 9f 3c 73 3b ee 3c
       0.015805425 0.104264446 0.01945469 0.029081082
0000b0 30 fd 68 3c 2b d5 3a 3d d1 14 cb bc e0 19 d9 3c
       0.014220521 0.04561345 -0.0247902 0.026501596
0000c0 bb 0d 06 bd 8b bf 0a 3d 20 45 d0 3c 45 93 9a 3c
       -0.03272794 0.033874076 0.025423586 0.018869052
0000d0 c1 b2 9c 3c c6 97 15 3d 04 e3 b5 bc 26 12 c9 3d
       0.019128205 0.036521696 -0.022202976 0.09817915
0000e0 4d ee 8c bd 32 35 2e 3d a2 64 fc 3c 83 e7 bb 3c
       -0.0688139 0.0425312 0.030809704 0.022937542
0000f0 2f 4b 45 3d 24 bd 2b 3c 67 87 2d 3c 39 32 8f 3d
       0.048167404 0.010482106 0.010591364 0.06992001
